training/saved_models/IEGM_net.pkl (torch, 57584 bytes, 34 tensors)

weight f4 [3, 1, 6, 1]
0.19565374 0.28304318 0.08286537 0.02689966 0.042999934 0.012218249 -0.43162826 -0.13558938
0.22919592 -0.14874603 0.1279382 0.36217883 0.42183006 0.28897873 -0.3080493 -0.54935175
-0.15511681 -0.008891359
00000000: 7459 483e 09eb 903e 52b5 a93d ad5c dc3c
00000010: b320 303d 0d2f 483c 61fe dcbe f1d7 0abe
00000020: 56b2 6a3e e150 18be 3b02 033e 816f b93e
00000030: 1cfa d73e 05f5 933e a3b8 9dbe 51a2 0cbf
00000040: f1d6 1ebe 10ad 11bc

bias f4 [3]
-0.30094975 -0.20408374 0.26029408
00000000: 1616 9abe 54fb 50be 4445 853e

weight f4 [3]
0.6650209 0.8636924 1.0774096
00000000: cf3e 2a3f f21a 5d3f 8fe8 893f

bias f4 [3]
0.015707301 0.0002768009 -0.097576156
00000000: 99ac 803c 971f 9139 02d6 c7bd

running_mean f4 [3]
0.00022090571 0.0018735222 0.26796192
00000000: eda2 6739 f990 f53a 4e32 893e

running_var f4 [3]
3.515537e-05 0.0002952583 0.00861033
00000000: cb73 1338 e6cc 9a39 5712 0d3c

weight f4 [5, 3, 5, 1]
-0.17013907 -0.06694318 -0.07382837 0.06957822 0.12776303 -0.19649322 0.1928509 0.18290657
0.345459 -0.03700755 -0.17365287 0.34933507 -0.20158577 0.36143354 -0.10567256 -0.0728727
-0.10612923 -0.16524 0.26400346 0.017957877 -0.31942976 0.014579191 0.0070350175 -0.024420794
-0.33122304 -0.029864557 0.057745475 -0.14777839 -0.14186606 -0.18805473 0.15722422 -0.29141545
0.021214195 -0.023186553 0.02795813 -0.29617506 -0.17253299 0.0647383 -0.16952136 0.025178231
-0.0742559 -0.17978778 0.2959911 -0.055194154 -0.30869967 -0.11482407 -0.16218019 0.13591142
-0.24139535 -0.07950025 0.1657547 0.19124454 0.18689917 0.15426122 0.25424042 0.14827813
-0.3901298 -0.26117125 0.035297047 0.16486895 -0.115419336 0.18356511 0.022537349 -0.17907831
0.0914587 0.08885805 -0.2981272 0.17987213 -0.14042619 0.14907172 0.18762001 -0.2461825
0.30190238 -0.29285055 0.12740552
00000000: f038 2ebe 8219 89bd 5433 97bd 077f 8e3d
00000010: 50d4 023e 8535 49be b57a 453e dc4b 3b3e
00000020: 01e0 b03e 3b95 17bd 0fd2 31be 0cdc b23e
00000030: 806c 4ebe d10d b93e db6a d8bd 483e 95bd
00000040: 485a d9bd ad34 29be 762b 873e 661c 933c
00000050: 4c8c a3be 8fdd 6e3c 0186 e63b 1e0e c8bc
00000060: 1196 a9be 84a6 f4bc 8586 6c3d 3853 17be
00000070: 5645 11be 6b91 40be 63ff 203e 6834 95be
00000080: 64c9 ad3c baf1 bdbc 7308 e53c 42a4 97be
00000090: 7dac 30be 8495 843d 0297 2dbe 9442 ce3c
000000a0: 7a13 98bd 4a1a 38be 258c 973e 4413 62bd
000000b0: e20d 9ebe e228 ebbd 9012 26be 5d2c 0b3e
000000c0: 5830 77be 07d1 a2bd 9abb 293e 9cd5 433e
000000d0: 7f62 3f3e a7f6 1d3e cd2b 823e 39d6 173e
000000e0: 18bf c7be 3db8 85be a393 103d 68d3 283e
000000f0: f960 ecbd 7ef8 3b3e 3fa0 b83c 4e60 37be
00000100: b34e bb3d 36fb b53d 21a4 98be 6630 383e
00000110: e2cb 0fbe 42a6 183e 761f 403e 4417 7cbe
00000120: f392 9a3e 82f0 95be 9876 023e

bias f4 [5]
0.22677623 0.34238008 -0.30053237 -0.2621629 0.017366275
00000000: 0738 683e 714c af3e 61df 99be 373a 86be
00000010: b843 8e3c

weight f4 [5]
0.9274459 1.0339332 0.8734399 0.9960819 1.001002
00000000: 186d 6d3f ec57 843f c299 5f3f 39ff 7e3f
00000010: d520 803f

bias f4 [5]
-0.00899774 -0.030373977 0.061093178 -0.03195558 -0.00092716963
00000000: 426b 13bc d9d2 f8bc d73c 7a3d dbe3 02bd
00000010: 4d0d 73ba

running_mean f4 [5]
0.24464622 0.3991123 0.054171417 0.09263478 0.121813744
00000000: 8a84 7a3e 7358 cc3e d9e2 5d3d 4eb7 bd3d
00000010: 7c79 f93d

running_var f4 [5]
0.17790428 0.053315222 0.054391265 0.21592478 0.13666469
00000000: 8a2c 363e 1061 5a3d 60c9 5e3d 631b 5d3e
00000010: d4f1 0b3e

weight f4 [10, 5, 4, 1]
-0.2048065 -0.1456881 0.2537956 -0.09767263 -0.2087226 0.13661154 0.014515772 -0.14397043
-0.28515577 -0.39731896 -0.16813704 0.28651923 -0.24595127 0.057256304 -0.06808011 -0.18911915
-0.43369752 -0.19938067 0.023077426 0.05301266 0.12456112 -0.23089278 -0.028147968 0.06908727
0.23548956 0.3287008 -0.49192235 -0.19690755 0.13989656 0.030604951 0.29013708 0.0025817987
-0.096461065 0.20200297 0.11458247 -0.13733178 -0.27292535 0.0796456 -0.30492887 -0.15585852
-0.19066626 -0.33268127 0.092744045 0.2789616 -0.16817272 0.26869234 -0.20301452 0.10916901
0.18144904 0.05453912 0.06740613 -0.008990959 0.014903122 0.0345567 -0.067823246 0.00060105557
-0.010941963 0.22142178 -0.081356436 0.06402956 0.10678249 0.052869007 0.13145371 0.10130739
0.06927821 0.101996414 -0.048217423 0.027181104 -0.24626209 -0.029612383 0.119505614 0.2866607
-0.27933973 0.30962 0.2964637 -0.049441207 0.14555708 0.08227113 0.19766428 0.026351959
-0.018651253 -0.15866888 -0.3323808 0.30763283 -0.2169111 0.20808119 0.33586767 -0.22913523
-0.15347798 -0.09115934 -0.12433705 0.13180147 -0.12852703 -0.105563916 -0.2097035 0.22191437
0.15565811 -0.14613847 -0.022911873 0.065099634 0.24819337 0.005266631 0.069902666 -0.033782817
0.13860801 0.20430337 -0.0826476 -0.24634215 0.069628835 -0.081020586 -0.045938093 0.057406202
0.08708173 -0.108804785 -0.3880979 -0.29154944 0.13583438 0.2124699 0.13267636 0.048065867
-0.1595628 -0.087248676 0.10214636 -0.1461135 0.16167705 -0.35591507 -0.13908169 0.07674494
-0.043748967 0.01717705 -0.2640857 0.17184347 0.10730237 0.18993619 -0.051047977 -0.3369122
-0.013051461 -0.15234463 -0.13675061 -0.08177847 -0.12959403 0.058210343 -0.28901127 -0.055205613
-0.3089954 0.1490024 0.07482392 -0.333781 0.10122599 -0.009507691 0.15617357 0.08193742
0.0023272517 0.020448407 0.0694427 0.21667796 -0.2175877 -0.14897753 -0.11626014 -0.29591173
-0.08437483 -0.35867417 -0.03105969 -0.22215363 0.07322262 0.092536815 -0.093712695 -0.15621905
0.12880251 -0.15956296 -0.2320127 0.033910412 -0.40728268 0.11537877 -0.08426807 0.04733726
-0.09375009 0.04695826 -0.3536437 -0.22116882 -0.10422703 -0.044677164 0.022443142 0.0054719145
-0.43796995 -0.09507699 0.12599508 0.24598947 0.08956652 -0.08198814 -0.18833621 -0.095909566
0.0058982573 -0.19477613 0.20216358 -0.029733216 0.15804797 0.004038277 -0.067230746 -0.05811391
00000000: ccb8 51be 432f 15be 7ff1 813e 9608 c8bd
00000010: 61bb 55be e5e3 0b3e 90d3 6d3c fc6c 13be
00000020: f0ff 91be 646d cbbe 1e2c 2cbe a6b2 923e
00000030: a6da 7bbe 9685 6a3d 966d 8bbd 73a8 41be
00000040: 9a0d debe 722a 4cbe df0c bd3c ce23 593d
00000050: e719 ff3d 286f 6cbe 9196 e6bc a07d 8d3d
00000060: 2d24 713e 794b a83e 3fdd fbbe 22a2 49be
00000070: 0b41 0f3e 3cb7 fa3c d98c 943e 6533 293b
00000080: 618d c5bd ded9 4e3e 37aa ea3d b4a0 0cbe
00000090: dfbc 8bbe 3b1d a33d a31f 9cbe 6099 1fbe
000000a0: 043e 43be 3355 aabe 97f0 bd3d 0ed4 8e3e
000000b0: 7835 2cbe 0b92 893e 0ae3 4fbe 0094 df3d
000000c0: c7cd 393e 6a64 5f3d 3a0c 8a3d d14e 13bc
000000d0: 392c 743c 548b 0d3d eae6 8abd 2890 1d3a
000000e0: eb45 33bc 64bc 623e 349e a6bd ee21 833d
000000f0: c7b0 da3d 2c8d 583d cd9b 063e 407a cf3d
00000100: bce1 8d3d 7fe3 d03d a27f 45bd e8aa de3c
00000110: 212c 7cbe ab95 f2bc 5cbf f43d 31c5 923e
00000120: 9e05 8fbe 8386 9e3e 17ca 973e dd82 4abd
00000130: ea0c 153e c47d a83d 8168 4a3e 10e0 d73c
00000140: 83ca 98bc 187a 22be d12d aabe 0d82 9d3e
00000150: f21d 5ebe 3c13 553e d9f6 ab3e 6da2 6abe
00000160: 5529 1dbe c0b1 babd 6ca4 febd f7f6 063e
00000170: 979c 03be e531 d8bd 84bc 56be 853d 633e
00000180: d764 1f3e 53a5 15be aeb1 bbbc f552 853d
00000190: 6726 7e3e b493 ac3b 2129 8f3d da5f 0abd
000001a0: 42ef 0d3e e734 513e 2543 a9bd 1e41 7cbe
000001b0: 9099 8e3d 1fee a5bd 9529 3cbd c422 6b3d
000001c0: e857 b23d 0bd5 debd c5b4 c6be f845 95be
000001d0: 2b18 0b3e b691 593e 50dc 073e b7e0 443d
000001e0: 6e64 23be 6faf b2bd 1c32 d13d c79e 15be
000001f0: ab8e 253e 803a b6be 6e6b 0ebe 732c 9d3d
00000200: 1e32 33bd e2b6 8c3c 3e36 87be bcf7 2f3e
00000210: 58c1 db3d a27e 423e af17 51bd c27f acbe
00000220: ccd5 55bc 3b00 1cbe 5a08 0cbe 787b a7bd
00000230: 4cb4 04be f86d 6e3d 49f9 93be 481f 62bd
00000240: a534 9ebe 1694 183e 493d 993d 58e5 aabe
00000250: 924f cf3d 25c6 1bbc f7eb 1f3e cece a73d
00000260: ce84 183b 6b83 a73c f937 8e3d d4e0 5d3e
00000270: 4fcf 5ebe 918d 18be cc19 eebd be81 97be
00000280: b6cc acbd 24a4 b7be e470 febc 3e7c 63be
00000290: bef5 953d f183 bd3d 71ec bfbd e3f7 1fbe
000002a0: cee4 033e 7964 23be bd94 6dbe a5e5 0a3d
000002b0: 5b87 d0be b44b ec3d bd94 acbd b7e4 413d
000002c0: 0c00 c0bd 4e57 403d c910 b5be 147a 62be
000002d0: fb74 d5bd 67ff 36bd aeda b73c bf4d b33b
000002e0: 993d e0be bab7 c2bd db04 013e aae4 7b3e
000002f0: a76e b73d 66e9 a7bd 35db 40be 3c6c c4bd
00000300: 2b46 c13b 6573 47be f803 4f3e 1393 f3bc
00000310: 54d7 213e 8653 843b 46b0 89bd da08 6ebd

bias f4 [10]
-0.07510901 0.19939253 -0.06191952 -0.45557794 0.25142312 0.23011771 -0.15813114 0.14472504
0.11751772 0.2455841
00000000: c1d2 99bd 8e2d 4c3e 539f 7dbd 8341 e9be
00000010: 88ba 803e faa3 6b3e 21ed 21be cd32 143e
00000020: 21ad f03d 667a 7b3e

weight f4 [10]
0.8567852 1.0312272 0.8284872 0.8333673 0.8950647 0.8693342 1.0226728 0.9916706
0.93874115 0.80986553
00000000: 4656 5b3f 41ff 833f bd17 543f 8f57 553f
00000010: f622 653f b08c 5e3f f1e6 823f 20de 7d3f
00000020: 5751 703f 5953 4f3f

bias f4 [10]
0.046994187 0.1665446 0.08374341 0.083793715 0.21068192 0.1630183 -0.10641884 -0.11924229
-0.06037241 0.1664148
00000000: fa7c 403d ab8a 2a3e aa81 ab3d 0a9c ab3d
00000010: 00bd 573e 45ee 263e 1ff2 d9bd 4d35 f4bd
00000020: 0f49 77bd a468 2a3e

running_mean f4 [10]
0.11876941 0.398851 0.16124657 0.13147357 0.34005767 0.2864178 0.13327096 0.3099453
0.31054628 0.30513054
00000000: 603d f33d 3336 cc3e d21d 253e 02a1 063e
00000010: 0a1c ae3e 5ba5 923e 2f78 083e 26b1 9e3e
00000020: ecff 9e3e 123a 9c3e

running_var f4 [10]
0.055281885 0.2928956 0.21811092 0.3365846 0.13310722 0.0875753 0.045637902 0.12275242
0.06061872 0.13012488
00000000: 426f 623d 69f6 953e 7858 5f3e d154 ac3e
00000010: 424d 083e ae5a b33d cfee 3a3d 9f65 fb3d
00000020: 564b 783d 753f 053e

weight f4 [20, 10, 4, 1]
0.05146707 0.07764428 -0.1290047 -0.19087164 -0.104515746 0.16654262 -0.04670044 -0.06899971
-0.013701863 0.22055167 -0.29571286 -0.16982101 -0.08599375 0.14163725 0.096951574 -0.055017788
-0.10599206 -0.12684502 0.2008141 -0.090239696 -0.23191065 0.024849994 0.05260399 -0.1036655
0.003066769 0.09289956 0.0031764864 -0.18103722 -0.033645447 0.06470525 0.20203142 -0.012283892
0.08121488 0.019226504 0.004699289 0.05168817 -0.10849634 -0.12468947 0.08235331 0.017344566
-0.07118398 -0.091927126 -0.04822221 0.022978187 0.0929452 -0.07593454 -0.066816434 0.08847234
0.10721565 -0.31332332 -0.26242253 0.061389893 0.1581837 0.110204935 -0.09700151 0.17934893
-0.2008263 0.07738768 -0.23081322 0.12782069 -0.020304369 0.024928587 0.011246557 -0.1444031
0.33181486 0.18893649 0.015627256 -0.07379326 -0.11263042 0.12974066 -0.2061159 0.11710496
-0.297078 0.33452725 -0.18723346 0.18078089 0.08457851 -0.07974644 -0.0055223056 -0.21260346
-0.1525155 -0.0009814989 -0.25607097 0.1556168 0.020065218 0.06782674 -0.02589021 0.046718057
-0.20469621 0.08801412 -0.04498412 0.09351652 -0.053659465 -0.29377002 -0.35628486 0.09252781
-0.42505938 -0.09931038 -0.20676513 0.30078638 -0.3238741 -0.2170703 -0.07576659 -0.020014156
0.066865385 -0.071575925 0.13118476 0.05981825 -0.10514353 0.2645299 -0.0805048 0.36987633
0.20822935 0.18141586 0.009026227 -0.010755173 -0.25042698 -0.0814726 0.05547112 -0.16445935
0.06628893 -0.26128557 0.04840001 0.17023651 -0.06596428 -0.07163843 0.2053683 0.24576525
-0.03915558 -0.2267063 -0.07887197 0.037294444 0.17585236 0.04309704 -0.057503775 0.41193035
0.12769218 -0.007550438 0.071754135 -0.13999955 0.14936727 -0.060875025 -0.19119132 -0.09024551
0.092147015 -0.053265672 0.023694003 0.10530013 0.30603865 -0.09666261 0.25174385 -0.005123639
0.3223898 -0.12126166 -0.05726525 -0.12765862 0.0008873536 -0.066272825 -0.2703634 0.10046184
0.19334356 0.29285452 -0.19065556 -0.34573552 -0.059828695 0.07230548 -0.040475693 0.2482801
-0.2647173 0.0626496 -0.34752128 0.217129 0.006937902 0.13413168 -0.17178488 0.090000324
-0.039053116 -0.06699434 -0.06205458 -0.2891321 -0.25897175 -0.018114345 -0.48150814 0.070289284
-0.052765127 0.2446797 0.0029565487 0.13008164 0.038537476 -0.09880528 0.017201638 0.15980366
0.16832712 0.09063426 0.08464382 -0.05242022 0.14289457 -0.0076791574 0.07351211 0.11601822
-0.13969973 0.056753386 -0.14609946 -0.22916879 -0.17614093 0.18862411 0.15048072 -0.20081466
-0.11082284 0.1125175 0.009377836 -0.0066672717 -0.049025133 -0.0812597 0.11831363 -0.018899744
-0.113795355 -0.4677533 -0.21132658 0.2122334 -0.10636725 -0.04053362 0.07225498 -0.07372906
-0.05060186 0.05755895 -0.14086495 -0.061429717 -0.15505376 0.14563818 0.14258061 0.21967955
0.112708494 -0.09429268 0.06446286 0.120548084 -0.14231221 0.17655876 0.2063139 -0.13769202
0.01806323 -0.05878035 -0.063697815 0.08797232 0.20230693 -0.08648341 0.08495956 0.3995065
0.11023173 -0.050794933 -0.2186889 0.3017969 0.30287087 0.07349752 -0.035925128 0.11067888
00000000: 22cf 523d f703 9f3d cf19 04be db73 43be
00000010: 5a0c d6bd 268a 2a3e f648 3fbd b84f 8dbd
00000020: c77d 60bc 4cd8 613e ad67 97be 8fe5 2dbe
00000030: 7e1d b0bd 5b09 113e 8c8e c63d 555a 61bd
00000040: 5d12 d9bd a9e3 01be 36a2 4d3e 97cf b8bd
00000050: fc79 6dbe 3792 cb3c 4877 573d 944e d4bd
00000060: d9fb 483b 2042 be3d 992c 503b d261 39be
00000070: cfcf 09bd 3084 843d 53e1 4e3e 6142 49bc
00000080: fd53 a63d e780 9d3c 7efc 993b f9b6 533d
00000090: 5433 debd 315d ffbd daa8 a83d 3116 8e3c
000000a0: e8c8 91bd 4a44 bcbd a784 45bd c03c bc3c
000000b0: 0e5a be3d 9183 9bbd 0ed7 88bd fc30 b53d
000000c0: e193 db3d ea6b a0be 3f5c 86be f873 7b3d
000000d0: e8fa 213e 20b3 e13d baa8 c6bd 3fa7 373e
000000e0: 69a5 4dbe 6f7d 9e3d 4d5a 6cbe 6de3 023e
000000f0: 5955 a6bc 0937 cc3c 7b43 383c 68de 13be
00000100: a3e3 a93e 9178 413e bb04 803c ec20 97bd
00000110: c7aa e6bd bcda 043e 0c10 53be bad4 ef3d
00000120: 9c1a 98be 2847 ab3e 21ba 3fbe a01e 393e
00000130: 7f37 ad3d 1a52 a3bd 75f4 b4bb b9b4 59be
00000140: 062d 1cbe a3a5 80ba bc1b 83be 035a 1f3e
00000150: d05f a43c bfe8 8a3d b517 d4bc 6f5b 3f3d
00000160: e29b 51be bf40 b43d 4541 38bd 9785 bf3d
00000170: 07ca 5bbd 0669 96be f86a b6be 387f bd3d
00000180: 62a1 d9be 3e63 cbbd 3dba 53be ac00 9a3e
00000190: d3d2 a5be ad47 5ebe 842b 9bbd baf4 a3bc
000001a0: b8f0 883d 6696 92bd 4c55 063e fb03 753d
000001b0: 7e55 d7bd 7770 873e b3df a4bd 6e60 bd3e
000001c0: 133a 553e 14c5 393e bde2 133c 7736 30bc
000001d0: f737 80be 1bdb a6bd af35 633d 0868 28be
000001e0: 7ec2 873d 39c7 85be 173f 463d 7b52 2e3e
000001f0: 4818 87bd 2bb7 92bd 114c 523e e3a9 7b3e
00000200: 9a61 20bd b225 68be a187 a1bd 0fc2 183d
00000210: a412 343e 8686 303d 1489 6bbd 89e8 d23e
00000220: bdc1 023e aa69 f7bb d5f3 923d 0b5c 0fbe
00000230: bcf3 183e 1758 79bd a8c7 43be a3d2 b8bd
00000240: 93b7 bc3d 1b2d 5abd ed19 c23c 98a7 d73d
00000250: 19b1 9c3e 0cf7 c5bd 92e4 803e 33e4 a7bb
00000260: 4710 a53e 0858 f8bd f78e 6abd f1b8 02be
00000270: 4b9d 683a 0cba 87bd 126d 8abe f0be cd3d
00000280: dbfb 453e 07f1 953e 363b 43be 3f04 b1be
00000290: ef0e 75bd e514 943d d7c9 25bd 233d 7e3e
000002a0: 0789 87be 6f4e 803d 4fee b1be 1157 5e3e
000002b0: 5757 e33b d159 093e 60e8 2fbe 1752 b83d
000002c0: 29f6 1fbd 5434 89bd f12c 7ebd 1f09 94be
000002d0: f297 84be 8964 94bc 3c88 f6be d4f3 8f3d
000002e0: 3f20 58bd 518d 7a3e a8c2 413b 1f34 053e
000002f0: 79d9 1d3d 6c5a cabd 73ea 8c3c 92a3 233e
00000300: f25d 2c3e 749e b93d bd59 ad3d 96b6 56bd
00000310: f452 123e 71a1 fbbb 848d 963d f69a ed3d
00000320: 720d 0fbe 3d76 683d 199b 15be 39ab 6abe
00000330: 4a5e 34be ae26 413e 9e17 1a3e 5ca2 4dbe
00000340: 16f7 e2bd 936f e63d 7fa5 193c 2179 dabb
00000350: 94ce 48bd 7c6b a6bd 6b4e f23d a3d3 9abc
00000360: 8a0d e9bd 5c7d efbe ff65 58be b653 593e
00000370: 13d7 d9bd 9506 26bd 6bfa 933d 43ff 96bd
00000380: e543 4fbd efc2 6b3d e73e 10be ba9d 7bbd
00000390: 6ac6 1ebe 2d22 153e a700 123e adf3 603e
000003a0: b6d3 e63d 851c c1bd 1b05 843d eae1 f63d
000003b0: 4bba 11be d2cb 343e f343 533e 23ff 0cbe
000003c0: 57f9 933c aac3 70bd 0074 82bd d52a b43d
000003d0: 8c29 4f3e 371e b1bd 47ff ad3d 1e8c cc3e
000003e0: 2cc1 e13d 590e 50bd fcef 5fbe 2085 9a3e
000003f0: e411 9b3e de85 963d 3a26 13bd 9cab e23d

bias f4 [20]
-0.3624713 -0.061158277 -0.23502022 -0.07660474 -0.24481429 -0.20022647 -0.27789986 -0.23000431
-0.14465933 -0.20155446 -0.28732258 -0.25400257 0.040181056 -0.16468136 -0.24661541 -0.23549923
0.081322916 0.077617235 -0.2820454 -0.164217
00000000: d795 b9be 1a81 7abd 24a9 70be f2e2 9cbd
00000010: 99b0 7abe 2b08 4dbe e448 8ebe 4086 6bbe
00000020: 9321 14be 4b64 4ebe f21b 93be a00c 82be
00000030: e494 243d 3ba2 28be c088 7cbe b626 71be
00000040: a18c a63d c9f5 9e3d 4168 90be 8028 28be

weight f4 [20]
0.7531608 0.9462476 1.0333041 0.72435987 0.97134507 0.90562963 1.0278023 0.9962145
0.8259496 0.98538506 0.955205 1.040588 0.92468315 0.8383115 1.0721058 0.9544751
1.0296638 0.83067113 0.81223315 0.9107731
00000000: 25cf 403f 483d 723f 4f43 843f a66f 393f
00000010: 12aa 783f 58d7 673f 078f 833f ea07 7f3f
00000020: 6f71 533f 3242 7c3f 5188 743f fd31 853f
00000030: 09b8 6c3f 959b 563f c33a 893f 7b58 743f
00000040: 06cc 833f dda6 543f 83ee 4f3f 6d28 693f

bias f4 [20]
0.1507738 0.17648068 0.17475827 0.22087783 0.1891414 0.20020908 0.20820597 0.21233933
0.18407467 0.098078474 0.16690838 0.17701589 -0.088485815 0.18801755 0.21970685 0.15019608
-0.027109316 0.064577915 0.24027725 0.14721183
00000000: 7264 1a3e 5ab7 343e d5f3 323e cc2d 623e
00000010: 48ae 413e 9c03 4d3e f233 553e 7b6f 593e
00000020: 127e 3c3e 5edd c83d 08ea 2a3e a743 353e
00000030: 0d38 b5bd ac87 403e d5fa 603e 00cd 193e
00000040: 5b14 debc 6d41 843d 3d0b 763e b3be 163e

running_mean f4 [20]
0.10792892 0.30693775 0.18069163 0.3181464 0.16520964 0.18219325 0.3335179 0.34805542
0.31636786 0.051813226 0.20251313 0.04343067 0.35676476 0.14310893 0.14911889 0.14443809
0.27566338 0.23074019 0.2513431 0.14340761
00000000: d609 dd3d f226 9d3e 3a07 393e 16e4 a23e
00000010: b72c 293e de90 3a3e dcc2 aa3e 5234 b23e
00000020: f8fa a13e 1b3a 543d 9a5f 4f3e 5ce4 313d
00000030: dfa9 b63e 268b 123e 9fb2 183e 94e7 133e
00000040: c023 8d3e 2847 6c3e 0bb0 803e 72d9 123e

running_var f4 [20]
0.12608129 0.3791875 0.17994493 0.33709663 0.19370481 0.19213574 0.54354453 0.47914422
0.3080757 0.029720096 0.22357944 0.0260344 0.17474285 0.12441393 0.20566495 0.14618681
0.29942623 0.1473384 0.3704871 0.12358252
00000000: 741b 013e dd24 c23e 7c43 383e ee97 ac3e
00000010: 8e5a 463e 3bbf 443e bc25 0b3f 6452 f53e
00000020: 19bc 9d3e 8f77 f33c 02f2 643e 1846 d53c
00000030: caef 323e bbcc fe3d d599 523e ffb1 153e
00000040: 654e 993e e1df 163e 7cb0 bd3e d518 fd3d

weight f4 [20, 20, 4, 1]
-0.052707437 -0.009506419 0.09230744 0.06630375 -0.13769965 0.14840092 0.03795623 0.048595045
-0.3266176 0.04207199 0.054504536 -0.14990756 0.06588296 0.052449323 -0.03845571 0.16616446
0.062576085 0.072817795 0.1476323 0.066945344 -0.08927945 0.22596787 0.08935209 0.15678348
-0.048498534 0.08242948 -0.041159857 0.17807944 -0.05991857 0.032434788 -0.12067553 -0.015602197
-0.11056311 -0.057660643 -0.07156568 -0.11655867 -0.17602259 -0.37074935 0.043768898 0.058151912
-0.2571492 0.041273165 -0.12885404 0.11487277 -0.16382058 -0.3272292 -0.040483247 -0.27303997
0.05722514 -0.061398666 -0.060200788 1.0206869e-05 -0.03835 -0.16177963 -0.052420456 0.07684728
-0.032626845 0.065823674 0.0031589076 -0.088229895 0.011818306 0.101218075 0.06718637 0.1540351
0.23277617 -0.0330944 0.19344798 0.11547106 0.051039618 -0.04504127 0.080186665 -0.12081986
-0.017878996 -0.014989571 -0.08024398 0.0954311 0.090666726 -0.096621096 -0.14948022 0.1213692
-0.09480293 -0.009345827 -0.12015408 -0.032907385 -0.043626867 -0.14511757 -0.13618585 -0.093428336
-0.100223154 -0.09215649 -0.17507133 -0.1313716 -0.062095247 -0.1050859 -0.1022957 -0.083466105
-0.17816408 -0.0051656286 -0.09593641 -0.08829976 0.058095347 0.06403697 0.048126582 -0.21041821
-0.027499015 -0.06827661 -0.0027562405 -0.2443056 -0.11859989 -0.07793654 -0.19550341 -0.15436462
-0.09109512 0.0021093101 -0.009394081 -0.28244174 0.1828171 0.00471479 0.033963785 -0.047592353
-0.18357626 -0.048575807 -0.12783664 -0.16625787 -0.22821066 -0.15280643 -0.13210383 -0.19689667
0.0375121 -0.04326645 -0.011993779 0.021495685 -0.27994448 -0.11616361 0.059344307 -0.34109354
-0.46287715 -0.18160103 -0.18309301 -0.15415718 -0.14068468 -0.06232892 -0.06859644 -0.14021021
0.14055313 0.1167908 0.05551741 0.10949366 0.13763586 0.048068527 -0.058967173 0.013088683
-0.13688488 -0.18818472 -0.060814228 -0.12247802 -0.1220615 0.079977795 0.022679135 0.008478626
0.06860354 0.036166597 -0.24406782 0.08404579 -0.008281962 -0.052832063 0.081348605 -0.28216675
0.15818876 -0.0016401056 -0.030449517 0.18929552 -0.007991215 -0.17102447 -0.10938244 -0.08821025
0.10000331 0.01684181 0.05759013 -0.17808703 0.1240691 -0.06003755 -0.19811259 0.19476372
0.08505165 -0.28034884 0.044074513 0.027321214 -0.07461485 0.19457874 -0.1726624 -0.27356488
-0.053360693 -0.07299645 -0.15290503 -0.2394447 0.2064542 0.18701786 -0.18669076 0.010545613
-0.10455343 0.03667469 -0.29673034 -0.20724177 0.038732115 0.20482035 -0.11423739 0.027431594
-0.1716129 -0.18096909 0.14285362 0.04107983 0.06940726 -0.02352938 -0.53943485 -0.11345311
0.03256465 -0.040202197 0.15044531 -0.18559602 -0.0069253286 0.24038367 -0.19842726 -0.100958355
0.06026698 -0.43695974 0.06663119 -0.027070334 0.23034008 0.17134352 0.031683743 0.077003635
0.0335938 0.06413293 -0.16068333 0.120050654 0.34059343 -0.024629775 -0.0047343657 0.32545343
-0.051386792 -0.19706887 0.059176605 0.053154718 0.004970149 -0.118316196 0.040321004 0.2112329
-0.030056566 -0.055453286 -0.07729649 -0.05929178 -0.10412962 0.027269596 -0.15257497 0.25018042
00000000: c1e3 57bd d0c0 1bbc af0b bd3d 43ca 873d
00000010: 2301 0dbe 69f6 173e fe77 1b3d 990b 473d
00000020: 6c3a a7be ae53 2c3d 2640 5f3d 5e81 19be
00000030: a5ed 863d 1ad5 563d bc83 1dbd 0427 2a3e
00000040: e427 803d 7f21 953d ec2c 173e a41a 893d
00000050: 25d8 b6bd 1f64 673e 3bfe b63d d98b 203e
00000060: 66a6 46bd cad0 a83d 3d97 28bd 755a 363e
00000070: 2d6d 75bd 57da 043d bb24 f7bd 5ba0 7fbc
00000080: e96e e2bd 912d 6cbd 0791 92bd 50b6 eebd
00000090: 443f 34be dcd2 bdbe 0447 333d b330 6e3d
000000a0: 0fa9 83be 0d0e 293d 50f2 03be 6a42 eb3d
000000b0: 95c0 27be 968a a7be c3d1 25bd e5cb 8bbe
000000c0: e964 6a3d 2b7d 7bbd 1a95 76bd 2b3e 2b37
000000d0: e414 1dbd 8fa9 25be d5b6 56bd 1b62 9d3d
000000e0: baa3 05bd 90ce 863d ad05 4f3b e0b1 b4bd
000000f0: 91a1 413c 6c4b cf3d 0299 893d 61bb 1d3e
00000100: e05c 6e3e fe8d 07bd 3a17 463e 177c ec3d
00000110: eb0e 513d 327d 38bd e838 a43d 6770 f7bd
00000120: f976 92bc d196 75bc f556 a4bd 6171 c33d
00000130: 7aaf b93d 48e1 c5bd 5811 19be 6a90 f83d
00000140: 0a28 c2bd 3d1f 19bc 5813 f6bd e5c9 06bd
00000150: 16b2 32bd b399 14be 4e74 0bbe 5b57 bfbd
00000160: cc41 cdbd 8bbc bcbd e645 33be 4786 06be
00000170: 9657 7ebd 4737 d7bd 6880 d1bd 47f0 aabd
00000180: a570 36be 6f44 a9bb 4f7a c4bd 81d6 b4bd
00000190: 63f5 6d3d d125 833d 6120 453d df77 57be
000001a0: 9d45 e1bc 9bd4 8bbd 0ba2 34bb 3f2b 7abe
000001b0: 80e4 f2bd 319d 9fbd 0c32 48be c211 1ebe
000001c0: 1490 babd 5a3c 0a3b a2e9 19bc 349c 90be
000001d0: 6834 3b3e 867e 9a3b 9c1d 0b3d 33f0 42bd
000001e0: 6afb 3bbe 6df7 46bd 9ce7 02be 813f 2abe
000001f0: 0eb0 69be 4a79 1cbe 3a46 07be 489f 49be
00000200: 4aa6 193d 2938 31bd 8e81 44bc b817 b03c
00000210: e254 8fbe 30e7 edbd 0413 733d d0a3 aebe
00000220: 3cfe ecbe 9ff5 39be bc7c 3bbe 61db 1dbe
00000230: a50f 10be 9c4c 7fbd 4a7c 8cbd 4493 0fbe
00000240: 29ed 0f3e 0430 ef3d 3966 633d 363e e03d
00000250: 6af0 0c3e 81e3 443d 9087 71bd ea71 563c
00000260: 8d2b 0cbe 7fb3 40be 5718 79bd c2d5 fabd
00000270: 61fb f9bd 66cb a33d 98c9 b93c efe9 0a3c
00000280: 0380 8c3d 6d23 143d eaec 79be 3320 ac3d
00000290: 11b1 07bc 6f66 58bd 199a a63d 2978 90be
000002a0: 3cfc 213e d0f8 d6ba 4471 f9bc afd6 413e
000002b0: 96ed 02bc 0a21 2fbe e703 e0bd 93a7 b4bd
000002c0: 89ce cc3d d6f7 893c a1e3 6b3d 725c 36be
000002d0: f117 fe3d efe9 75bd 07de 4abe 2470 473e
000002e0: 8f2f ae3d e289 8fbe 7a87 343d bdd0 df3c
000002f0: accf 98bd a63f 473e 6ace 30be b210 8cbe
00000300: be90 5abd 2a7f 95bd 2393 1cbe fe30 75be
00000310: bb68 533e 9c81 3f3e dd2b 3fbe 82c7 2c3c
00000320: 1c20 d6bd 3338 163d 0aed 97be 3037 54be
00000330: 91a5 1e3d 6dbc 513e 4bf5 e9bd 39b8 e03c
00000340: 4bbb 2fbe f64f 39be 3848 123e 5343 283d
00000350: 6525 8e3d b0c0 c0bc 6718 0abf 1b5a e8bd
00000360: 8362 053d 0fab 24bd 560e 1a3e e20c 3ebe
00000370: deed e2bb 2327 763e 8430 4bbe 41c3 cebd
00000380: 82da 763d 30b9 dfbe ef75 883d 9bc2 ddbc
00000390: 45de 6b3e ad74 2f3e d0c6 013d 15b4 9d3d
000003a0: a799 093d 2058 833d 2c8a 24be 1edd f53d
000003b0: 4362 ae3e 62c4 c9bc bd22 9bbb d5a1 a63e
000003c0: f57a 52bd 6ccc 49be 2b63 723d c3b8 593d
000003d0: a2dc a23b c34f f2bd a327 253d 704d 583e
000003e0: 3039 f6bc fc22 63bd 9f4d 9ebd f0db 72bd
000003f0: e941 d5bd 7d64 df3c 9d3c 1cbe a617 803e

bias f4 [20]
-0.06370793 -0.2353832 0.07144428 -0.11322041 -0.07104533 0.06638485 0.0045982637 -0.31119233
-0.3568095 -0.28855392 0.07692227 0.024181973 -0.17721 -0.2315542 -0.3537417 -0.0367088
-0.3078631 -0.18873054 -0.28762388 -0.09809128
00000000: 4e79 82bd 4b08 71be 6151 923d 1ae0 e7bd
00000010: 3780 91bd c8f4 873d 08ad 963b 9a54 9fbe
00000020: bcaf b6be 57bd 93be 6c89 9d3d 4619 c63c
00000030: 8a76 35be 8b1c 6dbe a21d b5be f75b 16bd
00000040: 3ba0 9dbe 9442 41be 7043 93be 15e4 c8bd

weight f4 [20]
0.74693114 1.073338 0.73106414 0.7889913 0.9102756 0.8726838 1.1784507 0.68947595
0.76376396 0.91169125 1.017461 1.1831357 0.72247076 0.73783493 0.96081173 0.95029384
0.8624848 1.1821407 0.7536116 0.6695609
00000000: e136 3f3f 2463 893f 0527 3b3f 55fb 493f
00000010: d207 693f 3568 5f3f 79d7 963f 7f81 303f
00000020: 0986 433f 9964 693f 293c 823f fe70 973f
00000030: d8f3 383f c0e2 3c3f c2f7 753f 7546 733f
00000040: cecb 5c3f 6350 973f b1ec 403f 5868 2b3f

bias f4 [20]
-0.104169205 -0.073330015 0.005002968 -0.18980353 0.025022434 0.025048392 -0.052103363 -0.0122517655
-0.08033894 -0.038416278 0.07013988 -0.08292739 -0.11744827 0.00052750396 -0.15648769 -0.23802593
-0.16586974 -0.04769433 -0.08583819 -0.034590848
00000000: aa56 d5bd 0c2e 96bd f0ef a33b db5b 42be
00000010: d9fb cc3c 4932 cd3c 566a 55bd a1bb 48bc
00000020: be88 a4bd 635a 1dbd 7fa5 8f3d d6d5 a9bd
00000030: b888 f0bd 3148 0a3a 4f3e 20be 12bd 73be
00000040: c2d9 29be 215b 43bd efcb afbd 22af 0dbd

running_mean f4 [20]
0.55187815 0.0801119 0.46565357 0.62120974 0.50418633 0.34303182 0.16969423 0.49830306
0.20259011 0.5827268 0.26087698 0.19709522 0.6727232 0.19730231 0.4468933 0.7812056
0.58616316 0.106489114 0.5275514 0.42649305
00000000: e347 0d3f b511 a43d 256a ee3e 9a07 1f3f
00000010: 5b12 013f dea1 af3e 53c4 2d3e 9421 ff3e
00000020: c873 4f3e 952d 153f ab91 853e 54d3 493e
00000030: 9637 2c3f 9e09 4a3e 33cf e43e 17fd 473f
00000040: ca0e 163f f716 da3d 9c0d 073f 4c5d da3e

running_var f4 [20]
0.73247075 0.027322635 0.53249294 0.860306 0.71823627 0.25411847 0.08444973 0.5876211
0.36038357 0.8721804 0.17367947 0.112162545 0.9154348 0.25391954 0.59155446 1.2074955
0.93646485 0.043425977 0.7408517 0.48957595
00000000: 3483 3b3f b8d3 df3c 7551 083f 043d 5c3f
00000010: 55de 373f d11b 823e fbf3 ac3d 566e 163f
00000020: 3284 b83e 3747 5f3f 08d9 313e 7ab5 e53d
00000030: ef59 6a3f be01 823e 1d70 173f 368f 9a3f
00000040: 29bc 6f3f 70df 313d 75a8 3d3f b3a9 fa3e

weight f4 [10, 740]
0.055300698 0.122892156 -0.056520827 0.095660314 0.10872034 0.08016894 -0.038177315 0.040727936
0.05947868 -0.06360633 -0.01622347 0.00803565 -0.018724743 0.06502962 0.10824001 0.094895914
0.14976981 0.13587646 0.13024925 0.120555945 -0.083312795 0.050481047 0.06138457 0.013503635
0.07260519 -0.054637935 -0.044923745 0.101342365 -0.03531709 0.12414129 0.06514657 -0.008479987
-0.08385595 0.24580085 0.16950594 0.03746706 -0.027306952 0.15771407 0.021878652 -0.14804876
-0.16327006 0.057218295 -0.21331687 -0.3725383 -0.16645364 -0.14911066 -0.30887818 -0.01014782
-0.1018291 0.079327896 -0.087336764 -0.01696205 -0.08194621 -0.31538907 -0.11239504 0.12794685
0.205448 -0.2576085 0.007684694 0.11837919 -0.024823874 -0.022082075 0.06913994 0.12165633
0.06019994 -0.038162846 0.06469247 0.09492357 -0.17705324 0.007945312 -0.00072833995 -0.025656037
0.043028545 0.08328963 0.051730625 -0.12782982 0.18501066 0.13093719 0.061744135 0.048585474
0.11007989 0.19715008 0.050123703 0.24123384 0.195843 0.13878697 -0.1520916 0.14735605
-0.029873896 -0.06689343 0.04246377 -0.0034261295 0.051286936 -0.15267351 0.24974881 0.11573838
-0.10595452 0.029002057 0.03423706 0.28607273 -0.025637232 0.084504254 0.08486664 0.028338399
0.10179035 0.1527411 0.12022667 0.07833817 0.22988404 0.07602191 0.1523883 0.005062282
0.008825274 -0.055109266 0.15289654 0.21395533 0.13992381 -3.0653875e-05 -0.09086987 -0.088770345
0.12236099 0.07076796 -0.12398184 -0.020551316 0.026872303 0.07578552 0.008368043 -0.030991623
0.09658365 0.10612774 0.032583095 0.044951126 0.076725654 0.07645421 -0.057661198 -0.015964614
-0.007664723 -0.084445655 0.08702178 0.021451477 0.038609333 0.030103944 0.0008878766 0.12444363
-0.016605202 0.13196567 -0.008314886 0.0007842737 0.17965102 0.012248179 0.09398502 0.21157376
0.05178298 0.16210532 0.09727647 0.02352188 0.08965079 0.28095892 0.25873008 0.030003494
0.11190316 0.17257604 0.08988234 0.14302255 -0.031960353 0.1356058 0.04708213 0.16296172
-0.0053647426 0.20089914 0.0069503784 0.038140252 0.067087546 0.061552256 -0.00047138418 0.01990134
0.2743581 -0.07577528 -0.008538111 0.07179685 0.051885128 -0.109136224 0.100465365 0.023096707
-0.036052898 0.09219147 0.0018486809 0.07787499 0.25721028 0.06437041 0.3119664 0.07480681
-0.05381254 -0.041201763 0.01902977 0.2518041 -0.09062956 -0.052712597 0.30766952 0.11089215
-0.15792494 0.10759736 0.082602926 0.006685414 0.07565321 0.061229363 -0.023745993 0.14416037
0.14912401 0.06555067 0.05728947 0.03663412 0.16136804 0.024282146 -0.120447725 0.12766108
0.2879753 0.13438939 0.21679036 0.2303049 0.14265215 0.051957358 -0.101959 -0.2825136
-0.37512183 -0.35795188 -0.06775212 -0.2672993 -0.2949604 -0.11590416 -0.073164456 -0.42564794
-0.22089465 0.0016529107 -0.031039426 -0.3631807 -0.17347255 -0.117489554 -0.110917926 -0.2027593
-0.124100246 -0.053352006 -0.2159116 -0.08267859 -0.15896794 -0.12753263 -0.27021152 0.039503764
0.1282421 -0.12015304 -0.11213023 0.05612527 -0.1639983 -0.21991193 -0.0019706064 0.05935002
00000000: fc82 623d e2ae fb3d 6282 67bd 8ee9 c33d
00000010: c5a8 de3d 9d2f a43d d15f 1cbd 56d2 263d
00000020: eb9f 733d 0944 82bd 15e7 84bc f5a7 033c
00000030: a264 99bc 402e 853d f0ac dd3d ca58 c23d
00000040: 425d 193e 3323 0b3e 0f60 053e 09e6 f63d
00000050: e69f aabd 37c5 4e3d 636e 7b3d 5a3e 5d3c
00000060: 08b2 943d 07cc 5fbd f601 38bd 968c cf3d
00000070: a7a8 10bd ca3d fe3d 916b 853d a5ef 0abc
00000080: abbc abbd 38b3 7b3e f792 2d3e 0f77 193d
00000090: d4b2 dfbc cc7f 213e dc3a b33c 189a 17be
000000a0: 4430 27be bb5d 6a3d bd6f 5abe 57bd bebe
000000b0: d372 2abe 77b0 18be 4825 9ebe 0b43 26bc
000000c0: c68b d0bd aa76 a23d 9edd b2bd fff3 8abc
000000d0: 6ad3 a7bd ad7a a1be 5f2f e6bd 8004 033e
000000e0: f660 523e 43e5 83be e3cf fb3b ca70 f23d
000000f0: 705b cbbc 78e5 b4bc 3e99 8d3d f426 f93d
00000100: 3694 763d a550 1cbd 7c7d 843d 4a67 c23d
00000110: 724d 35be 0e2d 023c 11ee 3eba 9c2c d2bc
00000120: b33e 303d c193 aa3d 7ee3 533d d2e5 02be
00000130: 6f73 3d3e 6614 063e 6be7 7c3d 9001 473d
00000140: 9171 e13d b6e1 493e 834e 4d3d 0106 773e
00000150: 118b 483e 2c1e 0e3e e6bd 1bbe 81e4 163e
00000160: 1aba f4bc 6cff 88bd 7dee 2d3d ea88 60bb
00000170: 4012 523d 7256 1cbe 27be 7f3e 3e08 ed3d
00000180: affe d8bd b995 ed3c 293c 0c3d 2078 923e
00000190: 2c05 d2bc 9110 ad3d 90ce ad3d ee25 e83c
000001a0: 7677 d03d 2a68 1c3e 6639 f63d c36f a03d
000001b0: b966 6b3e 60b1 9b3d ae0b 1c3e 80e1 a53b
000001c0: e297 103c 41ba 61bd e990 1c3e 1b17 5b3e
000001d0: 3048 0f3e 5992 00b8 fb19 babd 3acd b5bd
000001e0: 6698 fa3d cbee 903d 31ea fdbd 3c5b a8bc
000001f0: 4e23 dc3c 7035 9b3d 1e1a 093c 25e2 fdbc
00000200: a6cd c53d 8059 d93d da75 053d ac1e 383d
00000210: 5722 9d3d 0694 9c3d 262e 6cbd 39c8 82bc
00000220: 5b28 fbbb d8f1 acbd 7a38 b23d 02bb af3c
00000230: d224 1e3d 8c9c f63c 64c0 683a 4ddc fe3d
00000240: a207 88bc 0222 073e 293b 08bc b897 4d3a
00000250: 70f6 373e 96ac 483c 387b c03d cba6 583e
00000260: 641a 543d f0fe 253e e338 c73d f5b0 c03c
00000270: d59a b73d d9d9 8f3e 4578 843e e3c9 f53c
00000280: 7c2d e53d c6b7 303e 3b14 b83d 8174 123e
00000290: dce8 02bd 3fdc 0a3e 31d9 403d 70df 263e
000002a0: b9ca afbb 81b8 4d3e 00c0 e33b f438 1c3d
000002b0: 3265 893d 381e 7c3d 1d24 f7b9 2308 a33c
000002c0: aa78 8c3e 1230 9bbd 6fe3 0bbc 3a0a 933d
000002d0: 8085 543d d082 dfbd c9c0 cd3d 4e35 bd3c
000002e0: 34ac 13bd e2ce bc3d 704f f23a ec7c 9f3d
000002f0: 11b1 833e a2d4 833d 0fba 9f3e 5034 993d
00000300: 8a6a 5cbd 2ec3 28bd 52e4 9b3c 78ec 803e
00000310: fe9b b9bd 2ae9 57bd dc86 9d3e 6c1b e33d
00000320: 13b7 21be 015c dc3d b92b a93d 5111 db3b
00000330: 12f0 9a3d a4cb 7a3d f586 c2bc c79e 133e
00000340: f7b3 183e 6e3f 863d 5da8 6a3d a90d 163d
00000350: aa3d 253e 5aeb c63c 4cad f6bd 96b9 023e
00000360: 8071 933e 5f9d 093e 4bfe 5d3e 0cd5 6b3e
00000370: 6813 123e 3dd1 543d e1cf d0bd 9fa5 90be
00000380: f80f c0be 7845 b7be a0c1 8abd 74db 88be
00000390: 0d05 97be 295f edbd 3fd7 95bd 87ee d9be
000003a0: 3532 62be 7ba6 d83a 6546 febc d2f2 b9be
000003b0: caa2 31be 5d9e f0bd f028 e3bd 22a0 4fbe
000003c0: 4528 febd a287 5abd ee17 5dbe 6553 a9bd
000003d0: 7ec8 22be ea97 02be 2a59 8abe b3ce 213d
000003e0: e651 033e cc12 f6bd 89a4 e5bd 9ce3 653d
000003f0: 2cef 27be 9830 61be 4a25 01bb 0219 733d

bias f4 [10]
-0.06045272 0.015283638 -0.22296186 0.10343389 0.009645113 -0.011104066 -0.0068264026 0.031078024
-0.17012657 0.030422729
00000000: 459d 77bd 3968 7a3c 1d50 64be 26d5 d33d
00000010: 8906 1e3c d4ed 35bc 04b0 dfbb 5797 fe3c
00000020: a935 2ebe 1639 f93c

weight f4 [2, 10]
0.000106964406 -0.20668519 0.20889725 -0.07358183 0.091446444 -0.06978084 0.03256697 0.14660193
0.12702541 0.2957096 0.059088062 -0.10010722 0.05319296 0.21670714 -0.10205154 -0.26220888
-0.16273868 0.29197973 -0.110397115 0.11817255
00000000: 1452 e038 48a5 53be 29e9 553e 12b2 96bd
00000010: 4648 bb3d 42e9 8ebd f164 053d d11e 163e
00000020: f312 023e 4067 973e 5306 723d 0405 cdbd
00000030: dce0 593d 7ae8 5d3e 6600 d1bd 3e40 86be
00000040: f8a4 26be 5e7e 953e e217 e2bd 7304 f23d

bias f4 [2]
0.31539252 -0.029990733
00000000: 217b a13e 20af f5bc
