training/saved_models/IEGM_net_state_dict.pkl (torch, 53232 bytes, 34 tensors)

conv1.0.weight f4 [3, 1, 6, 1]
0	0x3ed8473c	0.42241848
1	0x3eb957f7	0.36199924
2	0x3ed087bd	0.4072856
3	0xbdbe4856	-0.09291141
4	0xbcdb9c59	-0.02680795
5	0xbe9f593c	-0.31122768
6	0x3c12fafd	0.008970973
7	0xbeaf72ec	-0.34267366
8	0xbe643db4	-0.22289163
9	0xbe4ca44b	-0.19984548
10	0x3e8e86d0	0.2783723
11	0x3eaea360	0.3410902
12	0xbe9fbd2f	-0.31199023
13	0xbe99b32d	-0.30019513
14	0xbebbf7da	-0.36712533
15	0xbe6070b5	-0.21917994
16	0x3d6409ce	0.055673413
17	0x3e2aa3dd	0.16664071

conv1.0.bias f4 [3]
0	0x3eb9283f	0.36163518
1	0xbdb616ac	-0.08891043
2	0x3dc75cf3	0.097345255

conv1.2.weight f4 [3]
0	0x3f80fe5f	1.0077628
1	0x3f859578	1.0436239
2	0x3f82ac75	1.020888

conv1.2.bias f4 [3]
0	0x3bad19b7	0.0052826065
1	0xbca92f6e	-0.020652499
2	0x3a37bf79	0.00070094276

conv1.2.running_mean f4 [3]
0	0x3ebc71b1	0.3680549
1	0x3c14674a	0.009057829
2	0x3de102b7	0.10986846

conv1.2.running_var f4 [3]
0	0x3c3fa686	0.011697417
1	0x3b48c85e	0.0030637006
2	0x3c076e24	0.008266006

conv2.0.weight f4 [5, 3, 5, 1]
0	0x3e6be41d	0.23036237
1	0xbe4f111b	-0.20221369
2	0x3c89f012	0.016838107
3	0x3e15217e	0.14563558
4	0xbde6f7b3	-0.112777136
5	0x3e8bbbc8	0.27291703
6	0x3e744f87	0.23858462
7	0xbe145a5a	-0.14487591
8	0xbdb1b5b2	-0.08677234
9	0xbead740f	-0.33877608
10	0xbdde8086	-0.10864358
11	0x3e570072	0.20996264
12	0x3c860013	0.016357457
13	0x3c7e6e90	0.01552929
14	0x3de335c2	0.11094238
15	0xbe705e98	-0.23473585
16	0x3e013630	0.12618327
17	0xbda0aaa4	-0.07845047
18	0x3d2323b3	0.039828967
19	0x3e38db73	0.18052463
20	0x3e41fb0e	0.18943426
21	0x3e32ec75	0.17473014
22	0xbd18d8dc	-0.03731619
23	0xbe3b7b9d	-0.18308873
24	0xbe6efd19	-0.23338737
25	0x3e4e735d	0.20161195
26	0x3df3ede4	0.119106084
27	0x3db15d4b	0.08660372
28	0xb9338bed	-0.00017122897
29	0x3e270621	0.16310932
30	0x3cbd789d	0.023128802
31	0xbe3d4378	-0.18482769
32	0x3dd380d3	0.10327306
33	0x3e47e84c	0.19522208
34	0x3d6a29ec	0.057168886
35	0x3e432dcd	0.1906044
36	0x3e869206	0.26283282
37	0x3dd21a4e	0.102589235
38	0x3d4d65c9	0.050145898
39	0x3e7be0f7	0.24597536
40	0x3e682ae6	0.22672614
41	0xbde82fa3	-0.11337211
42	0x3d801db6	0.06255667
43	0xbe1d3569	-0.15352406
44	0x3d9c1b51	0.07622398
45	0xbd1ef694	-0.038809374
46	0x3dc6e865	0.097122945
47	0xbde613a8	-0.11234218
48	0x3d39e6bd	0.045386065
49	0x3da9c948	0.082903445
50	0xb9f3903f	-0.00046456043
51	0xbd73136c	-0.059344694
52	0xbe72823f	-0.23682497
53	0x3dcbfbcc	0.09960136
54	0xbe4f74fe	-0.20259473
55	0x3df02ded	0.1172751
56	0xbe1cae23	-0.15300803
57	0xbde308f0	-0.11085689
58	0xbe5172e4	-0.20453984
59	0xbd86433f	-0.06555795
60	0xbe3292a0	-0.17438745
61	0xbe3df69d	-0.18551107
62	0x3d3a6ad2	0.045512028
63	0xbe09e5e9	-0.1346661
64	0x3e29fba8	0.16599905
65	0x3da19d28	0.07891303
66	0x3c35eb15	0.011103411
67	0xbe1bc87b	-0.15213196
68	0x3dee64e5	0.11640338
69	0x3dbb6019	0.091491885
70	0x3bc2f7d8	0.0059499554
71	0x3e58d267	0.21174012
72	0xbe48679c	-0.19570774
73	0xbde9b7ab	-0.11411985
74	0xbdfde0b2	-0.12396373

conv2.0.bias f4 [5]
0	0x3cbbfb69	0.02294703
1	0x3e087794	0.13326865
2	0x3d775c0d	0.06039052
3	0x3c2a57ee	0.010396941
4	0xbd96ea54	-0.07368913

conv2.2.weight f4 [5]
0	0x3f7e473a	0.99327433
1	0x3f7fa662	0.99863255
2	0x3f816221	1.0108072
3	0x3f86221d	1.047916
4	0x3f839fee	1.0283182

conv2.2.bias f4 [5]
0	0xbc67418b	-0.014114748
1	0x3ca0eb6e	0.019643512
2	0xbb06219b	-0.0020466808
3	0xbcab896b	-0.02093955
4	0xbcac6fb0	-0.02104935

conv2.2.running_mean f4 [5]
0	0x3e104762	0.1408973
1	0x3e55e479	0.20887937
2	0x3e42fccf	0.19041751
3	0x3e0906f2	0.13381556
4	0x3db320ac	0.08746466

conv2.2.running_var f4 [5]
0	0x3ea24567	0.31693575
1	0x3e88e855	0.26739755
2	0x3eb8ffa0	0.36132526
3	0x3cdaa6e1	0.026690902
4	0x3d6a6024	0.057220593

conv3.0.weight f4 [10, 5, 4, 1]
0	0xbdf8ed13	-0.12154593
1	0x3d4e1f96	0.05032309
2	0xbe28d992	-0.16489246
3	0x3e3a8f83	0.18218808
4	0xbe70bb2d	-0.23508902
5	0x3da1cc38	0.0790028
6	0x3e474bcf	0.19462512
7	0x3e226362	0.15858224
8	0xbdf66521	-0.120310076
9	0x3e2d37ef	0.16915868
10	0x3e66de40	0.22545719
11	0x3c434bc1	0.011919917
12	0x3cd9d47c	0.026590578
13	0xbd7bdc74	-0.061489537
14	0x3d608aa4	0.054819718
15	0xbe43aa84	-0.19108015
16	0xbe588457	-0.21144234
17	0x3e80caa8	0.25154614
18	0x3e5af5ff	0.21382903
19	0xbdb93614	-0.09043518
20	0xbe2f6a7e	-0.17130467
21	0x3bed6ed5	0.007245878
22	0xbb63c59a	-0.003475523
23	0x3da80b9a	0.08205338
24	0xbe1c7761	-0.15279914
25	0x3e14113b	0.14459698
26	0xbe3a1fed	-0.18176241
27	0xbe419300	-0.18903732
28	0xbe003a7e	-0.12522313
29	0xbdf83e14	-0.121212155
30	0x3da66c4d	0.081261255
31	0x3d13e351	0.036105458
32	0x3e3a0956	0.18167624
33	0x3e11c15f	0.14233921
34	0x3e1d888f	0.15384124
35	0x3db76548	0.08954865
36	0x3e244eb7	0.16045652
37	0x3c9aff9f	0.018920718
38	0xbd473be2	-0.048641093
39	0x3db12427	0.08649474
40	0xbd62f93a	-0.055413462
41	0x3cab1822	0.02088553
42	0x3d77871b	0.06043158
43	0x3d690c91	0.05689675
44	0x3d87a7a8	0.06623775
45	0xbe1a5e7b	-0.15075104
46	0xbc5d1709	-0.013494262
47	0x3cbc404e	0.022979882
48	0xbe17cd85	-0.14824493
49	0x3cea3373	0.028588986
50	0xbe212751	-0.15737654
51	0x3ca6d3fb	0.020364752
52	0xbe93641d	-0.28787318
53	0xbe4c9d02	-0.19981769
54	0xbe6f3512	-0.23360088
55	0xbc94d268	-0.018166736
56	0x3e110bc4	0.14164644
57	0x3d0f263c	0.034948573
58	0xbdf20568	-0.118174374
59	0x3d7f6c0b	0.062358897
60	0x3e37779e	0.17916724
61	0xbd2bfadf	-0.041987296
62	0x3e789d9f	0.24278878
63	0x3d95b835	0.07310525
64	0xbe0bfa69	-0.13669743
65	0xbd5e6f9a	-0.05430565
66	0x3da56793	0.08076396
67	0xbdf45f88	-0.11932284
68	0xbdb920e2	-0.09039475
69	0xbd1cf46d	-0.03831904
70	0xbe1a6c88	-0.15080464
71	0x3e237467	0.15962373
72	0x3e7aaae0	0.24479246
73	0xbdb8e090	-0.09027207
74	0xbd8ccf1c	-0.068754405
75	0xbe23d4e4	-0.1599918
76	0x3d69064e	0.05689078
77	0xbdfb9491	-0.12284196
78	0x3ddcc0f2	0.10778989
79	0xbdd255ce	-0.10270272
80	0xbdab438b	-0.08362492
81	0x3e5ac021	0.21362354
82	0xbe033140	-0.12811756
83	0xbdecba13	-0.11558928
84	0x3dbcbace	0.09215318
85	0x3dff04d1	0.124520905
86	0x3e310181	0.1728573
87	0x3d06ad3a	0.032880045
88	0x3cb1d7ba	0.021709312
89	0x3e43860f	0.19094108
90	0xbe5c4f35	-0.2151459
91	0xbe0becd3	-0.1366456
92	0x3d9813aa	0.074256256
93	0x3e57ef49	0.21087374
94	0xbe0e905d	-0.13922258
95	0x3e3c4766	0.18386611
96	0x3e2d3ec5	0.16918476
97	0xbd0cee1e	-0.034406774
98	0xbe2288fb	-0.15872566
99	0x3e304295	0.17212899
100	0x3d8c3cb5	0.068475164
101	0xbcfc567f	-0.030802963
102	0xbdd4f2a1	-0.1039784
103	0x3dd0c459	0.101937
104	0x3e2cf479	0.16890134
105	0xbd5cda9b	-0.053919416
106	0xbcf38200	-0.029725075
107	0x3e59f826	0.21286067
108	0x3e0b0502	0.13576129
109	0xbd378954	-0.0448087
110	0xbc952b0e	-0.018209007
111	0x3de98217	0.11401766
112	0x3e1e7ed7	0.15478073
113	0x3e3c1bb6	0.18369946
114	0x3e6fd9ca	0.23422924
115	0x3e26276d	0.16225977
116	0x3e2215cb	0.15828626
117	0x3e20da55	0.15708287
118	0x3e04fe89	0.12987722
119	0xbe5a3ebe	-0.21312997
120	0xbd0a958c	-0.033834025
121	0x3e0ed700	0.13949203
122	0x3e4c63d1	0.19959952
123	0xbb921fea	-0.004459371
124	0xbdf80270	-0.1210984
125	0xbd7f2c7b	-0.06229828
126	0x3cd641df	0.026154457
127	0x3e649e9c	0.2232613
128	0xbe29ea1b	-0.1659321
129	0xbdc59ee6	-0.09649448
130	0x3da25698	0.07926673
131	0xbe28b574	-0.16475469
132	0x3d697d67	0.05700436
133	0xbe38aabf	-0.18033884
134	0xbe1db927	-0.15402661
135	0xbe709102	-0.23492816
136	0x3cc9c4af	0.024629919
137	0xbe631649	-0.2217647
138	0xbe3736f1	-0.17892052
139	0xbd86065e	-0.06544183
140	0x3ce0de1b	0.027449658
141	0xbe2c6056	-0.16833624
142	0xbe0c3f2d	-0.13695975
143	0xbe2cdd42	-0.16881278
144	0x3d9bb826	0.07603483
145	0xbe5eb100	-0.21747208
146	0x3d9c5dc7	0.07635074
147	0x3e0901e5	0.13379629
148	0xbc27ec09	-0.010249146
149	0xbe0b8b22	-0.13627294
150	0xbcdce222	-0.026963297
151	0x3d79b513	0.0609637
152	0xbdc4a2ae	-0.09601341
153	0x3b9b603a	0.0047416957
154	0xbd13eea0	-0.036116242
155	0x3e720707	0.23635493
156	0xbe40384f	-0.1877148
157	0xbe17b236	-0.14814076
158	0x3cc292ab	0.023751577
159	0x3de55a18	0.11198825
160	0xbdad69e7	-0.08467465
161	0xbe646494	-0.22303993
162	0xbe5b2d26	-0.21403942
163	0xbe4f2f58	-0.20232904
164	0xbdb16728	-0.086622536
165	0xbd98a27c	-0.074528664
166	0x3e2b2ffe	0.16717526
167	0x3ca2c87a	0.019870985
168	0x3c427d4c	0.011870693
169	0x3d12413f	0.035706755
170	0xbdb4c64d	-0.08826885
171	0x3d5d141a	0.05397425
172	0xbe31d434	-0.17366105
173	0x3d268b76	0.040660344
174	0xbde7f331	-0.11325682
175	0x3e23a13d	0.15979476
176	0xbe30f6d8	-0.17281663
177	0xbd082635	-0.033239562
178	0xbe3b09b9	-0.18265428
179	0xbe2f3008	-0.17108166
180	0x3e28a52b	0.16469257
181	0xbe6ecc6b	-0.23320167
182	0xbe1d1594	-0.15340263
183	0xbd7fcd3f	-0.062451597
184	0x3c49c0bb	0.012314017
185	0x3e348800	0.17630005
186	0x3e1658a4	0.14682251
187	0x3cacd583	0.021097904
188	0x3d41a42f	0.04727572
189	0xbad6b8c7	-0.0016381972
190	0x3e191dbb	0.14952748
191	0x3e15e83c	0.14639372
192	0x3e81d106	0.25354785
193	0xbe27d3f4	-0.16389447
194	0xbddd5e1c	-0.108089656
195	0x3dcb606f	0.099305026
196	0x3e8c058d	0.27347985
197	0xbc929f04	-0.01789809
198	0xbe09621d	-0.13416333
199	0x3e54af71	0.2077005

conv3.0.bias f4 [10]
0	0x3e080af1	0.13285424
1	0xbdcfbdbd	-0.101436116
2	0xbda87428	-0.0822528
3	0xbe7f3579	-0.24922742
4	0xbc57855e	-0.013154356
5	0xbe466ea6	-0.19378147
6	0xbdec65fa	-0.11542888
7	0x3d1ee37f	0.038791176
8	0xbdb2d224	-0.087314874
9	0xbd36897c	-0.04456471

conv3.2.weight f4 [10]
0	0x3f862ea1	1.048298
1	0x3f86d80f	1.0534686
2	0x3f811536	1.0084598
3	0x3f8303b6	1.0235507
4	0x3f7f9645	0.9983867
5	0x3f84841f	1.035282
6	0x3f804034	1.0019593
7	0x3f85c297	1.0450009
8	0x3f862a20	1.0481606
9	0x3f84d3b4	1.0377107

conv3.2.bias f4 [10]
0	0x3d05abbf	0.032634493
1	0xbc927d3b	-0.01788198
2	0xbcc60c49	-0.02417578
3	0xbcb7f314	-0.022454776
4	0x3cf1b27e	0.029504057
5	0xbc08e80e	-0.008356107
6	0xbcbd7c40	-0.023130536
7	0x3b43e1f0	0.0029889308
8	0xbd023933	-0.03179283
9	0x3c998076	0.018738013

conv3.2.running_mean f4 [10]
0	0x3e8aa0e2	0.2707587
1	0x3d8e1689	0.06937892
2	0x3dba3445	0.09092001
3	0x3d758df6	0.059949838
4	0x3e2115a7	0.15730916
5	0x3e28a345	0.16468532
6	0x3df2d947	0.118578486
7	0x3e5c3532	0.21504667
8	0x3e02a4ec	0.12758225
9	0x3e352902	0.17691424

conv3.2.running_var f4 [10]
0	0x3ebc362e	0.36760086
1	0x3d0bb262	0.034105666
2	0x3d324994	0.0435272
3	0x3d304479	0.04303405
4	0x3e20827d	0.15674777
5	0x3e91c93c	0.28473842
6	0x3d200687	0.039068725
7	0x3da85eb4	0.08221188
8	0x3ca7bc00	0.020475388
9	0x3e9094dc	0.2823857

conv4.0.weight f4 [20, 10, 4, 1]
0	0x3e1b06bd	0.15139289
1	0x3c027e01	0.007964612
2	0x3de8a2c6	0.113591716
3	0x3cc4ff8f	0.024047641
4	0x3e4caa5c	0.19986862
5	0xbd29029c	-0.041262254
6	0xbe09ee0a	-0.13469711
7	0x3df25292	0.11832155
8	0xbd206b4d	-0.03916483
9	0xbe181000	-0.14849854
10	0xbc5bc130	-0.013412759
11	0xbda377cd	-0.079818346
12	0x3e062789	0.13101019
13	0xbd88535e	-0.06656526
14	0x3d48eb2c	0.049052402
15	0x3dda4343	0.106573604
16	0x3d0d22f5	0.034457166
17	0xbda84be5	-0.08217601
18	0xbd2d57ff	-0.042320248
19	0x3dd745ff	0.105113976
20	0x3df7a496	0.12091939
21	0xbe164277	-0.14673792
22	0x3c760d93	0.015017885
23	0x3daded74	0.08492556
24	0xbd9ff32b	-0.078100525
25	0x3b92b4de	0.0044771275
26	0x3dcc58ae	0.09977852
27	0xbd853aed	-0.0650538
28	0x3dafdd24	0.08587101
29	0x3d6852d0	0.0567196
30	0xbdfb1c79	-0.1226129
31	0xbe13ad1b	-0.14421503
32	0xbca64a74	-0.020299174
33	0x3cdeb203	0.027184492
34	0x3db5146c	0.08841786
35	0x3d1d3f46	0.03839042
36	0x3e1056e8	0.14095652
37	0xbd9d06f4	-0.07667342
38	0xbd29dc2f	-0.04146975
39	0x3e2a2267	0.16614686
40	0x3c996da2	0.018729035
41	0x3e296ce1	0.1654544
42	0xbdfb74cf	-0.12278139
43	0xbd82dc4f	-0.06389677
44	0x3d83e06e	0.06439291
45	0xbd3be5e2	-0.04587353
46	0xbdba9154	-0.091097504
47	0x3e1a280e	0.15054342
48	0xbd0cc36e	-0.034366064
49	0xbdcfb0af	-0.101411216
50	0xbcc80658	-0.024417087
51	0xbd94d5ac	-0.07267317
52	0xbe41fb61	-0.1894355
53	0xbdae9ed7	-0.0852639
54	0xbda30b7f	-0.07961177
55	0x3e34a66c	0.1764161
56	0xbe01eb81	-0.12687494
57	0xbd45d3d6	-0.048297726
58	0x3d99059d	0.07471774
59	0x3dbe1f7b	0.09283348
60	0xbe242d23	-0.16032843
61	0xbd1c9adc	-0.038233623
62	0x3d9cbed3	0.07653584
63	0xbd552faa	-0.05204741
64	0xbdaf7727	-0.085676484
65	0xbe2e87bc	-0.17043966
66	0x3dc567d6	0.09638946
67	0x3c56e2a8	0.0131155625
68	0x3d02c0f3	0.031922292
69	0x3dcf7305	0.1012936
70	0xbccf2e7c	-0.02529072
71	0xbdb87680	-0.09006977
72	0xbd922dff	-0.07137679
73	0xbe28cf3e	-0.16485307
74	0x3d8b5c9f	0.068047754
75	0xbcfa7087	-0.030571235
76	0x3e1f0ea2	0.15532926
77	0xbd5cb9b8	-0.053888053
78	0xbd84fff3	-0.06494131
79	0x3e24baa3	0.16086821
80	0xbe20f191	-0.1571715
81	0x3e023e67	0.12719117
82	0xbdd56435	-0.104195036
83	0xbd978d77	-0.07400029
84	0x3e282336	0.16419682
85	0xbdc72ab2	-0.0972494
86	0xbc922ff4	-0.017845131
87	0xbd4a69ab	-0.04941718
88	0xbcdf5374	-0.027261473
89	0xbd98a5d3	-0.074535035
90	0x3db6b03c	0.08920333
91	0x3e0d84c5	0.13820179
92	0xbd5c1775	-0.053733308
93	0xbce425cf	-0.02785006
94	0x3d4a0c20	0.04932797
95	0xba9b6198	-0.0011854647
96	0xbd861c04	-0.06548312
97	0xbccd1096	-0.025032323
98	0x3d0ada97	0.03389987
99	0x3d315ac0	0.043299437
100	0x3b90ea70	0.0044224784
101	0x3d06d29b	0.032915693
102	0xbdd21056	-0.10257022
103	0x3de87870	0.11351097
104	0x3dbd8399	0.09253616
105	0xbe319917	-0.17343555
106	0xbcd47582	-0.025934938
107	0x3d493135	0.049119193
108	0x3b42f256	0.0029746494
109	0x3ac6916d	0.0015149541
110	0x3e40e139	0.18835916
111	0xbe4bf158	-0.19916284
112	0x3de2a0a8	0.11065799
113	0xbd48976d	-0.048972536
114	0x3d305013	0.043045115
115	0x3db4dd76	0.08831303
116	0xbdaa51ca	-0.08316381
117	0xbe109bd8	-0.1412195
118	0x3d8330af	0.0640577
119	0xbe33ba63	-0.1755157
120	0xbb54b370	-0.0032455586
121	0xbd040344	-0.032229677
122	0x3d09b1c1	0.033616785
123	0xbdfdd252	-0.12393631
124	0x3b54184c	0.0032363115
125	0xbd2dce82	-0.04243327
126	0xbd9883ae	-0.07446991
127	0xbd439551	-0.04774982
128	0x3dcd0072	0.100098506
129	0xbded4cd0	-0.115869164
130	0xbd615b4d	-0.05501871
131	0x3e232089	0.1593038
132	0xbe061271	-0.13092972
133	0xbd309336	-0.04310914
134	0x3e033121	0.1281171
135	0x3d1afce4	0.03783883
136	0xbcb9ec54	-0.022695698
137	0x3d61ceea	0.05512897
138	0xbd7f4c39	-0.06232855
139	0xbd1e71ee	-0.03868287
140	0xbda6f251	-0.08151687
141	0xbdb0b770	-0.08628738
142	0xbdba6efb	-0.09103199
143	0x3e27334b	0.1632816
144	0xbdbfe419	-0.09369678
145	0x3dfed6ff	0.12443351
146	0x3cb5367e	0.02212071
147	0x3ce00bde	0.027349409
148	0xbd43c840	-0.047798395
149	0xbbd01ee5	-0.006351339
150	0xbccb5cd1	-0.024824532
151	0xbe3b2f18	-0.18279684
152	0x3e216b53	0.15763597
153	0xbd4e767f	-0.050405975
154	0x3da52d61	0.08065296
155	0xbdcad230	-0.09903371
156	0x3dba978c	0.091109365
157	0xbdcd32fb	-0.100194894
158	0x3da71ba5	0.0815957
159	0x3e2b58eb	0.16733138
160	0x3de36585	0.11103348
161	0xbcf8ca54	-0.030369915
162	0x3d714d91	0.058911864
163	0xbdee77e7	-0.11643963
164	0x3dc47b4f	0.09593832
165	0x3d98eb04	0.07466701
166	0x3e1ce471	0.15321518
167	0x3cc14b2b	0.023595413
168	0x3dd36085	0.10321144
169	0xbe034d28	-0.12822402
170	0xbbbd857c	-0.005783735
171	0x3d0c85ee	0.034307413
172	0xbce573a3	-0.028009241
173	0xbe148e7b	-0.14507477
174	0x3d79b03c	0.060959086
175	0xbac673c5	-0.0015140703
176	0x3e2066eb	0.1566426
177	0xbd39ec27	-0.045391228
178	0xbe02adf1	-0.12761666
179	0x3e029181	0.12750818
180	0x3dfd3c62	0.12365033
181	0xbdaf7411	-0.0856706
182	0x3dbe8632	0.093029395
183	0xbd09d82d	-0.033653427
184	0xbd5d963c	-0.054098353
185	0x3d9b1ec1	0.07574225
186	0xbde37ce8	-0.11107808
187	0x3e00f966	0.12595138
188	0xbd2a5dc8	-0.041593343
189	0x3ce8e90c	0.028431438
190	0x3d8c0abb	0.06837984
191	0x3c87fb9a	0.016599465
192	0x3e1f055a	0.15529385
193	0xbdb30944	-0.08742002
194	0x3d9b46f8	0.075818956
195	0xbbf1f88d	-0.007384366
196	0x3e1493ca	0.14509502
197	0x3d06ab93	0.03287847
198	0x3dc9ad06	0.09847455
199	0x3e0dff3a	0.13866892
200	0xbde00beb	-0.10939773
201	0xbe1bce46	-0.15215406
202	0x3e2177ed	0.15768404
203	0xbcb2baba	-0.021817554
204	0x3e430793	0.19045858
205	0x3e134834	0.14383012
206	0x3dcdf7a8	0.10057002
207	0x3dcbf7d1	0.099593766
208	0x3d5531cd	0.052049447
209	0xbd849dea	-0.06475432
210	0x3d3e59b6	0.046472274
211	0x3c1d5746	0.009603327
212	0xbddd7d87	-0.10814958
213	0xbe021762	-0.12704232
214	0xbd41e3aa	-0.047336258
215	0x3cb7305f	0.022361932
216	0xbcbfd0ae	-0.023414936
217	0x3d8ede50	0.069759965
218	0xbda5975e	-0.080855116
219	0xbd161fa6	-0.036651276
220	0xbddf96f3	-0.10917463
221	0x3d7cfbe8	0.061763674
222	0x3d94d2ce	0.0726677
223	0x3dceaff0	0.10092151
224	0x3cc26913	0.023731744
225	0xbe3298b9	-0.17441072
226	0xbdb0d921	-0.08635164
227	0x3caa0bdd	0.02075761
228	0x3e0c1925	0.13681467
229	0x3e155ddd	0.14586587
230	0xbe1ce000	-0.15319824
231	0x3e2588cf	0.1616547
232	0xbcdd5ba1	-0.027021231
233	0xbc52deab	-0.012870471
234	0xbe30566e	-0.1722047
235	0xbd2f249e	-0.04275953
236	0xbd92c155	-0.071657814
237	0xbe2694f1	-0.16267754
238	0x3dbf8e33	0.09353294
239	0x3c91a6ad	0.017779673
240	0x3dd74d5d	0.10512803
241	0xbd3a382a	-0.04546372
242	0x3e1aeb82	0.15128902
243	0x3a4d6d3c	0.00078364066
244	0xbda530fd	-0.080659844
245	0xbd782acf	-0.0605877
246	0xbdea00af	-0.11425912
247	0xbd91a70e	-0.07111941
248	0xbdd0a64a	-0.10187967
249	0xbd1c4e12	-0.03816039
250	0x3db615f2	0.088909045
251	0xbdf0078e	-0.11720191
252	0xbd78ed99	-0.060773466
253	0xbde5ba49	-0.11217172
254	0xbddeb62f	-0.108745925
255	0xbd0aac61	-0.0338558

conv4.0.bias f4 [20]
0	0xbdf7a967	-0.12092858
1	0xbaeae0c0	-0.0017919764
2	0x3d9e3391	0.07724679
3	0xbdef39bf	-0.11680936
4	0xbdb1413a	-0.08655019
5	0x3dde8569	0.1086529
6	0xbd3c463d	-0.045965422
7	0xbdc4f7d1	-0.0961758
8	0x3e2070ae	0.15667984
9	0xbc41d2c4	-0.011830036
10	0x3e34bed7	0.17650925
11	0x3cecb86e	0.028896537
12	0x3d776853	0.060402226
13	0xbd7ec6e3	-0.062201392
14	0xbbb8f109	-0.005643968
15	0xbc71b142	-0.014751734
16	0xbd1cbd31	-0.038266364
17	0x3d755d19	0.059903238
18	0x3be611f1	0.0070211818
19	0x3decf8f8	0.115709245

conv4.2.weight f4 [20]
0	0x3f86078a	1.0471051
1	0x3f82957e	1.0201871
2	0x3f83d901	1.0300599
3	0x3f8546cc	1.041223
4	0x3f83fc59	1.0311385
5	0x3f884cf1	1.0648481
6	0x3f8f93c6	1.1216972
7	0x3f84f276	1.0386493
8	0x3f8446bd	1.0334088
9	0x3f82e958	1.0227461
10	0x3f8e344a	1.1109707
11	0x3f855bb6	1.0418613
12	0x3f860176	1.0469196
13	0x3f88f80b	1.0700697
14	0x3f8f3840	1.1189041
15	0x3f865f8f	1.0497912
16	0x3f816836	1.0109928
17	0x3f8f410a	1.1191723
18	0x3f81774f	1.0114535
19	0x3f883e47	1.0644006

conv4.2.bias f4 [20]
0	0xbd30114c	-0.042985246
1	0x3cee6ed8	0.029105589
2	0xbce67cd1	-0.028135689
3	0xbb9cd380	-0.004785955
4	0xbd150e47	-0.03639057
5	0x3c19c5c8	0.009385534
6	0x3b7aeb42	0.0038287197
7	0x3d0a2638	0.033727854
8	0x3bde9ec6	0.0067938296
9	0xbbfa573f	-0.007639795
10	0xbc09fe5d	-0.008422461
11	0x3c3798ab	0.0112058325
12	0xbd4731bb	-0.04863141
13	0x3c4f349a	0.0126468185
14	0x3cbcb978	0.023037657
15	0xbcd67545	-0.026178965
16	0x3c503b0a	0.0127093885
17	0x3c925f37	0.017867668
18	0xbcd1a28d	-0.025590206
19	0x3c8b57a5	0.017009566

conv4.2.running_mean f4 [20]
0	0x3e0a688a	0.13516441
1	0x3e195be4	0.1497646
2	0x3e9cedb5	0.30650106
3	0x3df67b43	0.12035229
4	0x3e16b5ab	0.14717738
5	0x3e80f23e	0.25184816
6	0x3e1e7430	0.1547401
7	0x3e26d65e	0.16292712
8	0x3e98b863	0.29828176
9	0x3e15ca16	0.14627871
10	0x3e8c7392	0.27431923
11	0x3e65fe65	0.22460325
12	0x3e53510b	0.20636384
13	0x3e3286e5	0.1743427
14	0x3e17746e	0.14790508
15	0x3e02d169	0.12775196
16	0x3e326dc8	0.1742469
17	0x3e7e302f	0.24823068
18	0x3e350ec2	0.17681411
19	0x3e79178a	0.24325386

conv4.2.running_var f4 [20]
0	0x3e145d7e	0.1448879
1	0x3dab3140	0.08359003
2	0x3dcf9e12	0.101375714
3	0x3da54ac9	0.08070905
4	0x3e0406de	0.12893245
5	0x3e32ad76	0.17448983
6	0x3d93eb35	0.072225966
7	0x3e2d0bd2	0.1689904
8	0x3e16c813	0.1472476
9	0x3e0e8cb4	0.13920861
10	0x3dc11d61	0.09429432
11	0x3e8098d8	0.2511661
12	0x3e04dcb0	0.1297481
13	0x3e2642c8	0.16236413
14	0x3d0b6cd6	0.03403934
15	0x3dbe6d89	0.09298236
16	0x3e429726	0.19002971
17	0x3e55c8f8	0.20877445
18	0x3dac4aec	0.08412728
19	0x3e4cf23c	0.2001428

conv5.0.weight f4 [20, 20, 4, 1]
0	0x3ca75a55	0.020428816
1	0x3e04a662	0.12954095
2	0x3bc68432	0.0060582394
3	0x3e03cc9f	0.12871026
4	0xbb95c691	-0.00457079
5	0x3d098108	0.03357032
6	0xbd68da2f	-0.0568487
7	0x3e05ed80	0.1307888
8	0x3c852362	0.016252223
9	0xbda02f6e	-0.078215465
10	0xbe0de6eb	-0.1385762
11	0xbda58ce5	-0.08083514
12	0xbcec6b34	-0.028859712
13	0x3d2ba9c3	0.041909944
14	0xbd857c5f	-0.065178625
15	0x3bcb36a1	0.0062015806
16	0x3b56eedd	0.0032796182
17	0x3c184e1d	0.009295967
18	0xbd201b8e	-0.03908878
19	0x3dd8e74e	0.10590993
20	0xbc525948	-0.012838669
21	0x3e0aae5d	0.13543077
22	0xbd234b84	-0.03986694
23	0xbd584db4	-0.05280848
24	0xbd147020	-0.036239743
25	0xbd5fab9c	-0.05460702
26	0x3dbd60d0	0.09246981
27	0xbd461179	-0.048356507
28	0x3da3ecdf	0.08004164
29	0xbdcc13ee	-0.09964739
30	0x3d5268b3	0.05136938
31	0x3ba46a48	0.0050175525
32	0xbd897a08	-0.06712729
33	0x3bda8576	0.006668742
34	0xbd8d520d	-0.069004156
35	0xbda90e1b	-0.082546435
36	0x3d087616	0.03331574
37	0xbd1e76d9	-0.03868756
38	0x39b426b8	0.00034361123
39	0x3c8b846e	0.01703092
40	0xbdb85eb1	-0.09002436
41	0x3dd82d83	0.10555556
42	0x3e07c1ca	0.13257518
43	0xbdef35a0	-0.1168015
44	0x3dae20f7	0.08502381
45	0x3dda7486	0.10666756
46	0x3e2107d0	0.15725636
47	0x3cfef30a	0.03112175
48	0xbbbc112b	-0.0057393513
49	0x3cbe6138	0.023239717
50	0x3ddf4fcc	0.10903892
51	0x3ccdcdbe	0.02512252
52	0x3bc0d44e	0.0058846837
53	0x3cd5d9d2	0.026104841
54	0xbd34f08a	-0.04417471
55	0xbce95c72	-0.028486464
56	0xbe029bce	-0.12754747
57	0x3d621f49	0.055205617
58	0xbc8b1172	-0.016976092
59	0xbd656e46	-0.056013368
60	0x3bab39ad	0.0052253813
61	0x3e08bc67	0.1335312
62	0xbcdf3690	-0.027247697
63	0x3dabb8f8	0.08384889
64	0x3d576caa	0.052593865
65	0xbddeea7a	-0.108845666
66	0xbcc4531a	-0.023965407
67	0xbd97c004	-0.07409671
68	0xbdbd9038	-0.09256023
69	0xbcf4d086	-0.029884588
70	0xbd2bdf25	-0.041960854
71	0x3dd26ca5	0.102746285
72	0x3b5c84d2	0.0033648503
73	0xbd6d47af	-0.05792969
74	0x3dcdc570	0.10047424
75	0xbd98af7e	-0.074553475
76	0xbd4a3217	-0.049364176
77	0x3d45c8a4	0.04828705
78	0x3e096ebf	0.13421153
79	0x3e11efc2	0.14251617
80	0xbd3366ab	-0.043799084
81	0xbda43e82	-0.08019735
82	0xbe392472	-0.18080309
83	0x3cf3ea59	0.029774832
84	0xbd02eb6d	-0.0319628
85	0xbbcf383a	-0.0063238414
86	0x3d5910d7	0.052994575
87	0xbd75846d	-0.059940744
88	0x3e0f46f2	0.13991907
89	0xbd084ada	-0.03327451
90	0xbd8587b8	-0.06520027
91	0xbb019416	-0.0019772104
92	0x3d7d2d0e	0.061810546
93	0xbdd9fb2d	-0.10643611
94	0xbdcecf4d	-0.10098133
95	0x3df8a92b	0.12141641
96	0x3c03ed1d	0.008052138
97	0xbce33f77	-0.027740223
98	0x3d0ad9dc	0.033899173
99	0xbe1c240b	-0.15248124
100	0xbde181aa	-0.110110596
101	0xbcb82e6e	-0.022483077
102	0x3d5a6ec7	0.0533283
103	0xbdd33a79	-0.10313887
104	0x3db3af69	0.08773691
105	0x3d2f05d7	0.04273018
106	0xbe200862	-0.15628198
107	0xbdc37a79	-0.09544844
108	0xbe10ea9b	-0.14151995
109	0x3d874c46	0.06606345
110	0x3c992065	0.018692205
111	0x3d8ac374	0.06775561
112	0xbd70c792	-0.058784075
113	0xbc5fa0fd	-0.013649222
114	0x3d595a0b	0.053064387
115	0x3d95c1b2	0.07312335
116	0x3dd1b197	0.10238951
117	0xbe03848c	-0.12843531
118	0x3d372914	0.04471691
119	0xbd7ff3c3	-0.06248833
120	0xbdd94f8b	-0.10610875
121	0x3dbcafed	0.09213243
122	0x3d241e42	0.04006792
123	0xbda497e3	-0.080367826
124	0x3ca602d0	0.020265013
125	0xbe0fb029	-0.14032044
126	0xbd39f18e	-0.04539638
127	0x3d1f6230	0.038912
128	0x3c0bb9e8	0.00852821
129	0xbd6eecfe	-0.058331482
130	0xbbd8afa0	-0.006612733
131	0xbd038778	-0.032111615
132	0xbded100f	-0.115753286
133	0x3e0c66ed	0.13711138
134	0xbdd4a2b7	-0.10382598
135	0xb9dd4691	-0.0004220498
136	0x3dce48dd	0.10072491
137	0x3dea89cf	0.11452066
138	0xbdca1004	-0.09866336
139	0x3dbde821	0.09272791
140	0xbc283fa5	-0.01026908
141	0x3c52f244	0.012875143
142	0x3db4adf7	0.08822244
143	0xbd4f4a10	-0.05060774
144	0x3da01887	0.07817178
145	0xbb6a078e	-0.003571007
146	0xbe1aa721	-0.15102817
147	0x3d766100	0.0601511
148	0x3b8e32a6	0.004339534
149	0x3d944c38	0.072411
150	0x3c226576	0.0099118855
151	0x3d48266d	0.04886477
152	0x3e0aaac9	0.13541712
153	0xbda91aca	-0.08257063
154	0xbd5d4edf	-0.054030295
155	0x3d95f204	0.073215514
156	0x3db701fd	0.08935926
157	0x3d74ac16	0.059734426
158	0xbd971e06	-0.073787734
159	0xbc8a02b0	-0.016846985
160	0xbb583104	-0.00329882
161	0x3d5fa318	0.054598898
162	0xbdda8119	-0.10669155
163	0xbd8be4d4	-0.06830755
164	0xbd721c40	-0.059108973
165	0xbdea4b14	-0.11440101
166	0x3d30e6c4	0.043188825
167	0x3cb001ae	0.021485176
168	0x3d905bca	0.070487574
169	0x3d6a62a6	0.057222985
170	0x3dcada15	0.09904877
171	0xbca6ebea	-0.020376164
172	0xbcc85ffc	-0.024459831
173	0x3d9321a3	0.0718415
174	0xbccb0712	-0.024783645
175	0xbc9b5185	-0.01895977
176	0x3c4cd4e2	0.012501927
177	0xbd46d91b	-0.04854689
178	0x3d9f3ecb	0.07775649
179	0xbcda58f3	-0.026653742
180	0xbcc12124	-0.023575373
181	0x3c7e6dfa	0.01552915
182	0xba99c76a	-0.0011732404
183	0x3d0f1b2b	0.03493802
184	0xbe5e45b5	-0.21706279
185	0x3dafaf57	0.08578365
186	0x3d3fcc34	0.046825603
187	0x3d9a1241	0.07523013
188	0xbdc1a4a2	-0.09455229
189	0x3d99a399	0.07501907
190	0x3d85625d	0.06512902
191	0x3d0705eb	0.03296463
192	0x3de15145	0.11001829
193	0x3d8a75f4	0.06760779
194	0x3d92998e	0.071581945
195	0xbd51d343	-0.051226866
196	0x3c92a96a	0.017903049
197	0xbdde7048	-0.1086126
198	0x3da02666	0.07819824
199	0xbdba2083	-0.09088232
200	0xbcd50e79	-0.026007878
201	0x3d8dbcb8	0.06920761
202	0xbc38effe	-0.011287687
203	0x3ae076c6	0.0017125241
204	0xbd870f39	-0.065947
205	0xbc98bcda	-0.018644739
206	0xbb0529f7	-0.0020319202
207	0xbd143ffa	-0.036193825
208	0x3d4890ca	0.048966207
209	0x3d5e544a	0.054279603
210	0xbd07c3d9	-0.03314576
211	0xbd7b0800	-0.061286926
212	0x3c927f94	0.0178831
213	0xbdc7dd89	-0.09759051
214	0xbcf25c8a	-0.029585142
215	0x3dc19bd8	0.09453553
216	0xbe43f4fc	-0.19136423
217	0xbe16e350	-0.1473515
218	0x3a85a590	0.0010196436
219	0x3d7dc793	0.061957907
220	0xbcaa6844	-0.02080167
221	0x3ddf6188	0.109072745
222	0x3dd13f66	0.102171704
223	0xbd557bf5	-0.052120168
224	0x3d8ff9f0	0.07030094
225	0x3bcc59a2	0.006236271
226	0xbd3bce05	-0.045850772
227	0x3cdea30d	0.027177358
228	0xbe03cf65	-0.12872083
229	0xbc88941c	-0.016672187
230	0x3daed842	0.08537342
231	0x3dada582	0.08478834
232	0x3e041df1	0.12902047
233	0x3d96e6f3	0.07368269
234	0x3dc21fe9	0.09478743
235	0x3c0f45c5	0.008744662
236	0x3d8590c9	0.06521756
237	0xbdcfc0a0	-0.10144162
238	0x3e07108c	0.13189906
239	0x3a4feabe	0.00079314027
240	0xbd0d31a7	-0.03447118
241	0xbb784818	-0.0037884768
242	0xbc9b0620	-0.018923819
243	0xbd7a12a5	-0.061052937
244	0x3ca7c214	0.020478286
245	0x3d9ca512	0.07648672
246	0x3dd8ee02	0.105922714
247	0xbdc2ecf3	-0.09517851
248	0x3d027ad5	0.031855423
249	0x3cdc0aef	0.026860682
250	0x3e16e49d	0.14735647
251	0xbd85d55e	-0.06534837
252	0xbc939b70	-0.018018454
253	0xbcc198df	-0.023632465
254	0x3da9e8f4	0.082963854
255	0x3c2db27e	0.010601638

conv5.0.bias f4 [20]
0	0xbc502517	-0.012704155
1	0xbca837f2	-0.02053449
2	0xbc8cab92	-0.017171655
3	0xbdc3b0e7	-0.09555226
4	0x3a06b1b7	0.0005138176
5	0x3d4e1b60	0.050319076
6	0x3d960f42	0.07327129
7	0xbd8fbf35	-0.07018892
8	0x3e0bae06	0.13640603
9	0x3dcaac6a	0.098961666
10	0x3c3b2fb1	0.011424945
11	0x3cfabc01	0.030607225
12	0x3d52f41a	0.051502325
13	0xbc4b7cba	-0.012419874
14	0xbc9fda61	-0.01951331
15	0xbd18d249	-0.03730992
16	0xbd35bbf3	-0.044368695
17	0x3d8773e1	0.06613899
18	0x3e21c235	0.1579674
19	0x3990378a	0.000275072

conv5.2.weight f4 [20]
0	0x3f848a02	1.0354617
1	0x3f8eacaf	1.1146449
2	0x3f8d4d4f	1.1039218
3	0x3f8f5f92	1.1201041
4	0x3f9231a3	1.1421398
5	0x3f86f30d	1.0542923
6	0x3f95a3d6	1.1690624
7	0x3f85eff2	1.046385
8	0x3f89d10e	1.0766923
9	0x3f8d6274	1.104567
10	0x3f8fa029	1.1220752
11	0x3f878f18	1.0590544
12	0x3f94ca7a	1.1624291
13	0x3f8df54c	1.1090484
14	0x3f90931c	1.1294894
15	0x3f8d79f0	1.1052837
16	0x3f899aee	1.0750406
17	0x3f8b3507	1.0875558
18	0x3f8fd49c	1.1236758
19	0x3f904655	1.1271464

conv5.2.bias f4 [20]
0	0xbb1aeb89	-0.0023638925
1	0xbd267535	-0.04063912
2	0xbd361164	-0.04445018
3	0xbd5cac14	-0.053875044
4	0xbd1be718	-0.038062185
5	0x3bdb271c	0.006688012
6	0x3d1e36f8	0.03862664
7	0xbd0f2fbc	-0.034957632
8	0xbcbc04be	-0.02295148
9	0xbd22261b	-0.03958712
10	0x3d1acf40	0.037795305
11	0xbccd6cb2	-0.025076244
12	0x3d0f75ab	0.035024326
13	0xbd9478b9	-0.072495885
14	0xbd57de21	-0.052702073
15	0xbd1a17b8	-0.037620276
16	0x3d48c705	0.049017925
17	0xbcf6504f	-0.030067591
18	0xbd1438d5	-0.03618701
19	0xbcd047ab	-0.025424799

conv5.2.running_mean f4 [20]
0	0x3e2ada95	0.16684945
1	0x3e542fa7	0.20721303
2	0x3e603dc9	0.21898569
3	0x3e1e6d15	0.15471299
4	0x3e2edf1e	0.170773
5	0x3e7452b3	0.23859672
6	0x3e7efcc3	0.24901108
7	0x3e2c57a7	0.16830312
8	0x3e88ea3f	0.26741216
9	0x3e86361b	0.26213154
10	0x3e742a45	0.2384425
11	0x3e64e0a8	0.22351325
12	0x3e641499	0.22273482
13	0x3e421855	0.18954594
14	0x3e5e9208	0.21735394
15	0x3e37f3be	0.17964074
16	0x3e03aaa4	0.12858063
17	0x3e576984	0.21036345
18	0x3e8ac974	0.27106822
19	0x3e53dd0b	0.2068979

conv5.2.running_var f4 [20]
0	0x3e12d5aa	0.14339319
1	0x3e33b6cf	0.17550205
2	0x3e65cc2e	0.2244117
3	0x3dbc9474	0.09208003
4	0x3de0ac50	0.10970366
5	0x3dc62de4	0.09676722
6	0x3dabb1be	0.08383511
7	0x3dfc6535	0.12323991
8	0x3e71f840	0.23629856
9	0x3e45961a	0.1929554
10	0x3db63a58	0.08897847
11	0x3e3179df	0.17331646
12	0x3d7a8893	0.061165404
13	0x3e2a61f0	0.16638923
14	0x3e308f4e	0.17242166
15	0x3d96b534	0.073587805
16	0x3d9ff4b5	0.07810346
17	0x3e1071ad	0.14105864
18	0x3e07cfb8	0.13262832
19	0x3e15bf39	0.14623727

fc1.1.weight f4 [10, 740]
0	0x3d25d5c2	0.04048706
1	0xbcdf6eeb	-0.02727457
2	0x3c893b90	0.016752034
3	0xbb237af7	-0.002494512
4	0x3d1d3d5d	0.0383886
5	0x3bf7cef1	0.007562511
6	0xbd476f0d	-0.04868989
7	0x3d01e8db	0.03171621
8	0x3b2cbba3	0.0026356957
9	0x3bef8d56	0.0073105497
10	0xbc809f19	-0.015700864
11	0x3b9d69c6	0.004803869
12	0x3c8ba985	0.017048607
13	0x3d220234	0.039552882
14	0x3cdbce42	0.02683175
15	0x3ce1840a	0.027528781
16	0xbcb3b6d1	-0.02193776
17	0x3ce489d5	0.027897755
18	0xbd0ac3a6	-0.03387799
19	0x3ba3a2ad	0.0049937577
20	0xbbd33bd7	-0.0064463424
21	0x3cd4c090	0.025970727
22	0xb9f425c5	-0.00046567447
23	0x3b8769f9	0.004132506
24	0x3d8e55a5	0.06949929
25	0xbc2b81f3	-0.010467994
26	0xbc1557be	-0.009115158
27	0x3ceb6022	0.028732363
28	0x3cb82e84	0.022483118
29	0x3b5ca907	0.0033670084
30	0xbc276ae5	-0.010218357
31	0x3bc1b296	0.0059111817
32	0x3a31c66c	0.00067815813
33	0xbb53ce60	-0.0032319054
34	0x3c16a1b7	0.009193829
35	0x3a914988	0.0011084536
36	0xbb8fd342	-0.0043891976
37	0x3c32776f	0.010892733
38	0x3cf9f916	0.030514281
39	0x3cd5edfb	0.026114454
40	0x3d2db635	0.042410094
41	0x3d0cac7b	0.034344178
42	0x3dc46ed0	0.09591448
43	0xbce8fe02	-0.028441433
44	0xbc7a7d5d	-0.015288678
45	0x3d3e4348	0.046450883
46	0x3d971810	0.073776364
47	0xbc619f00	-0.013770819
48	0x3cb94785	0.022617111
49	0x3d4ce387	0.050021674
50	0xbd454cc4	-0.048168913
51	0x3d57ce5f	0.052687045
52	0x3ce690b6	0.028145175
53	0x3d674e71	0.056471292
54	0x3c826b71	0.015920373
55	0xbc833a3a	-0.016018976
56	0x3d910464	0.070809156
57	0x3d1dec1d	0.038555253
58	0xbc3dc004	-0.011581425
59	0x3be88dca	0.0070969807
60	0x3d6df986	0.058099292
61	0xbcd60d95	-0.026129523
62	0x3d27b508	0.04094413
63	0x3c25d3a4	0.01012126
64	0x3d47086c	0.048592016
65	0x3bb2341e	0.0054383418
66	0x3cfaf3e6	0.030633878
67	0x3d11665a	0.035498
68	0x3d247fcf	0.04016095
69	0x3d013f5b	0.03155456
70	0x3d81a44c	0.06330165
71	0x3d25586f	0.04036754
72	0x3c331e65	0.01093254
73	0x3d8cc0d1	0.06872714
74	0xbb587723	-0.0033029995
75	0x3d899f23	0.06719806
76	0xbd0adabd	-0.03390001
77	0x3ce47154	0.02788607
78	0xba968e90	-0.0011486579
79	0x3d220c3f	0.03956246
80	0xbc8c54c8	-0.01713027
81	0xbbffc3e5	-0.007805335
82	0x3c8149d6	0.015782278
83	0x39105c40	0.00013767276
84	0xbbfa6f52	-0.007642665
85	0x3d58b387	0.052905586
86	0xbcaa3339	-0.020776378
87	0x3c62e838	0.013849311
88	0x3d9f47b7	0.077773504
89	0x3d0427f4	0.032264665
90	0x3985f213	0.00025548096
91	0x3d2f3d31	0.042782966
92	0x3bb05abb	0.0053819097
93	0xbc63d967	-0.013906813
94	0x3cc88724	0.024478503
95	0x3cc3977d	0.023875946
96	0x3cf16fd0	0.029472262
97	0x3c931b54	0.017957367
98	0x3ceb09c6	0.028691184
99	0x3c9d9f8a	0.019241113
100	0x3d12ffa4	0.03588833
101	0x3d240ea1	0.040053014
102	0xb9cffd97	-0.00039671056
103	0x3d87020c	0.06592187
104	0x3d2468b0	0.0401389
105	0x3be9bd22	0.007133142
106	0x3c95dc1a	0.01829343
107	0x3d7e6fd9	0.062118385
108	0x3d5bef83	0.053695213
109	0x3d0dbcb4	0.03460379
110	0xbad798d7	-0.0016448748
111	0x3d35ef70	0.0444178
112	0x3d2721f1	0.040803853
113	0x3d6bc6e5	0.057562727
114	0x3d2eb0bf	0.042649027
115	0x3d6e0714	0.05811222
116	0x3c44d889	0.012014517
117	0x3cfb9ce2	0.030714456
118	0x3cbedc9c	0.023298554
119	0x3d13bb1e	0.03606712
120	0x3d330eff	0.043715473
121	0x3c069f06	0.008216625
122	0xbcf2fcba	-0.029661525
123	0x3d21d9af	0.03951424
124	0xbbb7dfe0	-0.005611405
125	0x3d2bbfca	0.04193095
126	0xbc9bee1e	-0.019034442
127	0xbc300e2c	-0.010745566
128	0xbc7e3147	-0.015514678
129	0x3cc11164	0.023567863
130	0x3dc124c3	0.0943084
131	0x3cbd608c	0.023117326
132	0xbccc5f7e	-0.024947878
133	0x3d88522b	0.06656297
134	0xbcd97a8c	-0.026547693
135	0xbc3a69f2	-0.011377798
136	0x3c6be8f5	0.014398803
137	0x3cbfedf7	0.0234289
138	0x3d4f6e6d	0.05064242
139	0x3cce9b3f	0.025220511
140	0x3c30a5eb	0.010781745
141	0x3db3e6ef	0.087842815
142	0x3da9a0a1	0.08282591
143	0xbcd92aca	-0.026509661
144	0x3c819a99	0.015820788
145	0xbcf59860	-0.029979885
146	0xb945c6f4	-0.000188615
147	0x3cd0253c	0.02540838
148	0x3c386996	0.011255642
149	0x3ce8dfef	0.028427092
150	0xbc4226fd	-0.011850116
151	0x3d02baa9	0.031916294
152	0x3c2ac4fb	0.01042294
153	0xbc92346f	-0.017847268
154	0x3c32474a	0.010881254
155	0x3d414eb0	0.047194183
156	0x3c5d4ef9	0.013507598
157	0x3d867e22	0.06567027
158	0xbcc97cab	-0.02459558
159	0x3d046b66	0.032328986
160	0x3d3d1067	0.04615822
161	0x3c785bdc	0.01515862
162	0xbcc45118	-0.02396445
163	0x3d1d6918	0.038430303
164	0x3da3b9c4	0.07994416
165	0x3bb84e13	0.0056245415
166	0x3dd7101a	0.10501118
167	0x3d31bf76	0.043395482
168	0xbd98dfe1	-0.074645765
169	0xba80b4fb	-0.0009819561
170	0xbc4c7578	-0.012479179
171	0x3d230266	0.03979721
172	0x3b2c5ebb	0.002630158
173	0x3d27413e	0.040833704
174	0xbd04be8f	-0.032408293
175	0x3b3f14d0	0.0029156692
176	0xbc906366	-0.017625522
177	0xbcdd1a71	-0.026990147
178	0x3cab9cdd	0.020948822
179	0x3b94c583	0.004540147
180	0x3d8eae6d	0.06966863
181	0x3d8f7674	0.07005015
182	0x3c83eccd	0.016104126
183	0x3ca3f9d4	0.020016588
184	0x3d8f9388	0.07010561
185	0xbca33270	-0.019921511
186	0xbbeae700	-0.0071686506
187	0xbc9999e2	-0.018750135
188	0x3c9cf34e	0.019158985
189	0x3b4cd236	0.0031253225
190	0x3a5fcaaf	0.0008536977
191	0x3b0e69a0	0.0021730438
192	0x3c0d5320	0.008625776
193	0xbb6256d6	-0.0034536622
194	0x3bef7c7b	0.0073085404
195	0xbc7b8ab6	-0.0153528955
196	0xbd227714	-0.039664343
197	0x3cd25b8c	0.025678419
198	0x3d213cf1	0.03936476
199	0xbc839073	-0.01606009
200	0x3b0f23e9	0.0021841472
201	0x3ce7e7b3	0.028308725
202	0x3be68bd4	0.007035712
203	0x3c7007b1	0.014650271
204	0xbcf6a792	-0.0301092
205	0x3bff9cf7	0.007800694
206	0xbcb47cbc	-0.022032134
207	0xbcc5535c	-0.0240876
208	0x3b78cb38	0.0037962925
209	0xbcc21e4c	-0.023696087
210	0xbcc67bc0	-0.02422893
211	0x3cb3b347	0.021936072
212	0xbaaf8bdb	-0.0013393121
213	0x39dde74c	0.00042324734
214	0x3c150d9c	0.009097483
215	0xbcb97171	-0.0226371
216	0xbd0575a2	-0.032582887
217	0xbcbe8c83	-0.02326036
218	0xbc4e9cc6	-0.01261062
219	0xbc3577c4	-0.011075918
220	0xbb152d69	-0.0022762662
221	0xbb169cad	-0.002298157
222	0xbcc1f092	-0.023674283
223	0xbd8b91c0	-0.06814909
224	0x3caa7ba5	0.020810911
225	0xbd3d5e90	-0.04623276
226	0xbc032bc1	-0.008006037
227	0xbca7ff86	-0.020507585
228	0xbb29c520	-0.002590485
229	0xbd44098d	-0.04786067
230	0xbd1848d1	-0.037178818
231	0xbd398410	-0.04529196
232	0xbca5dde3	-0.020247405
233	0xbd5d0032	-0.053955264
234	0xbc16f393	-0.009213346
235	0x3cb8316b	0.022484502
236	0xbd2e085d	-0.042488445
237	0xbd81fb77	-0.06346791
238	0xbd2a3032	-0.04154987
239	0xbd35a3d9	-0.04434571
240	0xbdedf702	-0.116193786
241	0xbc92f633	-0.017939663
242	0x3cec218a	0.028824586
243	0xbd45a1eb	-0.04825012
244	0xbd07d299	-0.033159826
245	0x3a64af6c	0.00087236497
246	0xbd664e80	-0.056227207
247	0xbcc562b1	-0.024094911
248	0xbccd6f2b	-0.025077423
249	0xbc4a8f69	-0.012363293
250	0x3bf56842	0.007489235
251	0xbda12954	-0.07869211
252	0xbc0b5a39	-0.0085053975
253	0x3d15aecb	0.03654365
254	0xbd89db83	-0.06731322
255	0x3c8715e7	0.016489936

fc1.1.bias f4 [10]
0	0xbcf57a7a	-0.029965628
1	0x3d5071c2	0.050889738
2	0x3dcdcc32	0.10048713
3	0x3dc54893	0.09632983
4	0xbb134ecc	-0.0022477387
5	0x3db01923	0.085985444
6	0x3c3cc8fc	0.011522528
7	0x3dd7aaeb	0.10530647
8	0x3cb83aeb	0.022489032
9	0x3d8239a4	0.0635865

fc2.0.weight f4 [2, 10]
0	0xbdd106e9	-0.10206396
1	0x3ef5f681	0.4803963
2	0x3e526dca	0.20549694
3	0xbeae4829	-0.3403943
4	0xbe51d52e	-0.20491478
5	0x3e98fc0a	0.2987979
6	0xbe05070b	-0.12990968
7	0x3e83b95f	0.25727364
8	0xbe886196	-0.26636952
9	0x3da89ba7	0.08232813
10	0x3ee63af1	0.44966844
11	0x3d34749e	0.044056527
12	0xbe035601	-0.12825777
13	0x3e5c291e	0.2150006
14	0x3edde2b0	0.4333701
15	0xbef6f0f4	-0.48230708
16	0x3ebdf87a	0.37103635
17	0xbe12e846	-0.14346418
18	0x3eed6417	0.46365425
19	0xbeab2c49	-0.33432224

fc2.0.bias f4 [2]
0	0xbe3828e0	-0.17984343
1	0x3db431da	0.08798571
