training/tuned_model/checkpoint.pt (torch, 148960 bytes, 82 tensors)

conv1.0.weight f4 [3, 1, 6, 1]
00000000: 1ffa c7be 4fb0 bdbe aa6f bcbe 3438 e6be
00000010: f146 67be e35d 3fba bba8 82bd 4cb9 0abe
00000020: af4b 113f ea37 2cbf f59c dc3c a541 b13e
00000030: 9844 96be 016e ddbe 242c 2fbe eee3 2ebe
00000040: 97b4 61be 88a5 4f3e
-0.39058015 -0.37048575 -0.36803943 -0.44964755 -0.22585656 -0.0007300062 -0.06379839 -0.13547248
0.5675611 -0.6727282 0.026930312 0.34620395 -0.29349208 -0.4324799 -0.17106682 -0.17079136
-0.22041546 0.20277989

conv1.0.bias f4 [3]
00000000: 24bc 743e edc3 ecbb dda2 073e
0.23899895 -0.0072255046 0.13245721

conv1.2.weight f4 [3]
00000000: 0a8b 903f ffcb 633f f7aa 793f
1.1292431 0.8898315 0.97526497

conv1.2.bias f4 [3]
00000000: dd48 47bc 903f 9a3c 29bb 2f3c
-0.012163368 0.018829137 0.010725775

conv1.2.running_mean f4 [3]
00000000: a62d 6f3e fa75 333c 08b8 0d3e
0.23357257 0.010953421 0.13839734

conv1.2.running_var f4 [3]
00000000: 9283 5a3c 28d7 933a 60fe f93b
0.013337033 0.0011279332 0.007629201

conv2.0.weight f4 [5, 3, 5, 1]
00000000: 3164 d6bd 3fdd 77be dec5 25be 02d6 373e
00000010: 0509 863e f59f db3b 2146 fabd ddc4 e5bd
00000020: 2812 663d 119d bf3c 8f05 a33d 2872 06be
00000030: b69f a2be 2de1 773e 5cc9 8e3e 1c99 50be
00000040: f5b5 8bbc ce0d f6bd 062d fbbc b7ce d5be
00000050: eaf5 13bd 4b23 b5bd 32e0 80bc 6a74 213d
00000060: c47d 053e 324f 8abe 8744 55bb c2e9 2abe
00000070: 8d82 08be 9878 a9be 9788 a2be 39e8 b7be
00000080: 7fb5 6d3e bd6f 2d3e 92e2 6bbe c02d 9bbd
00000090: 5783 47bd edc9 a4bd 8208 a8be d198 6dbd
000000a0: 42ee 2b3d 8aa7 983b a4c3 423e f70b f3bd
000000b0: 1817 1b3e 9f27 f93d c37f 0fbe b952 b6be
000000c0: c1e6 43be b050 ebbd ceee 26be 5da3 dbbd
000000d0: 2476 59be 4c52 90be 2045 0ebe cfe6 1cbe
000000e0: 50a9 68be e1d5 a9be 35d6 92bd 708a 07be
000000f0: 3e47 953e ce86 993e 1b2d 0fbd 54ec 153e
00000100: aed4 d6be 95b6 a0be d212 3fbe ef6d 64be
00000110: bb9e 47be 519a ae3d b375 413e 6974 fc3b
00000120: 04d4 cf3c 52dd 2a3e e55c 81bd
-0.10468329 -0.24205492 -0.16188762 0.17952731 0.26178756 0.006702418 -0.12220407 -0.11219189
0.05616966 0.023390325 0.079600446 -0.13129485 -0.31762475 0.24206991 0.27888 -0.20370907
-0.017054537 -0.12014352 -0.030661117 -0.41759273 -0.036123194 -0.08844622 -0.015731905 0.03941766
0.13036257 -0.27013546 -0.0032542066 -0.16690734 -0.13331051 -0.33099818 -0.31744835 -0.3591936
0.23213767 0.16937156 -0.23035648 -0.075770855 -0.04870924 -0.08046327 -0.3281899 -0.058007065
0.041975267 0.004658644 0.19019943 -0.118675165 0.15145528 0.1216576 -0.14013581 -0.35609987
-0.19130994 -0.11489999 -0.16302034 -0.107245184 -0.21236473 -0.28187788 -0.13893557 -0.15322421
-0.22720838 -0.3317099 -0.07169763 -0.13236403 0.29155916 0.2998566 -0.034955125 0.14640933
-0.41959137 -0.313893 -0.18659523 -0.22307561 -0.19494145 0.08525527 0.18892555 0.007704307
0.025369652 0.1668599 -0.06316546

conv2.0.bias f4 [5]
00000000: 1ab2 48be 017b 5d3e 9977 91be ad1c af3c
00000010: f154 1b3e
-0.1959919 0.21628954 -0.28411558 0.021375978 0.15169121

conv2.2.weight f4 [5]
00000000: 1591 793f f4c5 6a3f 7660 323f 0ff4 8d3f
00000010: b2bf 7c3f
0.97487 0.917083 0.6967844 1.1090106 0.98730004

conv2.2.bias f4 [5]
00000000: 9172 2abd d5c4 2d3e 5448 593e a578 6abd
00000010: cf3f 7ebd
-0.041613165 0.16969617 0.21218997 -0.05724396 -0.06207257

conv2.2.running_mean f4 [5]
00000000: c1f1 433e a0ea 713e adbe 833d 6f24 7f3e
00000010: 4e03 9b3e
0.1913519 0.23624659 0.06432853 0.24916242 0.3027596

conv2.2.running_var f4 [5]
00000000: 3ffc a33e 0c17 3a3d 885a 253d 82f1 bb3d
00000010: 5426 5d3e
0.32028386 0.045432135 0.04036954 0.09176923 0.21596652

conv3.0.weight f4 [10, 5, 4, 1]
00000000: e3ac 463e 66a3 3a3e a429 c8bd e0db 143d
00000010: 99ee 02be 2239 dcbe 6427 85be 3cf2 92ba
00000020: ae5c 19bf 3b0c 6fbe 9a63 b53d 99b6 6e3d
00000030: afa7 f6bd 0956 0dbe e7a0 dabe 2976 80be
00000040: 05b1 913d 0204 9b3e 00f8 d73d 3c0d 1bbd
00000050: 7acd 44be f4ab 79bd dba4 c4be c15c 463e
00000060: d8ff 6bbe 7ecd a6bd db91 b6bc 9bbe 1cbe
00000070: 06c8 b53d d0d1 cabe d037 d5bd a541 733d
00000080: 9d18 ac3e 6246 ba3e 7d5a 1b3e 8539 a4bc
00000090: 8e23 743e 4103 693e 4ec7 003e 42e5 303d
000000a0: a86a 9fbc 4086 9bbe cec5 27be 1bf2 103e
000000b0: a117 283e c899 29bd 0c6f d3bd be2d b7be
000000c0: e069 2d3e 60ac 633d 163f 7e3e 8cb3 38be
000000d0: 2715 16be 1b17 abbd 606d 693e b216 cf3e
000000e0: 39a5 a9be ac74 5c3d e747 cabc f6b8 1dbe
000000f0: 4da9 043e 83e8 023d 4b9d ba3e 496c b23d
00000100: 9a47 c1bd 4a57 98bd fcd8 163e 65ee 8ebe
00000110: b60a 34bd 5c56 7f3d f6fe eabd ac2e 80bd
00000120: 5bf2 98be 1ae7 f3ba aeb8 dabd 7e30 ad3e
00000130: e8f4 89bd 0997 f1bd 4003 a73e 7bb0 eb3d
00000140: c27b 553e a788 75be 0616 683e cf5d 5e3e
00000150: 62ca 5abe 95bb 563e 4d72 20be a095 20be
00000160: 9226 4dbe 18be 94bd eee7 473e e186 3b3e
00000170: bc96 a0bc 0547 4bbe 01eb 113e 52fc 9f3d
00000180: b85a 273e d579 4ebd 403d ffbc 749d 903e
00000190: c8d3 2fbe 6a06 e03c 843a 873e 896c 223c
000001a0: 9826 42bc 6011 f13d ecdb 6ebe 9607 bcbd
000001b0: 6e9f 4bbe 6fb4 c03b 6884 41be f839 26ba
000001c0: 455d 00be 7162 fbbd d7aa ae3e cf86 02be
000001d0: ba9e ecbc 50a7 893e 39f9 1dbe 2087 1abe
000001e0: f44a 8f3e cda1 c2bc 71cf 2a3e 91f3 53be
000001f0: 00e0 2fbe e5a2 bf3d 6209 84be 5caf 6e3d
00000200: d9de 4cbd 0bcc c6ba 1483 7dbe 4092 5dbc
00000210: 449a ad3e e783 0ebd 614c 04bc 41dc 83bd
00000220: 7405 2ebd 23ec eabd d444 b43c eb3f 753e
00000230: eedd 59bd bb66 863e c9f9 afbd bf42 bf3e
00000240: 031d 44bd 2a93 3dbe c343 f63d 5610 a2be
00000250: f179 90bc b952 ce3d c2f4 dcbd 569e abbd
00000260: b4e6 683e e135 05be 345c 993d 426c 403e
00000270: 6127 0dbd 85f7 4d3e 59f7 d03c b291 8c3c
00000280: 3180 8abe cefc 693d 2f79 2a3e 5177 90be
00000290: f035 103e 279e 57be 6d51 c7bd 4c06 883d
000002a0: ad29 b53e 30c6 6cbe b9a4 a2bc 36a0 9b3c
000002b0: 79d2 67be 72bc a33e af98 70bd a5ea e2bd
000002c0: 883f a13e 8cd6 543d 020c 91be abe9 be3e
000002d0: 1aea 34be 29aa d1bc 16b4 503c 622b 5c3e
000002e0: f926 723e 82ef 443e fdaf 5b3a 996a 1bbe
000002f0: b8a4 db3d 08b2 8ebe 289c aabe 3742 90be
00000300: b832 333e 913e 17be 786b 9cbd 9e4f bbbe
00000310: f950 d4be 93ea 4ebe 15d5 27be 2605 463d
0.19401889 0.18226394 -0.09773567 0.0363425 -0.1278633 -0.4301234 -0.26006615 -0.0011211107
-0.5990704 -0.2334451 0.08856888 0.058279607 -0.12043702 -0.13802351 -0.42700884 -0.2509015
0.07113842 0.30276495 0.10545349 -0.03785442 -0.19219008 -0.060955003 -0.38407025 0.1937132
-0.23046815 -0.08144663 -0.022286346 -0.15307085 0.08876042 -0.396132 -0.10411036 0.059388775
0.33612528 0.36381823 0.15171237 -0.020046959 0.23841688 0.22755148 0.12576029 0.043187387
-0.019460037 -0.30375862 -0.1638405 0.14154856 0.16415264 -0.041406423 -0.10323915 -0.35777086
0.1693492 0.05558431 0.24828753 -0.18037242 -0.14656506 -0.083540164 0.2279563 0.40447003
-0.33133867 0.053822204 -0.024692489 -0.15402588 0.12955208 0.03196002 0.3644813 0.0871206
-0.09437485 -0.07438524 0.1473121 -0.27916256 -0.043955527 0.062338218 -0.11474411 -0.06258902
-0.29872403 -0.0018608302 -0.10679756 0.3382606 -0.06736165 -0.11796386 0.32619667 0.1150827
0.20847991 -0.2397791 0.22664651 0.21715473 -0.21366265 0.20969994 -0.15668602 -0.15682077
-0.20034245 -0.0726282 0.19522068 0.18313171 -0.019603126 -0.1985131 0.14249803 0.07811798
0.163432 -0.050409157 -0.031157136 0.28245127 -0.17170632 0.027346808 0.2641183 0.009913572
-0.011850022 0.11770892 -0.23326081 -0.091811344 -0.19885036 0.0058808844 -0.18898165 -0.00063410355
-0.1253558 -0.122746356 0.34114715 -0.12746738 -0.02888428 0.26885462 -0.15427102 -0.15090609
0.27986872 -0.023758793 0.16680695 -0.20698382 -0.17175293 0.093572415 -0.2578841 0.058272704
-0.05001721 -0.0015167011 -0.24757034 -0.013523638 0.33906758 -0.03479376 -0.008074851 -0.064384945
-0.04248567 -0.11470821 0.022005476 0.23950164 -0.053190164 0.26250252 -0.085925646 0.3735561
-0.04787923 -0.1851317 0.12024643 -0.31653088 -0.017636271 0.10074372 -0.10788871 -0.083798096
0.22744256 -0.13008834 0.074882895 0.18791297 -0.034461383 0.20113952 0.02550857 0.017159317
-0.27050927 0.05712586 0.1664779 -0.2821603 0.14083076 -0.21056424 -0.097323276 0.06641826
0.3538336 -0.23122478 -0.019853937 0.018997293 -0.22638883 0.3197971 -0.05873936 -0.11079911
0.31493783 0.05196242 -0.28329474 0.3728765 -0.17667428 -0.025593834 0.012738248 0.21500924
0.2364768 0.1923199 0.00083804113 -0.15177383 0.10724777 -0.27870202 -0.33322263 -0.28175518
0.17499816 -0.14769961 -0.076376855 -0.3658418 -0.41468027 -0.2020667 -0.16389878 0.048344754

conv3.0.bias f4 [10]
00000000: 429b 92bd 7270 0dbe 23a6 3b3c ae2b 0abf
00000010: dc7d 173d 12b7 ce3c 9eb1 353d 8eea ac38
00000020: 9c80 3cbe fce0 09be
-0.07158519 -0.13812426 0.011453184 -0.539729 0.036985263 0.02523378 0.044358842 8.245288e-05
-0.18408436 -0.13464731

conv3.2.weight f4 [10]
00000000: 8c37 5f3f e515 7a3f efde 343f 1551 7d3f
00000010: fd67 4e3f a5bf 723f aee2 5e3f 1ae4 803f
00000020: bb38 7d3f da57 683f
0.8719413 0.9768966 0.7065267 0.98951846 0.80627424 0.94823676 0.87064636 1.0069611
0.9891469 0.9075905

conv3.2.bias f4 [10]
00000000: d325 6e3d 12e0 bfbb 5fbc 223e e937 af3d
00000010: 1c77 a1bd ccec ea3c b111 8c3b b1c5 bc3c
00000020: aeee 723d 3703 7a3d
0.05814154 -0.0058555687 0.1589217 0.08555586 -0.078840464 0.028677367 0.00427457 0.023043485
0.059309654 0.061038222

conv3.2.running_mean f4 [10]
00000000: a30b 843e eb54 413e bfb9 9f3e 220c 1a3e
00000010: 06fa c43e bd0d 9a3e 5b6a 9a3e 968f 773e
00000020: 39a9 873e 63bd 383e
0.25790128 0.1888005 0.311964 0.15043691 0.38472003 0.30088606 0.30159268 0.24175867
0.26496294 0.18040995

conv3.2.running_var f4 [10]
00000000: 8b7e 6e3e ab69 3a3e 6100 783e f6f0 773e
00000010: b9fc 073f ed62 933e aea7 503e d714 853e
00000020: 6ebf d23e f427 d83d
0.2329046 0.18204372 0.24218895 0.24213013 0.5312 0.28786412 0.20376465 0.25992462
0.41161674 0.105544955

conv4.0.weight f4 [20, 10, 4, 1]
00000000: 010a 5abe e9ee f23d d291 a0bd 2807 24be
00000010: 9905 0a3d 6cea a3be 9333 59be 2f9c a3be
00000020: 7fb2 71bc 1484 84be c3f4 dc3b 2e2d a3be
00000030: 2c46 593e 6937 d0bc 6707 eeb8 bb09 44be
00000040: 5f6e a23d f012 9cbd 4dce 463e 2eaa da3d
00000050: dad6 573e 8e69 5abd a363 363d 8294 283e
00000060: 2c6e 293e 5dbd 813e 34c4 a93d f6b1 503e
00000070: b358 debe 1d0f 36bd 8654 273d 9319 143e
00000080: 2641 c93b be2a c73d ee33 00be bb11 8e3d
00000090: baef 0abe 28d8 2cbe 2aa2 b8be 47db 9d3c
000000a0: ba60 d5bc dbd1 bcbd b10f 0ebe c3c0 af3d
000000b0: f216 b53c 7fc3 0bbd 5404 883d c5cd 1cba
000000c0: 55f5 c93d 2d9d 53bc f81f 493e 814a 8fbd
000000d0: eed4 093e 7f45 873e 3207 533e 4d13 4bbe
000000e0: b741 a93c 3be1 f53c 3b12 a53e 2c23 8f3e
000000f0: 5d64 633e bf01 ccbd 866d a63c a445 c3bd
00000100: c7f7 f1be 981b 1d3e 8f27 aabd c690 513b
00000110: 691d 5fbc 2c65 0b3d 56fe 4e3d b411 73be
00000120: 9c6a 58be 0402 d33d 1a52 15bd 49c3 e73d
00000130: dc24 8cbe 6625 b2be e1d7 b6bd 4849 9abd
00000140: efc1 20be f591 603e bfd1 823d 721a 82be
00000150: 4486 3c3e 736e b7bc 6951 b23d 3655 fc3c
00000160: 0279 f53d 01a7 d9be b307 8f3e 23cb bebe
00000170: 18a0 aebe 8687 573e a863 363d 569a fcbd
00000180: 1a6d 283e 2748 0c3e cd5b 4c3e 2455 00be
00000190: 03eb 543e 0555 37bd b686 723d 15f4 a6bc
000001a0: 190a 213e 28f2 323e 435b ddbd 8917 cb3d
000001b0: 08f6 983e 9102 c63d c816 41bd ed0d 7dbc
000001c0: 5eaf 06be 2a3b 133d 6086 5abe 2207 5dbd
000001d0: 1b05 253e ba62 4cbc be37 99be 0562 d2be
000001e0: 30ea a3bc 56c7 693d 76ec 27bc 0a7a 81be
000001f0: 1d89 33bc a748 a13e 3285 28be 359a 8d3e
00000200: 393a a53e 4f5b fe3b 8a69 df3d c31a 7b3c
00000210: daea ab3d 4a3f f9bd 8ee0 8c3c ed5c 053d
00000220: 9349 9b3e bc1d c93d 7382 593e f9c8 ab3e
00000230: 6636 ebbd d640 74bd c744 ca3d b630 d8bd
00000240: 061e 0b3d c29d b8bd f826 833d df83 513e
00000250: b933 ef3d 0613 ae3d 4627 e23d 9bcd 15be
00000260: 67f3 e93c 8567 313e 3c11 c8bd 573d b33d
00000270: a45d 1f3d 363e 37bd 95f7 9bbe 03c2 a3be
00000280: 2b17 5dbe 86aa e5bd 4fe7 8a3e bbac f2bd
00000290: 55b3 113e da04 ebbb 2c65 f3bd 6cde 5dbe
000002a0: 90df b5bc ade0 03bd 7b12 49be 6fa0 cabd
000002b0: 7cab b6bc 34ed 483e 0fe4 9ebd 7bcc b7bd
000002c0: ada9 3e3c 6160 c13e fe7b bb3d 5fbd 14be
000002d0: 6961 693d 0400 0e3e abd0 1e3c be85 5ebd
000002e0: 4518 3a3e c3fa a6bb 3376 d73c 8fac 37be
000002f0: 204f 543e 308c cb3b f9e8 7bbd b1b3 07be
00000300: 07ff cbbd bb03 93be 5045 393e 1f2a 99be
00000310: 6abe e33d 4bd8 a9be 126a e03d 1b4d 303e
00000320: f36b 9d3e 6c41 33be d8f8 14be 6f27 da3d
00000330: 3017 913e 4d00 f33d 6ca3 9e3e 8af5 0cbe
00000340: 66a1 6bbd 9e2f 35bd 0128 30be d4b3 f33d
00000350: 7981 2e3d d2e5 db3d 2e59 77be 003d bfbe
00000360: 2637 8cba e3d1 f33b c633 8b3d f071 a83e
00000370: adaa c63c b111 0bbd 1b47 363d 31f4 833e
00000380: eb85 6bbe 53ce 543d 581c af3d d0aa 333c
00000390: e836 2a3d 7184 48bd 7d62 98bb 4218 333d
000003a0: dcb5 103e 0a69 1abe ac99 36bd 1f55 99be
000003b0: 6e14 95be 518b 633e 383b bd3d 6c7e 3c3d
000003c0: e711 6cbe 630b 7cbd f131 c5bd 9cff 1bbe
000003d0: 9cf4 813b 4ddf 14bc 47c5 2f3d 5f7f ac3d
000003e0: 1647 98bd dba6 38be f6c5 ef3d 6d87 ac3d
000003f0: e803 ab3d 0296 dabc 47d4 a03e bc80 f93c
-0.21292879 0.11861975 -0.07840313 -0.16018355 0.033696745 -0.32014787 -0.2121108 -0.31955096
-0.014752029 -0.25882018 0.006743045 -0.31870407 0.21218175 -0.025417047 -0.00011350103 -0.19144337
0.07931208 -0.076207995 0.19414635 0.106769904 0.21078053 -0.05332332 0.044528615 0.16462901
0.16545933 0.25339785 0.08289376 0.20380387 -0.43427047 -0.044448007 0.040852092 0.14462881
0.0061417995 0.09724949 -0.1251981 0.069369756 -0.13568011 -0.16879332 -0.3606122 0.019269599
-0.0260471 -0.09219714 -0.13873173 0.08581688 0.022105668 -0.034121986 0.066414505 -0.000598159
0.098612465 -0.012915892 0.19641101 -0.06996632 0.13460132 0.2642021 0.20608214 -0.19831581
0.020661218 0.030014625 0.3224047 0.27956522 0.22206254 -0.099612705 0.020315897 -0.09534767
-0.47259352 0.15342557 -0.083083265 0.003197716 -0.013617852 0.034032032 0.050535522 -0.23737222
-0.21134418 0.10303119 -0.03645525 0.113165446 -0.2737187 -0.34794158 -0.089278944 -0.075335085
-0.1569898 0.21930678 0.06387662 -0.254108 0.18410593 -0.022391533 0.08706934 0.03080235
0.11985971 -0.42510226 0.27935562 -0.37264356 -0.34106517 0.21047792 0.044528633 -0.12334125
0.16447869 0.13699399 0.19956894 -0.12532479 0.20792775 -0.044758815 0.0592105 -0.02038006
0.15726508 0.17475188 -0.108084224 0.09916598 0.29875207 0.09668458 -0.047140867 -0.015445215
-0.13152835 0.035945095 -0.21340322 -0.05396188 0.16115229 -0.01247471 -0.2992534 -0.41090408
-0.02000913 0.057074867 -0.010249248 -0.2528842 -0.010957983 0.31500742 -0.1645706 0.27656713
0.32270983 0.0077623497 0.10908802 0.015326205 0.08394404 -0.121702746 0.01719692 0.032559324
0.3032957 0.098201245 0.21241169 0.33551767 -0.11484985 -0.059632145 0.098763995 -0.10556166
0.03396418 -0.09014465 0.06403917 0.20460461 0.11679787 0.08499722 0.11042647 -0.14629214
0.028558446 0.17324646 -0.09768912 0.08751934 0.038907662 -0.044737063 -0.30462328 -0.31983957
-0.21590869 -0.112141654 0.271296 -0.11849352 0.14228566 -0.007172209 -0.118845314 -0.21666878
-0.02220133 -0.03219669 -0.19635956 -0.098938815 -0.022298567 0.19621736 -0.077583425 -0.089745484
0.011637134 0.37768844 0.09154509 -0.14525364 0.056977663 0.13867193 0.009693305 -0.054326765
0.1817332 -0.005095811 0.026301479 -0.1793692 0.20733309 0.00621178 -0.061501477 -0.1325214
-0.09960752 -0.28713784 0.18092847 -0.29914948 0.11120303 -0.3317283 0.10957731 0.17216913
0.3074642 -0.17505425 -0.14548051 0.106520526 0.28338003 0.11865292 0.30984056 -0.1376554
-0.05752697 -0.044234864 -0.1720276 0.11899534 0.042603943 0.10737194 -0.24155113 -0.37351227
-0.0010697588 0.007440792 0.067969844 0.32899427 0.024251306 -0.03395242 0.044501405 0.2577224
-0.23000304 0.05195458 0.08550328 0.010966018 0.04155627 -0.04895443 -0.0046504126 0.043724306
0.14131874 -0.15079132 -0.044580147 -0.29947755 -0.2911715 0.22221114 0.09239811 0.046019003
-0.23053704 -0.061534297 -0.09628666 -0.15234226 0.0039659273 -0.009086442 0.042912748 0.084227316
-0.074354336 -0.180324 0.1170768 0.08424268 0.083503544 -0.026682857 0.31411955 0.030456893

conv4.0.bias f4 [20]
00000000: f6a4 aebd afb0 03be 4be2 87be 448b d0be
00000010: 1045 86be a340 14be 5917 b5bd 9ecf 923d
00000020: e18a 65be 9921 edbd a019 0e3e fdaf b03d
00000030: 0fce 033e 89e9 3bbe eb65 30be 8909 21be
00000040: 6ce7 87be d654 8dbd 0b45 1ebe 9f73 45be
-0.085275576 -0.12860368 -0.26539835 -0.4073125 -0.26224566 -0.14477782 -0.08842344 0.07168506
-0.2241626 -0.11578674 0.13876963 0.08627317 0.12871574 -0.18350805 -0.17226379 -0.15726294
-0.26543748 -0.06900947 -0.15456025 -0.19282387

conv4.2.weight f4 [20]
00000000: 45b6 4a3f e28b 5e3f 96ef 633f 5ba5 613f
00000010: 267b 7a3f 969b 503f 5b3e 8c3f 0072 593f
00000020: 671c 653f 74d0 553f bbf9 4d3f 6096 433f
00000030: ef59 633f 0846 653f 2d1c 7f3f 4049 743f
00000040: 25ac 673f c329 8d3f 5d6d 783f be8f 753f
0.7918437 0.86932194 0.89037454 0.8814294 0.9784416 0.81487405 1.0956529 0.84939575
0.89496464 0.835212 0.80459183 0.7640133 0.888091 0.89559984 0.9965237 0.9542427
0.90497047 1.102837 0.97041875 0.9592246

conv4.2.bias f4 [20]
00000000: 24f4 303e 92e9 373e 554e 953e c7c5 4e3e
00000010: e713 fdbd 50c2 9f3e 8c4e 4b3e 419d 1c3e
00000020: 8b9c cd3d fcc8 ae3e ce15 ecbd 0e1b 78be
00000030: 4b28 83be 1b37 803e 5855 523e c6b8 8d3d
00000040: 169c 803c 0c0e 07be e2b5 483e 526d 063e
0.17280632 0.17960194 0.29161325 0.20192634 -0.12357312 0.31202936 0.19854182 0.15294363
0.10039624 0.34137714 -0.115275964 -0.2422907 -0.2561668 0.25042042 0.20540369 0.06920008
0.015699428 -0.13188952 0.19600633 0.1312764

conv4.2.running_mean f4 [20]
00000000: d022 5c3e abe4 823e b35d 643e b472 573e
00000010: 1732 353e f038 a53e 0b93 893e a871 883e
00000020: 651e 553e 00a8 743e 6516 d43e d5a1 9f3e
00000030: e1eb d23e f1c9 863e a514 9e3e 9b44 863e
00000040: dc7c bb3e 2560 7d3e 440f 2a3e 7dd8 9b3e
0.21497655 0.25565085 0.22301368 0.2103985 0.17694889 0.32270002 0.26869997 0.26649213
0.20812376 0.23892212 0.41423336 0.31178156 0.41195586 0.26325944 0.30875126 0.26224217
0.36618698 0.24743707 0.16607386 0.30438605

conv4.2.running_var f4 [20]
00000000: 75ac fa3d 93f5 233e b3b4 983e a765 9e3e
00000010: 7bf5 083e a861 d63e b753 743e bec0 b53d
00000020: 0637 433e 59da 603e 169e 473e 5a28 173e
00000030: eeae 013e ca1a b33e 2e3c c33e 7c75 4e3e
00000040: 53f6 023f 906c 853d ffcc 3e3e afe0 b93e
0.12239925 0.16011648 0.29825363 0.3093693 0.13374893 0.4187138 0.2386006 0.08874653
0.19063959 0.21958293 0.19493899 0.14761487 0.12664387 0.34981376 0.3813185 0.20162004
0.5115711 0.06514847 0.18632887 0.36304232

conv5.0.weight f4 [20, 20, 4, 1]
00000000: d00d c33d dc6e 013d 3d1f 383d 81c9 5c3e
00000010: fd02 3b3e 7c61 38be acd2 83be a07d 033e
00000020: 5098 c5bd 4d00 6dbd 2d7f 80bd a86c 0a3e
00000030: 02f5 9dbd 667e 94bd aeca 05bd 94fc 75be
00000040: 049c 49bd dc35 a9bd 1193 25be 3370 cbbd
00000050: 4126 023d d7e0 f63c 7cf1 77bd 0c82 96be
00000060: f956 15bd cfc4 a3be 1c12 28be 165f 1fbe
00000070: bd38 453d b2b9 063b 2073 2f3d 1cbd 9a3d
00000080: 336e a6be 3f37 513d ad11 8ebd 87bc be3c
00000090: 3bc2 7abd 15a1 47be 8e61 103e 53df 233e
000000a0: 0ad1 72bd 2f6c 373d 28bb 723d 52de 8d3d
000000b0: f4e7 cfbd 6409 edbd a167 48be c6cf 0fbd
000000c0: 1927 283e 3ea2 ca3d 9ff5 8b3d 9408 7a3e
000000d0: 2d8c 1cbe 15c7 4cbe 31e5 073e b3c3 cdbd
000000e0: 9a2d 96be 9d59 7bbe f339 30be d84a 8cbe
000000f0: 9943 d23c 3282 54bd 5f1e c23d e9d8 283e
00000100: 759d 34bd 38dd 84bd 5e8e 0bbd 29ca 56bd
00000110: 1f69 f0bd 3820 2e3e bdf0 00be 91d5 be3d
00000120: 781e ac3d 9480 4fbd 1584 533b 87c5 ca3c
00000130: ccb3 8cbe 666a 3a3e 2b64 143e ea8c 9cbe
00000140: fbb3 4e3d 20a6 2c3e 1715 223e 7dd2 a83d
00000150: 5ef1 b4bd 9704 e43d 2ad1 bcbd 7f36 9abd
00000160: 9826 18be 1d97 f63a f907 a4be 2993 e7bd
00000170: 44c3 6c3e a891 a9bd 354a 45be 05eb 35be
00000180: 4c7e 2d3e 82f0 c3bc 8b72 17bd fa71 d63d
00000190: a17f 75be 2453 21bd 8c36 14be 0faa c0bb
000001a0: 0564 e33c c07f db3c 7cf1 75be 87a0 5ebe
000001b0: a1c7 4e3e ccf6 093d 906e 47bd e95e 3fbe
000001c0: e50b fb3b 5800 153e 4bf0 353e aad3 2ebe
000001d0: 38e3 42bd 1585 993d 0257 843e 154e 91bc
000001e0: 7b9d 27be abea 9d3d 2437 a53c bc32 ffbc
000001f0: 928f c8bc d073 79be 0d7c a8bd 3b52 803d
00000200: 4813 6bbe e40e 993c cb4b b83a 993a f7bd
00000210: a1ae 393e 41b1 5bbe fa08 cd3c 1681 adbd
00000220: 6e9e f53d 5582 c0bc c4a6 0bbe bbaf 7fbe
00000230: 4f0e 123d 3b03 1dbd f30d ecbc ba6e 09be
00000240: e1ca 7b3c 50b9 5fbd 39dc 263e fd5f 71bd
00000250: e9de 26be 2470 4dbe 22c2 6f3d ac3e bb3d
00000260: a3ff 8bbe 30a2 a4be ef0c bfbd 81d4 d1bd
00000270: d624 273e a5e5 ff3d 62da 9ebc a60e 2d3e
00000280: e57e 3cbe 8e2f 68be de21 90bd 9c0b 1dbe
00000290: 0d63 bcbe 91dd 463c 733b 1fbd faba 9fbe
000002a0: 35d0 f6bd 6d9c d23d 4e4a 8dbe e650 00be
000002b0: 5daa f7bd 10c8 05bd 8371 3d3d 6ea0 efbd
000002c0: d511 543e 024b ab3e 5324 cb3d c89e 823e
000002d0: c931 f7bd b1f5 1d3e c411 59bd e911 4c3e
000002e0: d4d5 923d 6f10 103d 0a62 34be 95cc a03d
000002f0: cdaf abbd 52ea 903b 12b2 79bc 92bb 243c
00000300: 2019 623e 2b52 5c3d 1b97 b9bd 253f 923d
00000310: 733f 0cbd a029 f8bc b026 333e 27f4 4bbe
00000320: 27da 383e 7337 0fbc 43d8 a7bd 754c 86bd
00000330: b74d 53be 9c62 acbc a081 0a3d ac9c 133e
00000340: a5df babb f385 353e c30f 063e aec9 f1bd
00000350: 51e9 f5bd 1941 923c b01b 04bd 5812 9e3c
00000360: 7ce6 2abb e0d4 ca3d 5dab df3d 4eb7 83bd
00000370: bbf9 ef3d 4b2f aa3d 628b 153e 1d22 78bd
00000380: 6c4f ef3d 00cb e83c eca4 213e e25d 413e
00000390: 5dcb 993d e174 97bd 901f 1b3e 4e76 09be
000003a0: 977d 8fbd f681 76be ffa5 22be 5a39 e23d
000003b0: 6526 cf3d 289c 393e cd52 383e e8e0 5c3e
000003c0: 7903 93bc 4b98 62bd eba6 a43d 94b2 72be
000003d0: 3d54 7abe dc6e 2e3e 0a77 fcbd 1583 6cbe
000003e0: 4568 1abe 337d 1bbe 6b36 293c 398f bd3e
000003f0: 2e5f 903d 2c2b 50be 981c 09be 86ea a4bc
0.09524119 0.031599864 0.044951666 0.21561243 0.18262859 -0.18005937 -0.25746667 0.12840891
-0.09648192 -0.057861615 -0.06274257 0.13518012 -0.07712747 -0.07250671 -0.032663994 -0.24022132
-0.049221054 -0.08262226 -0.16169383 -0.0993351 0.031774763 0.030136509 -0.06053303 -0.29396093
-0.036459897 -0.3198609 -0.16413158 -0.15563616 0.048149813 0.002055746 0.0428344 0.07555601
-0.3250595 0.051078077 -0.06936965 0.023283256 -0.06122039 -0.19495042 0.14099714 0.1600316
-0.059281386 0.044780906 0.059260517 0.0692717 -0.101516634 -0.11574057 -0.19570781 -0.035110258
0.16421165 0.098942265 0.06833958 0.24417335 -0.15287848 -0.19997819 0.13271023 -0.10047092
-0.29331666 -0.24545904 -0.17209606 -0.2740085 0.025666999 -0.051881976 0.09478449 0.16488995
-0.044095475 -0.06487507 -0.03407132 -0.05243889 -0.117388 0.17004478 -0.12591834 0.09318078
0.08404249 -0.05065973 0.0032274772 0.024752392 -0.27480924 0.1820465 0.14491336 -0.3057626
0.05046461 0.16860247 0.15828358 0.082432725 -0.088351 0.11133688 -0.092195824 -0.075299256
-0.14858472 0.0018813346 -0.32037333 -0.113073654 0.23121363 -0.08279735 -0.19266589 -0.17765434
0.1694271 -0.023918394 -0.03697447 0.10470958 -0.23974468 -0.03938593 -0.14473933 -0.0058796476
0.027757654 0.026794314 -0.240179 -0.21740924 0.2019334 0.03368263 -0.048689425 -0.18688549
0.00766133 0.14550912 0.17767446 -0.17072931 -0.047579974 0.074960865 0.25847632 -0.017737428
-0.16368668 0.07710775 0.020167895 -0.031152122 -0.024482522 -0.24360585 -0.08226786 0.06265684
-0.22956574 0.018683858 0.0014060674 -0.120717235 0.18133022 -0.21454336 0.025028694 -0.08471887
0.11993109 -0.023499647 -0.13637835 -0.2496938 0.035658177 -0.03833316 -0.028815245 -0.13421145
0.015368194 -0.054620087 0.16294946 -0.058929432 -0.16295971 -0.2006231 0.05853475 0.09142813
-0.27343473 -0.3215499 -0.09328639 -0.1024561 0.16322646 0.12494973 -0.019391242 0.16900119
-0.18407781 -0.2267439 -0.0703771 -0.1533646 -0.3679432 0.0121377865 -0.038875055 -0.3119734
-0.12051431 0.10283742 -0.27595752 -0.1253086 -0.12093041 -0.032661498 0.04625083 -0.117005214
0.20709927 0.33455664 0.09919038 0.25511765 -0.12070043 0.15425755 -0.05299546 0.19928707
0.07169691 0.035171922 -0.17615524 0.07851521 -0.08383141 0.0044224644 -0.015240209 0.010054486
0.22079897 0.0537893 -0.09062024 0.0714095 -0.034240197 -0.030293286 0.17495227 -0.19917355
0.18051969 -0.0087412475 -0.081955455 -0.06557552 -0.20635115 -0.021043114 0.033815026 0.14415234
-0.00570293 0.17726879 0.1309195 -0.118060455 -0.12007392 0.017853307 -0.032252967 0.019295856
-0.002607732 0.09903884 0.10921357 -0.06431447 0.11717554 0.08309802 0.14603952 -0.060579408
0.116850704 0.02841711 0.15785569 0.1888347 0.075094916 -0.0739534 0.15148759 -0.13424036
-0.07006376 -0.24073014 -0.15883635 0.11046095 0.10114745 0.18125975 0.18000336 0.2157017
-0.017945992 -0.05532102 0.080396496 -0.23700935 -0.24446197 0.17034477 -0.123273924 -0.23096879
-0.15078838 -0.15184478 0.010327916 0.37023333 0.07049404 -0.20328969 -0.13389814 -0.02013136

conv5.0.bias f4 [20]
00000000: 1c39 17be a9ee 42bd 2b3f f4bd a8c9 a3bd
00000010: 4667 4c3d 39cf 46be ee68 873d e75e eabd
00000020: 23be 38be ca63 21be 5c53 7dbe 9312 47be
00000030: 4abc b3be bba5 45be 8ccf 0fbe fb02 5cbd
00000040: 7ec3 6cbe d1ca 04bd e174 e9bd 2447 f9bd
-0.14767879 -0.047590885 -0.11926111 -0.07997447 0.049903177 -0.19414987 0.066118106 -0.114438824
-0.18041281 -0.15760723 -0.2473883 -0.19440679 -0.3510459 -0.19301502 -0.14044017 -0.05371378
-0.2312145 -0.032419983 -0.11399246 -0.12171772

conv5.2.weight f4 [20]
00000000: 5206 473f a2e6 383f 09d9 553f a2e3 5a3f
00000010: 87c1 843f c0a9 6f3f 5972 983f bc92 8f3f
00000020: c888 533f d2fe 8c3f 8eb5 6f3f 9cdc 553f
00000030: 7450 813f a910 5a3f 4da5 383f 3034 493f
00000040: 303c 5c3f 57ed 833f 672c 803f 344c 963f
0.7774402 0.7222692 0.83534294 0.8550359 1.037156 0.9361839 1.1909896 1.1216655
0.82630587 1.1015265 0.93636405 0.8353975 1.0102677 0.8518167 0.7212723 0.78595257
0.8602934 1.0306805 1.001355 1.1742005

conv5.2.bias f4 [20]
00000000: b829 e8bd df96 16be 2970 17be a90b 163e
00000010: 86c6 ddbd 6e17 3cbe 4837 82bd c9bb d9bd
00000020: 322c 4dbe 12a3 8fbd adaa 1fbe afbf 30be
00000030: 27ed 523d 8d29 ecbd 6623 a0be 0e4a 41be
00000040: 75b0 01be 6f5f a9bd 94ca f1bd dfd6 063d
-0.11336082 -0.1470599 -0.1478888 0.14652885 -0.10828881 -0.18368313 -0.063582 -0.1063152
-0.2003639 -0.07013525 -0.15592451 -0.17260621 0.051495697 -0.11531363 -0.31277007 -0.18875906
-0.1266497 -0.08270156 -0.11806217 0.03291976

conv5.2.running_mean f4 [20]
00000000: 9755 553e 437d a03e c65e 163f 1c3a 243e
00000010: 5517 1a3f 4a4f c63e c855 9c3e 1402 313e
00000020: cdc7 063f 9ad4 7f3d b58a 133f 8882 b93e
00000030: 8720 f53d 259d 7f3e a9b9 993e e692 d83e
00000040: 2b92 ff3e be68 fd3d 1d89 cb3e cd4c 593e
0.20833431 0.31345567 0.5873836 0.16037792 0.6019185 0.38732368 0.30534196 0.17285949
0.5264862 0.062458612 0.57633525 0.362324 0.11969095 0.2496229 0.3002446 0.42299575
0.49916205 0.123734936 0.39753047 0.21220703

conv5.2.running_var f4 [20]
00000000: f99d d63d 3503 913e 4bd9 393f dd67 c13d
00000010: 4030 433f 24dc d53e c53f 4b3e 6593 033e
00000020: b502 383f 0a78 e83c a624 3b3f b44a ae3e
00000030: 133a 8c3d ded4 633e 3049 503e 4fb3 c03e
00000040: a6fb 4c3f 9b72 843d 0bd5 b13e c0af 193e
0.1047935 0.2832276 0.7259719 0.094436385 0.762455 0.41769516 0.19848545 0.12849195
0.7187913 0.028377552 0.73102796 0.3404137 0.06847014 0.22249171 0.20340419 0.37636802
0.80071485 0.06467172 0.3473285 0.1500845

fc1.1.weight f4 [10, 740]
00000000: bfa4 bb3d f5d4 6abd c47e 3d3e 26aa bfbc
00000010: e452 8a3c fb97 a1bd 16e6 dbbd 738c f03d
00000020: 8d84 1f3d 6996 1bbe faa9 e73c d031 a53c
00000030: c8c1 3a3e 958b d7bd 4397 c03a 6b04 a0bc
00000040: e91c f4bd d56f e53c 4d9a a33d 2f98 60be
00000050: 38d1 09be 6fb6 e63d 4c4b 3fbb dbe1 433d
00000060: 30c1 583d 7b1e d7bd 12b8 443d 20ae e7bc
00000070: 9f7a 96bd f825 89bd 70fa 5fbd 7e85 dcbd
00000080: 6a5e a33c 9be0 1dbe b32e 65be 3165 c2bd
00000090: 144a 00be 7c44 bf3d b600 1c3e b4bb 85be
000000a0: 9505 3e3d c688 a3bd 200b 9cbc 2827 2b3d
000000b0: 23de 463c f7e9 003e 4c33 473e 8a98 a4bc
000000c0: d89c ea3d a017 973e 2bc3 143d 30bb dfbd
000000d0: 76f3 0b3e 8c45 15bd ccb5 f5bd 1a2f a6bd
000000e0: 0ec4 0b3e 52f0 22be bbc1 6c3e 8874 843e
000000f0: 0f9d 68bd dab0 583d b5bd 4d3e 7b84 a83d
00000100: 2fa5 ab3c 8c0b 67ba 6bed 573e f6dd 62bd
00000110: 5045 89bd ed4e 4e3d f6f4 92bb 1215 08be
00000120: a862 2cbe 9b3c 923c 56ef deb8 4391 963d
00000130: 7c25 21be b068 083c 4734 aabd 22f9 0cbe
00000140: b213 04bd 1ad3 82be fd3b 5ebd aad3 683d
00000150: b5ac c3bd 13b6 633e 380a 123e a813 123b
00000160: 3a70 483d 779c 4d3e 48e5 91bd 4d58 b6bd
00000170: 6824 dabd b8d1 dcbd 90b5 4fbe 69fb 50bd
00000180: 5472 4e3d 761c 8f3d e58a f0bc 169f 103e
00000190: 3d5b e83d bfa4 62bd 8588 b73d ebb0 f43d
000001a0: 7d8e 5a3e 7e2c c33d b1fe afbd 93ff 7abe
000001b0: 51fc f43b dcf6 783e 7321 e0bd 0aa7 2bbd
000001c0: e9b7 983d db0b 44be 8c0b 2cbe 2329 6b3d
000001d0: 404b f1bd 73b2 9fbd 320c 4fbe e5b1 fb3d
000001e0: bf62 9c3d 84d8 4cba ac08 00be bccf bd3d
000001f0: 6e3a 3ebe 6322 dc3c 34b5 42be a2ea 97bd
00000200: 4ab2 54bd 002e 1cbe 2337 c9bd 9597 d93d
00000210: 5d09 47be 4cc5 09be dac4 303b 3988 50be
00000220: 4744 32be 3ad3 2c3d 812b a4bd 24e0 0ebe
00000230: 15d1 efbd 57a2 023e 41cb 313c 7879 aabd
00000240: 7f59 bf3d 0b43 9c3d 138b 84be 5a36 c1ba
00000250: 80ff f9bd 3e64 0f3e 450b 833e afd0 0dbe
00000260: e848 c0bd bcbe 20be 323b 4a3e 12ba 71bc
00000270: 1ab2 dd3d 3cec e93d 9426 efbc a1bb 13bc
00000280: 38a9 173c d0a2 0d3e 1033 1cbe e73a 9d3d
00000290: aa16 683e ea9f 3c3d e6d0 2abd 4a8f 35be
000002a0: 3155 72be 925e 073e ff0a cf3c 8c61 10be
000002b0: 059b 603e 2abb 223e 96ad 4b3c ea55 be3c
000002c0: b500 373e bb15 5fbd d50d f4bd 5ce7 2e3e
000002d0: 12eb 113e ce93 e23c 8d64 64ba a256 e13c
000002e0: f8c8 1abe 75a5 32be ef52 8ebe c70c 303e
000002f0: e637 0cbe 7760 5d3d 22e8 c63d f8e4 bf3c
00000300: 25d2 6abc bab5 48be 0100 173e d1dc c0bd
00000310: 3631 b13d ce3b 69bd 4cea 13be 8f2f 9a3b
00000320: bf10 19bd 0e18 5c3d 8755 cfbd e890 83bc
00000330: aec8 2c3e 780e 97be 9ad5 45be 780c 0dbc
00000340: 1486 4cbe 9dc4 51bc e22c 793d 7cbe 4fbd
00000350: d34d 3abe 55a8 443e f040 debc 48b1 09bd
00000360: c967 c33d c49d 613c 1321 02be 56ce eb3d
00000370: 51e5 c1bd 8aac ee3d 31c1 70be 0af4 41bd
00000380: 424f 843d ba5e 5bbe 36f4 5dbe 816c fdbd
00000390: 5391 64be 71fb 3ebe ee51 aebe 3c14 d4bd
000003a0: c313 2bbe 4370 93be 5a54 29be 1eb1 3ebe
000003b0: 8517 bfbd 37ee 87be 0515 ec3d 1974 62be
000003c0: 46f8 8fbe 3429 14bb 34cc bdbd aefe a2be
000003d0: 7c49 ddbd 9252 183d 6898 c5be 73f3 52be
000003e0: 3170 4fbe 7e99 aabe 9773 8ebe f20d 7fbd
000003f0: 1c49 16be 4e38 cb3c 9c4a 5cbd 6f50 9abe
0.09162282 -0.057331998 0.18505388 -0.023396563 0.016885228 -0.07890316 -0.10737245 0.117455386
0.03894477 -0.15194096 0.028279293 0.020165354 0.18237984 -0.1052467 0.0014693517 -0.019533357
-0.11919577 0.028007427 0.07988415 -0.21933053 -0.13458717 0.11265265 -0.0029189168 0.047822814
0.052918613 -0.105038606 0.048027106 -0.028281271 -0.07347607 -0.06696695 -0.054682195 -0.10767649
0.019942481 -0.15417711 -0.22381096 -0.09491957 -0.12528259 0.09339234 0.15234646 -0.2611977
0.046392042 -0.07985072 -0.019048274 0.04178539 0.012137922 0.1258925 0.19453162 -0.020092268
0.11455697 0.29510212 0.03631894 -0.10924375 0.13667092 -0.03644328 -0.119975656 -0.08114453
0.13649008 -0.15911987 0.23120777 0.25870156 -0.056790408 0.052903034 0.20091899 0.08228394
0.02095279 -0.00088136713 0.21086662 -0.05538746 -0.067026734 0.05036824 -0.004484768 -0.13289288
-0.1683451 0.017851165 -0.00010630365 0.07351925 -0.15736955 0.008325741 -0.08310752 -0.13766912
-0.032245345 -0.25551683 -0.054256428 0.056842484 -0.095544256 0.22237425 0.1426171 0.0022289548
0.048935153 0.20079218 -0.0712381 -0.08903561 -0.10651475 -0.10782188 -0.20284104 -0.051021013
0.050402 0.0698785 -0.029363105 0.14123186 0.11345527 -0.055332895 0.08961586 0.11947807
0.21343417 0.095299706 -0.085935004 -0.24511556 0.0074763675 0.2431292 -0.1094388 -0.041907348
0.07456953 -0.19145148 -0.1680128 0.057412278 -0.11781931 -0.07797708 -0.20219496 0.1228979
0.07636022 -0.0007814246 -0.12503308 0.09268138 -0.18576977 0.026871866 -0.19014436 -0.074177995
-0.051927842 -0.15251923 -0.098249696 0.10624615 -0.19437166 -0.13454169 0.0026972801 -0.20364465
-0.17408858 0.04219363 -0.0801611 -0.1395269 -0.11709801 0.1275724 0.010851682 -0.083239496
0.09343242 0.07629975 -0.25887355 -0.001474093 -0.12206936 0.14003083 0.25594535 -0.13849138
-0.09388906 -0.1569776 0.19749144 -0.014753835 0.10824986 0.11422011 -0.0291932 -0.009016902
0.0092566535 0.1383164 -0.15253854 0.0767725 0.22664896 0.046050943 -0.041703127 -0.17730442
-0.2366531 0.1321967 0.025273798 -0.14099711 0.21934135 0.1589171 0.012431523 0.023234326
0.17871363 -0.054464083 -0.11916701 0.17080444 0.14249828 0.02765837 -0.0008712493 0.02750713
-0.15115726 -0.1744593 -0.27797648 0.17192374 -0.13693199 0.054047074 0.097122446 0.02342461
-0.014332329 -0.19600573 0.14746095 -0.094171174 0.08651964 -0.0569418 -0.14444846 0.0047053765
-0.037369486 0.053733878 -0.10123735 -0.016060308 0.16873428 -0.29503226 -0.19319764 -0.00860893
-0.19973022 -0.012803224 0.06083382 -0.05071877 -0.1819375 0.19204839 -0.027130574 -0.033616334
0.0954128 0.013770524 -0.1270793 0.11513965 -0.09467567 0.11654003 -0.23511197 -0.047351874
0.0646043 -0.21422854 -0.2167519 -0.12374211 -0.22321062 -0.18650605 -0.34046882 -0.10355422
-0.16706757 -0.28796586 -0.16536084 -0.18622252 -0.09330658 -0.2654893 0.11527447 -0.221146
-0.28119105 -0.0022607567 -0.09267464 -0.3183493 -0.10805032 0.03718812 -0.3859284 -0.20600681
-0.20257641 -0.3332023 -0.27822563 -0.06226916 -0.14676327 0.024807122 -0.05378209 -0.3013949

fc1.1.bias f4 [10]
00000000: a9f2 763d 16ff 86bd 7423 b5be c760 76bd
00000010: 1dc2 c4bd 5db6 5b3e ca4e ebbd 3ef0 4d3d
00000020: 6670 d93d d301 f93d
0.060290013 -0.065916225 -0.3537861 -0.060150888 -0.09607337 0.21456285 -0.11489637 0.05027794
0.106171414 0.12158551

fc2.0.weight f4 [2, 10]
00000000: 8170 3abe 478f b7bd 10f6 34be 9530 76be
00000010: 8408 1a3d b690 85bc 26eb 9dbd eb63 493e
00000020: 210f 693e a2d9 52bd 24cd dd3d 05e0 503d
00000030: ff90 313d cbaf ab3b d24b 88be 1a61 9dbe
00000040: ccae 1b3e a1aa 49bd 6059 11bc 3893 643e
-0.1820698 -0.08962875 -0.1767199 -0.2404197 0.037605777 -0.016304355 -0.07710867 0.19667022
0.22759677 -0.051477082 0.10830143 0.05099489 0.04335117 0.005239462 -0.26620346 -0.30738145
0.15203398 -0.04923499 -0.008871406 0.22321784

fc2.0.bias f4 [2]
00000000: 1c44 873e 1961 f6be
0.2641915 -0.48120955

exp_avg f4 [3, 1, 6, 1]
00000000: b6fb 983d 708a 2f3d 5197 223d 6e64 273d
00000010: 0713 98bb 39cc 013c 1d16 4cbd cc41 2fbd
00000020: 31d7 82bd 7cdd 6dbd 3fad 09bd 064c 333d
00000030: 4c22 233d eaed 6c3c 5469 1a3d 623d fc3c
00000040: ad1c 713c fc0b c33c
0.07469885 0.042856634 0.039695088 0.04086726 -0.00464094 0.007922226 -0.049825776 -0.04278736
-0.06388701 -0.058072552 -0.033612486 0.043773673 0.03982763 0.01446102 0.037698105 0.030790988
0.0147163095 0.023809426

exp_avg_sq f4 [3, 1, 6, 1]
00000000: 317d 143d 41bc 5f3d 47a1 4d3d d93d c83c
00000010: a7f1 563c 4186 8c3c 3222 323d d383 173d
00000020: 9362 223d 2186 4a3d 5581 853c 3edb 6d3d
00000030: b4ad 233c c630 9f3c 2138 bd3c 75d2 8f3c
00000040: 5d4f 343c fed0 3d3c
0.036252204 0.054622892 0.050202634 0.024443554 0.013119138 0.017153861 0.043489642 0.03699095
0.03964479 0.04944432 0.016297022 0.058070414 0.0099901445 0.019432437 0.023098053 0.017556408
0.01100525 0.011585472

exp_avg f4 [3]
00000000: b63e 833e abb4 163f 539d 673e
0.25633782 0.5886943 0.22618608

exp_avg_sq f4 [3]
00000000: e6a5 ae40 0c7f ff41 ebbf 2041
5.4577513 31.937035 10.046855

exp_avg f4 [3]
00000000: b10b a7bd a3d0 ba3c af85 10bd
-0.08156527 0.022804564 -0.03528374

exp_avg_sq f4 [3]
00000000: 7927 ac3d 36d5 bc3c 146c 8a3c
0.08405966 0.023050886 0.016897239

exp_avg f4 [3]
00000000: c0ce 0b3d 8aa8 903c 330e c83c
0.03413272 0.01765849 0.024420833

exp_avg_sq f4 [3]
00000000: 4d68 7a3d b378 f63e 4c8a a43d
0.061134625 0.4813896 0.080341905

exp_avg f4 [5, 3, 5, 1]
00000000: 4c87 4cbb a8ca f73c a7e1 fe3c 634f 083c
00000010: f83f babc 08cb 2cbc 94be 7dbc 29f6 6f3a
00000020: ee6b 0d3b 774c 55bc f5d1 95bc d22c 9d3c
00000030: 8d23 cf3c 31be 833c ae91 f0bb 9beb b7bc
00000040: a34a 97bd 2a65 11bd 8f46 623c 2c16 4f3d
00000050: f99e 933b 17ca 513a 14fa d2bc 794a 393c
00000060: aea4 c43c 78cc 573c 13ad 43bd 05e0 fdbc
00000070: 891e 70ba a140 0e3d c354 023d 70e6 c2bb
00000080: e1ba 45bd 6d0f 11bd 48bb f2bb a435 4939
00000090: 12d2 ba3b 316f c0bc 3ad4 37bc 2eaf 2cbd
000000a0: aebc d73c a0f9 ec3b d8af 05bd e997 0dbd
000000b0: 31b4 57bc 30e6 2fbd a46d f63c aef9 773d
000000c0: c41d a93c 0764 08bd 516d 3fbd aaf5 18bc
000000d0: 98cb b63c fb26 ba3b 647d a6bc e9d2 31bd
000000e0: 33c3 14bb e2b6 273d 32d7 033d 88ea abbc
000000f0: 6ccc 83bc ce92 30bc f146 c1bc b23e 9dbc
00000100: 20ae f13b f5b5 a7ba 2eef 1a3c 6561 e13b
00000110: 89b8 75bc 4d74 703c 35e3 a1bc 059a 67bb
00000120: 2fab 3dbc f8c3 cabc b202 9dbb
-0.0031208573 0.030248001 0.031113459 0.0083197085 -0.02273558 -0.010546453 -0.015487332 0.0009153807
0.0021579224 -0.013018719 -0.018288592 0.019186411 0.025285507 0.016081901 -0.007341585 -0.022451213
-0.07387283 -0.03549687 0.013810768 0.050558254 0.004505035 0.0008002831 -0.025754012 0.01130926
0.024004307 0.013171308 -0.04777248 -0.03099061 -0.00091598235 0.034729604 0.031819116 -0.0059478804
-0.048273925 -0.0354151 -0.0074075796 0.00019188836 0.005701312 -0.02349052 -0.011220032 -0.042159252
0.026335087 0.007231906 -0.0326384 -0.0345687 -0.01316552 -0.042944133 0.030081578 0.060540847
0.020644076 -0.03329852 -0.04673511 -0.009335915 0.022313878 0.0056809164 -0.020323463 -0.04341403
-0.0022699356 0.040945895 0.032187648 -0.020985857 -0.016088687 -0.010777188 -0.023593398 -0.019194935
0.0073754936 -0.0012795316 0.009456439 0.0068780654 -0.01499761 0.014676166 -0.019761661 -0.0035339606
-0.011576458 -0.024751648 -0.004791581

exp_avg_sq f4 [5, 3, 5, 1]
00000000: 9f6c 373b fc5e 0e3c 891d 883b bbf9 0e3c
00000010: 5e0d 953c 0d0b 5d3b 39b7 863a d4e1 613a
00000020: a953 0c3b 55a2 643b c26c 0d3b bc66 c83b
00000030: 7222 d43b 0999 433b fd58 3b3c ca03 bb3c
00000040: 0a8a a63d b090 6c3d 3a67 503c 4a13 f73c
00000050: 3af6 783c c668 7a3c abb7 963c f19a 763c
00000060: 9d40 4f3c aed6 673c a7c2 5e3d 8d9c 8f3d
00000070: 936f 863c c224 9d3c d576 053c 3380 b53b
00000080: 6535 593c 1dba 4b3c fcc7 cd3b d9c6 793a
00000090: 556a 8d3a 9bc3 8f3b d705 603b 3362 ac3b
000000a0: 1fc1 cf3b cdd3 a23b 7af8 df3b e864 203c
000000b0: 078b a13b 114f 083d 8c02 053d f5e1 723d
000000c0: e251 933c a973 3f3d 3afc b83c ccb5 853c
000000d0: ec41 3b3c d5e2 433c 46be 743c c4b3 0b3d
000000e0: 1df8 bd3c f8f6 643d eabd f03c c8b4 b13c
000000f0: 6a66 d33c c650 ee3c 5865 1b3c ecd0 be3b
00000100: 7b83 643c 7342 6f3b 7463 983b 6033 963b
00000110: 12b6 913b e5de aa3b 0e0d 303c 9de0 883c
00000120: 1f65 023c 22f2 b63b 5f2e 5f3c
0.0027988327 0.008689638 0.0041539115 0.008726533 0.01819485 0.003372851 0.0010277993 0.000861672
0.002141217 0.0034886796 0.0021579717 0.0061157625 0.0064738328 0.0029845855 0.011434791 0.022828955
0.081317976 0.057755172 0.012719924 0.030160565 0.015195424 0.015283769 0.018398127 0.015051589
0.012649682 0.014150305 0.054384854 0.070122816 0.016410625 0.019182567 0.008146008 0.005538964
0.013257359 0.01243451 0.0062799435 0.0009528227 0.0010789136 0.0043873317 0.0034183168 0.0052607297
0.0063401605 0.0049690963 0.0068350406 0.009789683 0.0049299034 0.03327853 0.032473132 0.05929752
0.01798338 0.04674116 0.022581208 0.016322039 0.011429291 0.011955936 0.014937943 0.034106985
0.023189599 0.05589959 0.029387433 0.021692649 0.02580567 0.02909125 0.009484611 0.0058232453
0.013947363 0.0036508113 0.0046505276 0.004583761 0.0044467533 0.0052145594 0.0107453 0.016708666
0.007958679 0.0055830637 0.013621896

exp_avg f4 [5]
00000000: 01d0 c7bc f216 533b 5d3d 7abc 9066 f6bc
00000010: 707d d03c
-0.024391176 0.0032209721 -0.015273419 -0.030078202 0.025450438

exp_avg_sq f4 [5]
00000000: c1c0 843c 8ad8 213e caf6 213c bfaa 5b3e
00000010: 33de 8e3d
0.016205193 0.1580526 0.009885499 0.21451853 0.06975975

exp_avg f4 [5]
00000000: edf8 5ebc ee2d 4bbc e6d0 bbbc e3a5 a3bc
00000010: 6900 babc
-0.013609153 -0.012401087 -0.022926759 -0.019976562 -0.022705274

exp_avg_sq f4 [5]
00000000: 7ec5 4a3c a512 043c d30c 113b 2218 8b3c
00000010: 6be9 1f3c
0.012376187 0.008061086 0.0022132888 0.01697928 0.009760241

exp_avg f4 [5]
00000000: d139 92bc 7425 56bb d84d 523c 659d 0fbc
00000010: beb6 4b3c
-0.017849835 -0.0032676132 0.012835942 -0.008765553 0.012433706

exp_avg_sq f4 [5]
00000000: 7d21 dc3b 9fc0 433c 3873 8b3c 6d6e e93c
00000010: 4393 be3c
0.0067178593 0.01194778 0.017022714 0.028495038 0.02326358

exp_avg f4 [10, 5, 4, 1]
00000000: f9e6 303d d35a 933c 5b36 483d 2bd5 943c
00000010: 1fd2 17bc f6d9 a2bb 4c82 4ebb de0e adbb
00000020: b79d 4e3b 9668 713c d020 2d3c 3618 383d
00000030: 207d 09bc b1bc 39bb a9ec 84bb afe2 29bb
00000040: 1456 c93a a1c4 873c 4479 153c 4b73 9b3c
00000050: 4134 763a 6281 bc3c 2c60 10bc f567 153c
00000060: f5bf caba 6b82 b93b 8321 e83b 1b18 b0bb
00000070: 10f1 39bc d8a4 ae3b f748 5c3a ce10 bbbb
00000080: da73 6b3c 7488 8739 8f75 83bb d36d 0a3b
00000090: 6cd5 003b dec2 f3bb 4d45 df3a ab91 303b
000000a0: f297 843c 3bd9 aebb 60d2 a3bb ff5b 233c
000000b0: af0b ffbb 5e24 5eb9 5f27 223c bf08 2bbb
000000c0: d2e3 19bc 06e8 5c3c a462 b0bb 8561 4cba
000000d0: 218f 493b 24c1 babb 126d 73bb e6e0 383c
000000e0: 118f 64bb 14df 72ba 2959 333c 665b 8ebb
000000f0: 245d c63b 6795 cbbb fad8 cabb 0134 cc3b
00000100: fd7c 64bc 4899 053c 5717 17bc 8f65 6e3c
00000110: 1d9a 183b 887b 1139 1acc bebb 83a0 903b
00000120: db5f 913a eb4f eabb 2e68 1b3c 1941 e93a
00000130: bfa5 103a 0505 0c3b 1119 953b bfac 27bb
00000140: ffd8 09bc a5ed d3bb cc91 3eb9 7280 0e3b
00000150: d816 d33b d2b7 52bb c45e 683b 4775 66bb
00000160: 933f f4bb 3f01 98bb 324d 35bc b4ec 06bc
00000170: 027b be3b a2fd 10bc 4e55 9fbb 1ede 0b3c
00000180: bcdd dabc 7aa5 92bb 556b 8fbb 7dad 1fbc
00000190: ae01 31bc 5a77 9fba c943 79bc f962 48bc
000001a0: 509b 213c 5cd4 7d3b e8b9 78ba f45e dcb9
000001b0: 688b b7bc 3ea8 9fbb 2fd8 4bba d6fa 94bc
000001c0: df6a 853a d205 d33b 5f06 8fbc eaa0 653b
000001d0: ff26 00bb 64de e8bc c164 a0bb ab95 2fbb
000001e0: 2101 bfbc ecfc 413b fb08 fbbb 2a2d 9a3a
000001f0: 83ec b0b9 b3c7 a63a 182b 433b 6f9b ab39
00000200: 605b 1eba a751 37bc 905d 2abb 8224 8cbc
00000210: 1a6e 42bc 24f7 733c 7472 613a 749a d53b
00000220: 7326 5c3c 7548 32bb 4cd9 1a3b 2814 74ba
00000230: a131 4abd 2014 20bd 8bd0 f23b 00ab 76bc
00000240: ce29 a9bc bd81 833c e9fe 1fbd 570f 133b
00000250: 97d4 8cbc 6676 8cbd 5ce5 67bc db4e 86bb
00000260: 0001 443b c645 7c3c 98eb 5b3c ce86 14bd
00000270: 90fc 863b 0c00 01bc 000b 59bd 095d b83b
00000280: a8de e1ba 73c9 403b 63db bfbb b6ba f03a
00000290: 095b 503c 63fa 0a3c f0cf 91bc 81f5 473c
000002a0: 6f4f 38bc 445c 813a a232 85bc 3ab2 0cbc
000002b0: 948b 823c a980 a1bb 5766 d1bb 12f7 113c
000002c0: 8830 e9bc 4e70 96bc 9295 1e3a 64fa ef3a
000002d0: c3ad 5e3c c533 303c 0551 223b 24a0 74ba
000002e0: 184b 85bc 11bd 63bc c714 893c 695c 03bc
000002f0: 02ef e13b e6f5 1e3b 92e7 0c3c 8642 a1ba
00000300: e679 4d3b 65c9 5a3c 2c7d 5b3b 78bd c33c
00000310: 4de2 063c 7715 8d3b 7a25 fe3b b45a 5db8
0.043189023 0.017987644 0.048879962 0.018168053 -0.009266405 -0.0049698306 -0.0031510768 -0.0052813133
0.003152711 0.014734408 0.010566905 0.044944964 -0.0083916485 -0.0028341229 -0.0040565324 -0.0025922467
0.0015360736 0.016573252 0.00912315 0.018975874 0.0009391942 0.023010913 -0.008811992 0.009119024
-0.0015468585 0.005661299 0.007084073 -0.0053739673 -0.011348978 0.0053297095 0.00084032066 -0.0057087904
0.014370883 0.00025850872 -0.004011817 0.002112259 0.001965846 -0.0074390015 0.0017034203 0.0026942294
0.016185734 -0.0053359545 -0.004999444 0.009970664 -0.007783375 -0.00021185118 0.009897082 -0.0026097742
-0.0093926955 0.013483053 -0.0053828526 -0.0007796514 0.0030755477 -0.0056992937 -0.0037143868 0.011284089
-0.0034875313 -0.00092648086 0.01094655 -0.0043443916 0.0060535837 -0.0062128785 -0.0061904164 0.0062317853
-0.013945815 0.008154221 -0.009221873 0.014550581 0.0023285218 0.00013874297 -0.0058226706 0.0044136657
0.0011091189 -0.0071506402 0.009485288 0.001779589 0.0005517862 0.0021365297 0.0045501073 -0.0025585142
-0.008413552 -0.0064675384 -0.00018174126 0.002174404 0.006441932 -0.0032153022 0.0035456875 -0.0035165118
-0.0074538677 -0.0046388204 -0.011065768 -0.008235145 0.0058130035 -0.008849533 -0.004862464 0.008536844
-0.02671706 -0.0044752927 -0.0043768086 -0.009745953 -0.010803623 -0.0012166307 -0.015213915 -0.012230628
0.00986369 0.0038731312 -0.00094881514 -0.00042032416 -0.022405341 -0.004872351 -0.00077760493 -0.018186014
0.0010178945 0.006439903 -0.017459093 0.003503854 -0.0019554493 -0.028426357 -0.0048948233 -0.002679209
-0.023315968 0.0029600216 -0.0076609827 0.0011762728 -0.0003374555 0.001272431 0.0029780325 0.0003273147
-0.00060408376 -0.011188901 -0.002599571 -0.017107252 -0.011867071 0.014890466 0.00086001237 0.0065186564
0.013436901 -0.0027203832 0.0023628054 -0.0009310865 -0.049363736 -0.039081693 0.007410114 -0.015055418
-0.020649817 0.016053075 -0.03906146 0.0022439563 -0.017191214 -0.0685852 -0.014153805 -0.004098756
0.0029907823 0.015397495 0.013422869 -0.036261372 0.0041194633 -0.007873546 -0.052989006 0.005626325
-0.0017232494 0.0029416948 -0.0058550104 0.0018366191 0.012717017 0.008482548 -0.017799348 0.012204529
-0.011249407 0.0009869416 -0.016259495 -0.008587414 0.015935697 -0.0049286676 -0.0063903737 0.008909004
-0.028465524 -0.018364098 0.00060495094 0.0018308875 0.013591233 0.01075453 0.002476753 -0.0009331724
-0.016271159 -0.013900057 0.01673354 -0.008017638 0.006894947 0.0024255454 0.008600133 -0.0012303151
0.0031353175 0.01335368 0.0033491356 0.023894057 0.008232665 0.0043055373 0.0077559324 -5.277498e-05

exp_avg_sq f4 [10, 5, 4, 1]
00000000: c567 613b 41dd 2f3b 9eff 7a3b c690 463b
00000010: 6372 e33a 40de e63a e5dd b73a 4326 e63a
00000020: cad5 2639 b157 323a 9e74 ef3a 80ff 753b
00000030: 9464 103b 4449 3b3b c4d0 373b 83a6 003b
00000040: 7edb 943a 2ae8 9a3a 048c 9c3a d0ff ed3a
00000050: 81c6 6e3b 0ce6 523b 6ba8 023b d6ae e73b
00000060: c05a 973b f55f 273c 23a9 fe3b dc61 723b
00000070: f065 213c bccf 933a 8df1 e83a 1213 583b
00000080: c6d9 003c 7959 863c dc24 6e3c 7f0b 7b3b
00000090: 490f 6b3c a0d5 223c ce37 ae3a 6cd8 a33a
000000a0: 8137 0f3b f5eb e339 b85e 4f39 f044 933a
000000b0: 6249 cd3a ce83 d23a e9f2 053b 1469 c63a
000000c0: a842 763a 8362 973a fa8f 4c39 334a 9f39
000000d0: 65c8 893a cb1a 863a 6fcc f33a d4b5 e83a
000000e0: 8dd7 9a39 b8a3 513a 2aa3 9f3a 26d5 8039
000000f0: 8aa3 983b c788 6f3b 92a7 533b 7a01 0b3b
00000100: 5d8d 963a 3e2b 8c3a 6f02 563b dab0 9f3a
00000110: 8323 cd39 d85f 873b a76d 1a3a fc21 ab3a
00000120: 2334 d63a ee9c 763a 429f 793a 04e5 cf3b
00000130: a9b9 063a 53fa 4c3a bc4e ab3b 26e6 873a
00000140: 7849 113b d8c4 1b3a a4ef 143b 0bcb fa3a
00000150: 814f 463a 21c1 443b ea65 583a 04e3 5d3a
00000160: 92aa f339 990c 253a f762 993a 319c b23a
00000170: a1d3 493a 85b0 a53a c312 0b3b 7b95 403a
00000180: 3377 d83a 3a15 993a f2ea 2a3a df88 473a
00000190: e18b 273b 65f4 8c3a 510a 963b 795a c83a
000001a0: 9b11 1d3b 976e 5e3c 4af8 2a3b 0008 783b
000001b0: 57a3 1d3b 685f 3e39 d393 3c39 8cf1 5e3b
000001c0: 46b3 4b3b 2d07 283b 5588 fd3b 69d6 1f3b
000001d0: e1b2 893a 5609 843b 536e 873a 9970 793a
000001e0: 6cab 953b a5b4 0a3b e930 b73b c318 a73a
000001f0: e072 a43b b1f9 f63b 9436 263b 5ce5 103c
00000200: b2ed 233a 5613 4d3b f37c 093a eee8 483b
00000210: 8264 f43b f389 703b 4384 383b 1e87 763b
00000220: 064e bb3a 020b a63a 460a 2e3b db14 1b3b
00000230: a0d1 e33b f3ef d13b cf3f 403b 78be 163c
00000240: c0b4 413c d997 c03b 33c3 043d fc01 b83b
00000250: 4c3e 4a3b 9fe7 c53b b7e3 993a c4c5 7d3a
00000260: 2c88 183c 2756 f13b 6748 d43b fd7b 8a3c
00000270: 3e35 253b f365 553b 944a 063c bc8d 063b
00000280: 3e02 fd3a 2a79 113b 8f28 543b c9ba df3a
00000290: 593e 943c f822 a53b d095 aa3b e8af e53b
000002a0: e649 b93a c9bc b538 9102 433b 06b5 0f3a
000002b0: f438 7a3b 82ac 2d3c 68bd 813b 278f 973b
000002c0: a683 853b b943 d43a a5cd e73a 8e3e 4c3b
000002d0: 5d73 103b c196 bc3b b160 913b 28ea a73b
000002e0: f7c6 1e3d 426d e33c fce1 763c 9cdb 313c
000002f0: d539 833a 6033 943a 979e 333a 86b2 293a
00000300: 15cc 883c f57f 0c3c b0a6 ef3b f4f4 183c
00000310: bf9f 473b 934a 823b f3ab 6c3b d0bd 4c3b
0.0034394127 0.0026834758 0.0038299332 0.0030298694 0.0017352815 0.0017613843 0.0014027922 0.001755901
0.00015910636 0.0006803228 0.0018269008 0.0037536323 0.0022032605 0.0028577605 0.0028048018 0.0019630499
0.0011356918 0.0011818458 0.0011943583 0.0018157903 0.0036434236 0.0032180576 0.001993681 0.0070704026
0.0046189725 0.010215749 0.0077716275 0.0036984598 0.009850964 0.001127712 0.0017772183 0.0032970351
0.007864421 0.016400086 0.014535155 0.0038306413 0.014346906 0.0099386275 0.0013291778 0.0012500412
0.0021853151 0.00043472616 0.00019776344 0.0011235755 0.0015662129 0.0016061009 0.0020438975 0.0015137517
0.0009394088 0.0011549745 0.00019508592 0.00030382126 0.0010511993 0.0010231374 0.0018600355 0.0017754384
0.00029533767 0.0007997113 0.0012179364 0.0002457287 0.0046581673 0.0036550032 0.0032295925 0.0021210597
0.0011486221 0.001069404 0.003265526 0.0012183443 0.00039127105 0.0041312985 0.0005890973 0.0013056393
0.0016342442 0.00094075396 0.00095223275 0.0063444395 0.000513936 0.00078192836 0.0052278917 0.0010368272
0.0022169035 0.0005942113 0.0022725845 0.0019133998 0.00075649476 0.003002234 0.00082549325 0.0008464309
0.00046475657 0.00062961277 0.0011702467 0.0013626871 0.00076990767 0.0012641108 0.00212209 0.0007346493
0.0016515016 0.00116793 0.0006519995 0.0007611643 0.0025565552 0.0010753988 0.0045788665 0.0015285752
0.0023966793 0.013576171 0.0026087933 0.0037846565 0.0024053657 0.00018155354 0.00017984146 0.0034018485
0.0031082197 0.0025639043 0.0077371993 0.0024389273 0.001050558 0.0040294332 0.0010332562 0.00095153745
0.004567554 0.0021164801 0.0055905473 0.0012748468 0.005018577 0.0075370898 0.002536212 0.008843746
0.0006253376 0.0031292043 0.0005244754 0.0030656415 0.0074582705 0.0036703318 0.0028155006 0.0037617157
0.001429022 0.0012668076 0.0026556416 0.0023663554 0.0069524795 0.006406778 0.0029334908 0.009200685
0.011822879 0.0058774767 0.03241272 0.005615471 0.0030859886 0.0060395743 0.0011740838 0.00096806535
0.00930981 0.0073650065 0.0064783576 0.016904825 0.0025208737 0.0032561987 0.008196492 0.0020531258
0.0019303036 0.0022197464 0.0032372808 0.0017069216 0.018096136 0.005039569 0.0052058473 0.007009495
0.0014136403 8.6659165e-05 0.0029756168 0.00054819917 0.003818092 0.010600211 0.0039593466 0.0046252194
0.0040745316 0.0016194499 0.0017685188 0.0031165215 0.0022041418 0.005755276 0.0044365753 0.005124349
0.038763966 0.02776206 0.015068527 0.010855582 0.0010011742 0.0011306815 0.000685194 0.00064734404
0.016698876 0.008575429 0.007313572 0.009335745 0.0030460206 0.003976175 0.0036113232 0.0031241067

exp_avg f4 [10]
00000000: fb73 5b3c 820d ae3b 7d36 983b add2 46ba
00000010: 80bb 9ebb 187e fbba 79ba c3b8 39fe 0ebd
00000020: 8f23 c7bb 3d03 bebc
0.013394351 0.005311669 0.0046451674 -0.0007584494 -0.004844129 -0.0019187359 -9.333058e-05 -0.034910414
-0.006077237 -0.023194904

exp_avg_sq f4 [10]
00000000: 1aaa d13b 7b44 513c 8aec 5e3a 37ae 943a
00000010: 774e 183b 22de 073c b740 bd3b dc40 c03c
00000020: c1af 6c3c 1902 da3c
0.0063984515 0.012772675 0.0008503875 0.0011343424 0.0023240128 0.008292707 0.005775537 0.023468427
0.0144462 0.026612328
