training/tuned_model/checkpoint.pt (torch, 148960 bytes, 82 tensors)

conv1.0.weight f4 [3, 1, 6, 1]
000000 90 34 68 3f a9 b8 9e 3f d2 02 e9 bf 9a 9b 22 be
       0.90705204 1.2400104 -1.8203986 -0.1587967
000010 98 3d 2b bf 35 5e 97 bf 2e c7 45 3e fc d2 08 40
       -0.6689086 -1.1825625 0.19314262 2.1378775
000020 aa c5 99 be 67 bf b7 3e 9d 44 41 40 6c c9 d0 bf
       -0.30033618 0.35888216 3.0198128 -1.6311469
000030 6b e0 01 be 7a a2 1e 3e 38 4b e5 3d 4a 10 7b be
       -0.12683265 0.15491667 0.111959875 -0.24517933
000040 6f a2 bd bc d9 e6 e8 3d
       -0.023148743 0.11372156

conv1.0.bias f4 [3]
000000 06 be de 3e ab 3e 40 3e d4 07 04 bf
       0.4350435 0.18773906 -0.51574445

conv1.2.weight f4 [3]
000000 29 3b 14 3f 89 77 db 3e 07 bc 7a 3f
       0.5790277 0.42864636 0.97943157

conv1.2.bias f4 [3]
000000 5a 2d 3a bf 7a c7 f3 be 5e bb 08 3d
       -0.7272545 -0.47613126 0.033381812

conv1.2.running_mean f4 [3]
000000 99 dc 91 3e bc d8 9a 3d 23 43 32 30
       0.28488615 0.0756087 6.485143e-10

conv1.2.running_var f4 [3]
000000 fd 59 8f 3c 9c d6 29 3c 72 24 c1 33
       0.017498964 0.010366108 8.993892e-08

conv2.0.weight f4 [5, 3, 5, 1]
000000 1e 76 62 3d 65 cb 9b 3f 6f 18 a5 3e 39 89 6e bf
       0.055288427 1.2171446 0.32245204 -0.93178135
000010 9c fb cc bf b5 96 a8 bf 60 a5 25 3d b8 e2 02 bf
       -1.6014285 -1.3170992 0.040440917 -0.51127195
000020 9b 41 14 40 2b 28 9b bf e6 8f 89 3e 11 2c 6e bc
       2.3165042 -1.2121633 0.26867598 -0.014536873
000030 7f 0a 85 3e da 16 81 3d 06 e7 6f 3e 2c 94 02 be
       0.2598457 0.06303187 0.23427972 -0.12751836
000040 9c f0 8a 3f 57 4e d8 3f 87 22 93 3f 41 c0 cd 3e
       1.0854678 1.6898907 1.1494912 0.4018574
000050 81 7d be 3e f0 f2 71 3f a9 6d ef 3e 97 d4 41 3f
       0.37205127 0.9451132 0.46763352 0.7571501
000060 36 85 5c 3f a6 9c a4 3e 55 6d f5 3b 3e ed 1a 3e
       0.86140764 0.32150763 0.00748984 0.15129563
000070 b0 30 ce 3d 8d ad 16 be 1d 12 e7 3e 6c 6c 32 3f
       0.1006788 -0.14714642 0.45131007 0.6969669
000080 6a ae 19 bf 5d f8 a1 bf 1d 30 11 3e 50 04 2d 3f
       -0.6003176 -1.265392 0.1417851 0.67584705
000090 cb 5c 6e bf c8 e9 62 bf 03 da 80 be e1 d5 1c 3f
       -0.9311034 -0.8863797 -0.2516633 0.61263853
0000a0 58 05 ab be 84 ab 90 be 01 ec a0 be 66 73 d9 bc
       -0.33402514 -0.28255856 -0.31430057 -0.026544284
0000b0 09 35 66 bd 93 44 e4 be 73 68 d3 3e 3a 3b 82 3e
       -0.056202922 -0.44583568 0.41290626 0.2543581
0000c0 bc 8b c0 bf c8 a3 88 3f d1 7d 3a bf bc 3c 01 3e
       -1.5042644 1.0674982 -0.7284823 0.12620825
0000d0 c3 3e a0 3f 71 3b 1c c0 e3 87 4f 3f a8 e7 0d 3e
       1.2519153 -2.441128 0.8106672 0.13857901
0000e0 9e 4f 0f be 96 87 1d be 24 3c 76 be de dd ca be
       -0.13995215 -0.15383753 -0.2404638 -0.39622396
0000f0 c2 2a b2 be 60 69 b1 3e 2c 1d 33 3f da 9f 38 bf
       -0.34798247 0.34650707 0.6996639 -0.72118914
000100 3c b4 d7 bf e9 d6 26 3d a7 b1 0f 3e b6 70 43 bf
       -1.6851878 0.040732298 0.14032613 -0.7634386
000110 27 e2 c0 bf 47 30 18 3f 5e 21 2d 3e d6 55 6f be
       -1.5069016 0.59448665 0.1690726 -0.23372588
000120 1e 9d dc bc 9a 94 0c 3e 94 22 6d 3e
       -0.026930388 0.13728562 0.23157722

conv2.0.bias f4 [5]
000000 0f e9 2b 3e 74 ca 5d c0 b9 c2 a3 3f 5b 58 0f bf
       0.16788124 -3.4654818 1.27938 -0.55994195
000010 4c 76 b9 be
       -0.36223066

conv2.2.weight f4 [5]
000000 34 02 11 3f 09 a4 81 3f c0 00 52 3f e7 93 09 3f
       0.56643987 1.0128185 0.82032394 0.53741306
000010 75 88 0a 3f
       0.54114467

conv2.2.bias f4 [5]
000000 05 37 60 3e 72 8c 61 3c f8 9d 91 bf 18 f3 9b 3e
       0.21895988 0.013766395 -1.1376333 0.30458903
000010 46 19 26 be
       -0.16220579

conv2.2.running_mean f4 [5]
000000 f0 ba 10 3f 27 65 4d 3e 31 da 0d 3f e4 3d 23 3e
       0.56535244 0.20058118 0.5541106 0.15941578
000010 e2 4e 5a 3e
       0.21319154

conv2.2.running_var f4 [5]
000000 28 4c 20 3f f4 1a 1d 3f 3a b3 1d 3f 71 45 c0 3d
       0.62616205 0.6136925 0.61601603 0.09388245
000010 2a 73 ab 3e
       0.334863

conv3.0.weight f4 [10, 5, 4, 1]
000000 a8 2b cd bf e4 0f 4e bd ef 90 77 bd 8a 30 8f bf
       -1.6028948 -0.050308123 -0.060440954 -1.1186688
000010 b5 7e 2f be 9e be 82 bf e4 eb df 3f fc a0 81 bf
       -0.17138179 -1.0214422 1.7493863 -1.0127254
000020 09 d3 05 c0 8b 8b 08 3e 55 da ad 3f 37 39 ea be
       -2.0910056 0.13334481 1.3582255 -0.45746776
000030 ea 34 3c bf 90 12 bd bf 25 0a 75 bf 2c 26 80 bf
       -0.7351824 -1.477129 -0.95718604 -1.0011649
000040 e4 ff c4 3d ee 3c 19 3f 66 a1 3e 3f d1 3d c4 bf
       0.0961912 0.59858596 0.74465024 -1.5331365
000050 c2 81 e1 be df e3 86 be 6a 67 93 be 11 86 e1 bf
       -0.4404431 -0.26345727 -0.28789836 -1.7619039
000060 8d b4 8b 3f 8b 9d 91 3f 06 b2 f8 3e 30 b0 84 3f
       1.0914475 1.1376203 0.4857332 1.0366268
000070 34 b1 a5 bf e7 12 83 3e b9 27 a6 3f d8 29 ac be
       -1.2944703 0.2560036 1.2980872 -0.33625674
000080 a6 ac 2e be 1f 84 00 bf f8 a3 10 bf 96 bf cb bd
       -0.17058048 -0.502016 -0.56500196 -0.099486515
000090 1f d5 ef 3e 2a 6b e4 3f 86 9a 00 3e eb 5c dc bf
       0.46842286 1.7845204 0.12558946 -1.7215856
0000a0 e6 d9 b7 be f2 cc 2a 3e 8e 52 7f bf 8c a5 c0 bf
       -0.3590843 0.16679743 -0.99735343 -1.5050521
0000b0 66 eb 97 bf b4 4a 8b be ae c5 21 bf 17 43 eb 3e
       -1.1868713 -0.2720543 -0.6319226 0.45949623
0000c0 8b 95 b6 be c9 d7 8b 3f c9 23 80 be 18 f2 b2 bf
       -0.35660967 1.0925227 -0.25027302 -1.3980131
0000d0 8a 08 bc bf ea 0a b6 be 2b 02 05 bf 8b 00 fe be
       -1.4690106 -0.35555202 -0.51956433 -0.4960979
0000e0 94 47 57 3f d9 97 38 3f de 45 f3 be 58 97 7b bf
       0.84093595 0.721067 -0.47514242 -0.9827781
0000f0 d7 cf 87 3f da b7 e9 bf 55 d1 3e bf 3d 14 27 be
       1.0610303 -1.8259232 -0.74538165 -0.16316314
000100 a6 3e 9a c0 f6 cb 84 3f 6b 91 d8 3f a9 d5 99 3f
       -4.8201475 1.0374744 1.6919378 1.2018329
000110 1a d1 27 3f 62 ec 48 be 0f 69 27 3f 83 8b 3a be
       0.6555344 -0.19621423 0.6539468 -0.18217282
000120 58 59 1c 3e 37 00 33 be c8 44 33 bf d9 17 97 be
       0.15268457 -0.1748055 -0.70026827 -0.29510382
000130 14 7b 30 bf b0 95 03 c0 ca e1 6c be f6 77 1d 3f
       -0.689378 -2.0560112 -0.23133007 0.6151117
000140 6a 50 b0 be 99 77 c2 bf 4d 6f 24 be 7d 77 54 3f
       -0.3443635 -1.5192748 -0.16058083 0.82994825
000150 56 d6 07 c0 71 7b d6 3f 33 f2 37 3f 67 6f 3c bf
       -2.122457 1.6756421 0.7185394 -0.73607486
000160 3f 63 af bd 3a 7f 4f bf 21 d3 79 3f 95 dc e2 3f
       -0.085638516 -0.8105351 0.9758778 1.7723566
000170 5d e5 ea be 14 35 fe be 10 15 30 bf 48 f1 fa be
       -0.45878115 -0.4964987 -0.6878214 -0.49012208
000180 30 7a 84 3f 24 eb 48 bf 4e 30 ab 3f c0 8d d8 bd
       1.0349789 -0.78483796 1.3374116 -0.10573912
000190 47 cc 38 3f 12 c9 02 c0 f9 73 c9 be de 04 36 bf
       0.721867 -2.0435224 -0.39346293 -0.71101177
0001a0 b3 91 9b bf ec 14 65 3f bf b5 15 3f 63 02 32 bf
       -1.2153839 0.8948505 0.5848045 -0.6953489
0001b0 f9 50 b7 3e 75 ff b0 bf 0d c1 f5 3f 11 3e 75 be
       0.35803965 -1.3827959 1.919954 -0.23949458
0001c0 90 67 f0 be 83 df a5 bf 33 b9 3b bf 66 e2 a5 bf
       -0.46954012 -1.2958835 -0.73329467 -1.2959716
0001d0 4b 02 87 3f a3 e2 45 3f 19 b5 26 3f 15 98 9e bd
       1.0547575 0.77298945 0.65120083 -0.07743851
0001e0 b9 76 ce be 40 94 94 3d 46 16 09 c0 80 b3 55 bf
       -0.40324953 0.07254839 -2.1419845 -0.8347702
0001f0 ce 38 55 be dc 3b 42 bf fe ad e8 be 65 f7 90 be
       -0.2082245 -0.7587259 -0.45445246 -0.28313747
000200 e6 1a 03 3d c5 f2 8a 3f 86 9d 30 bf db dd 8e 3e
       0.032008074 1.0855337 -0.6899036 0.27903637
000210 8f 37 e0 be 4f 2d 7c bf 27 88 66 bf 29 68 75 bf
       -0.43792388 -0.98506635 -0.900515 -0.9586206
000220 9e f8 aa 3f 03 6e 60 bf 17 9e 28 be 6a 9f 95 bb
       1.3357122 -0.87667865 -0.16466556 -0.004566123
000230 88 ed 68 be 03 a8 08 3f 57 06 7a bf e7 5c 0f c0
       -0.22746861 0.53381366 -0.97665924 -2.2400453
000240 ca 32 87 3f 69 2b a9 3f 48 13 bd 3f ef fc f7 bf
       1.0562375 1.3216373 1.4771509 -1.9374064
000250 34 36 71 3f fd fd 42 3f cc 4e 29 bf 15 6f c9 bf
       0.9422333 0.76168805 -0.6613586 -1.5737025
000260 7d a2 38 bf 86 08 bb bf cf 14 ba bf 8c f5 e3 be
       -0.7212294 -1.4611976 -1.45376 -0.44523275
000270 d2 f7 34 3e 59 08 53 bf 4b b9 97 bf c6 74 ef bf
       0.17672661 -0.8243461 -1.1853422 -1.8707511
000280 0f 23 4c bd 25 31 81 bf f8 79 d7 be 40 97 00 c0
       -0.049838122 -1.0093123 -0.42085242 -2.0092316
000290 4b 5c 9e 3f 53 08 90 be 67 69 32 c0 09 89 8e bf
       1.2371916 -0.2813135 -2.7876832 -1.113557
0002a0 c4 5c 48 3f 21 40 6d bd 18 cd 09 40 c6 a2 a5 bf
       0.7826655 -0.057922486 2.153143 -1.29403
0002b0 f5 17 a8 bf 9b d5 ca bf 14 c8 cf bf 4c c3 a8 bf
       -1.3132311 -1.5846437 -1.6232934 -1.31846
0002c0 db 0d 6f 3f ab c3 4a 3f 2e c0 89 3e e0 af 7e 3f
       0.93380517 0.79204816 0.26904434 0.99487114
0002d0 db 32 0b bf e4 9d a3 be 4a 88 0d c0 8e 6c 7a be
       -0.54374474 -0.31956398 -2.2114434 -0.24455473
0002e0 64 da 54 bf e2 b3 86 bf d8 b5 82 bd a8 9a 8d 3c
       -0.8314574 -1.0523646 -0.0638234 0.01728566
0002f0 25 5f 16 3f f9 8f 43 bc f1 13 af bf 0c 0d cc 3f
       0.5873893 -0.011936181 -1.3677961 1.5941482
000300 3c 7f b8 bf 87 85 97 bf 4c 5a 7b bf 59 e9 6d bf
       -1.4413829 -1.1837624 -0.9818466 -0.92934185
000310 02 41 33 bf 53 c8 9e 3f 8f 1d fb be 8c c5 80 3f
       -0.7002107 1.2404884 -0.4904599 1.0060287

conv3.0.bias f4 [10]
000000 60 f9 30 be 83 8f cb bf 80 1b 06 3f f9 76 8b c0
       -0.17282629 -1.5903171 0.5238571 -4.358273
000010 c6 0f f2 bf ac bb 06 bf 3f 5e 4c bf 20 9c a6 bf
       -1.8911064 -0.52630115 -0.7983131 -1.3016396
000020 3d 93 06 bf 1f c3 c4 bd
       -0.5256842 -0.09607529

conv3.2.weight f4 [10]
000000 80 fa 19 3f 45 55 a6 3e 51 07 7f 3e 93 76 60 3f
       0.6014786 0.3248693 0.24905135 0.8768093
000010 c5 e5 d0 3e 56 1d a4 3e b2 28 73 3e cd 45 fb 3e
       0.408003 0.32053632 0.23745993 0.4907669
000020 20 a2 e6 3e d7 9f b7 3e
       0.45045567 0.35864136

conv3.2.bias f4 [10]
000000 f5 6d c5 be b8 fb 77 be f5 b1 ee be 20 e3 46 3f
       -0.38560453 -0.24217117 -0.46620145 0.77690315
000010 41 fb e2 be 96 0f 04 be d3 91 88 be e2 a5 81 3e
       -0.44332317 -0.1289657 -0.26673755 0.2532187
000020 ad 7b 1c 3d 16 04 23 bf
       0.038203884 -0.6367811

conv3.2.running_mean f4 [10]
000000 bc ea 9a 3e 39 96 7b 3e 4d 70 5c 3e fc 45 64 3e
       0.30257213 0.24569024 0.21527214 0.22292322
000010 61 d2 e4 3e eb be 6c 3e 4e c7 25 3d aa 93 1a 3e
       0.44691756 0.23119704 0.040473275 0.15095392
000020 8f f2 78 3e a9 15 62 3e
       0.24311279 0.22078575

conv3.2.running_var f4 [10]
000000 be 9f 30 3f e1 49 2f 3f 1d b1 f8 3d 0c fe 3b 3f
       0.6899375 0.68472105 0.12143157 0.7343452
000010 b5 ab f2 3f 55 31 25 3f 05 7b 50 3d 0a 5d d9 3e
       1.8958651 0.645284 0.05089857 0.42453796
000020 c8 05 03 3f 25 8b 9f 3e
       0.51180696 0.31160846

conv4.0.weight f4 [20, 10, 4, 1]
000000 d8 da 87 3e 7f 8f da 3e e2 24 1a 3f da 74 27 bf
       0.26534152 0.42687604 0.6021253 -0.65412676
000010 45 d3 9d bf eb 33 32 bf 64 ae 96 3f e5 c9 16 bf
       -1.2330099 -0.6961047 1.177197 -0.58901817
000020 5e 17 3f bf 4e 83 3f 3f 20 44 e9 3e 11 38 95 bd
       -0.7464503 0.7480973 0.45559788 -0.072860844
000030 00 7b f5 bf 2c e7 2a c0 78 ba f7 bf ef 19 0e 3d
       -1.9178162 -2.6703596 -1.9353781 0.0346927
000040 df 9c 2d 3f 07 24 de bf d4 a6 16 c0 03 37 5e 3f
       0.6781749 -1.7354745 -2.3539324 0.8680269
000050 b0 20 01 bf 81 83 83 bf a1 93 76 3b 7c 05 4e 3f
       -0.504405 -1.0274507 0.0037624615 0.8047712
000060 86 d5 7d 3f ba 38 8e 3f 7c 4e 0a bf 0c 4b b3 bf
       0.99153936 1.1111062 -0.5402601 -1.4007277
000070 dc 84 85 bf 82 6b ed 3e 8d 19 99 bf b6 88 ec bf
       -1.043117 0.46371084 -1.1960922 -1.8479221
000080 72 4a c6 3e 9d 5d 74 bf 16 ca 42 3e 99 74 24 3f
       0.38728672 -0.9545534 0.19022402 0.64240414
000090 08 83 d9 bd d0 ae 70 bc cd 3a 0a be 68 f7 40 bf
       -0.10620695 -0.014690116 -0.13498993 -0.7537751
0000a0 56 bd 80 3e 6a 2a b0 be bf 3a 8d bf 7f 03 4b bf
       0.25144452 -0.3440736 -1.1033553 -0.7930221
0000b0 9a da b7 3f 73 b3 97 3f 1c 89 f9 3e 9f 54 76 3f
       1.4363587 1.1851639 0.4873742 0.9622287
0000c0 c1 df 06 40 3f 86 54 3e dc b1 5c 3e fe 9e 23 be
       2.1074069 0.20754336 0.21552223 -0.1597862
0000d0 d7 6d a7 3f b3 ea ec 3e 54 80 f5 3e 84 6c 0a 3f
       1.3080395 0.4627281 0.4794947 0.5407183
0000e0 a6 63 a4 3f c0 d2 70 3f 43 51 06 3f 91 b3 1f bf
       1.284291 0.9407158 0.52467746 -0.6238337
0000f0 7b 94 5a 3f b5 df 44 bf 70 33 f3 bc f6 23 a7 3e
       0.85382813 -0.7690385 -0.029687613 0.32644624
000100 11 5b 8b 3f a1 a1 bd 3d d1 96 4c bf 2a 51 f2 bf
       1.0887166 0.09259344 -0.7991763 -1.8931019
000110 5a 3f d2 bf 53 b0 32 c0 d1 73 b9 be 44 a8 ec 3e
       -1.6425583 -2.792012 -0.36221173 0.46222126
000120 ca f3 ae bf 92 66 d3 bf 84 0b 9e bf c5 07 b3 3d
       -1.3668149 -1.6515677 -1.2347264 0.08741716
000130 71 17 be be 91 d7 ca be 50 ff 72 3f e3 4f 8e bf
       -0.3712726 -0.3961759 0.94920826 -1.111813
000140 7a 9e 5f 3f 07 c1 c5 3b 7e ef ef be 1c 6a 63 bf
       0.8735119 0.0060349735 -0.46862406 -0.88833785
000150 a5 c9 de bf fc 4a b6 bf 69 b1 c6 bf f0 19 6b bf
       -1.7405287 -1.4241633 -1.5522891 -0.9183645
000160 99 91 53 3c c8 8e fa 3e 67 57 30 bf c6 a0 a2 bf
       0.012913131 0.48937058 -0.68883365 -1.2705314
000170 19 15 63 bf 87 21 24 be 51 71 11 3e a7 e6 2d be
       -0.8870407 -0.16028415 0.14203383 -0.16982518
000180 4f 08 8a bf bb a2 08 bf d3 ca 77 bf 30 80 9d 3f
       -1.0783786 -0.53373307 -0.9679386 1.2304745
000190 57 26 83 3d 44 e6 61 be 7c 7d b0 bf 71 19 20 c0
       0.06403797 -0.22060496 -1.3788295 -2.5015528
0001a0 b5 60 78 bf 9d ec 14 3c f3 1b 2f bf a0 a8 33 bf
       -0.97022563 0.009089616 -0.6840202 -0.70179176
0001b0 da 45 95 bf 7e 2a 7d 3f af 41 b5 be 1b 94 cb be
       -1.1661942 0.9889296 -0.35401675 -0.39761433
0001c0 7a 2c 0b c0 f0 f2 0b 3f 7d 7a 76 bd e5 35 bb bf
       -2.1745896 0.5466757 -0.060175408 -1.4625822
0001d0 06 be ba bf 88 1a 86 3e e3 64 1c bf 17 04 85 3f
       -1.458924 0.26192117 -0.6109144 1.0391873
0001e0 6b 5f 8a 3f 88 bb d3 bf fe 55 0b 3e 46 f1 42 3f
       1.0810369 -1.6541605 0.13607022 0.76149404
0001f0 c3 78 5b bf 8a d4 b2 bf 7b 79 8d bf 06 98 5c 3f
       -0.8573114 -1.3971112 -1.1052698 0.8616947
000200 1c c5 5e bf ea 94 31 3e 8f f1 66 bf 6f 5a 73 3f
       -0.87019515 0.17341962 -0.9021234 0.95059866
000210 e5 9c 47 bf ac fd 0c c0 b9 34 af bf a0 61 98 be
       -0.7797378 -2.202983 -1.3687965 -0.29761982
000220 20 2d 5e bf c2 05 fc bf e8 9e 74 3f a8 6c 5a be
       -0.86787605 -1.9689257 0.9555497 -0.21330512
000230 f2 55 8f bf fc 3f e6 bf 40 04 14 3e 87 55 7b 3d
       -1.1198103 -1.7988276 0.14454746 0.061360862
000240 53 44 15 bf 06 9d 32 bf 2d b9 2e c0 25 f6 41 3f
       -0.5830738 -0.6977085 -2.7300522 0.7576621
000250 6f 4d 02 c0 96 a2 65 bf 42 57 74 bf b6 3c ce 3e
       -2.0359762 -0.8970121 -0.95445645 0.40280694
000260 9f b4 e1 3d e2 be b9 3e 22 f6 ba 3c be 01 83 be
       0.11020779 0.36278445 0.022822443 -0.25587267
000270 7a ea 04 bf 71 27 57 bf a8 f3 b0 3f dc 13 16 bf
       -0.5192028 -0.8404456 1.3824358 -0.58624053
000280 67 5b c6 bf f2 68 d1 be 1c 3c ea bd 3a 90 07 3f
       -1.5496644 -0.4090038 -0.11437246 0.5295445
000290 08 5a ef bf 07 53 4b be 2a 21 81 3e ae 23 c4 bf
       -1.869935 -0.19855891 0.25220615 -1.5323389
0002a0 a0 6e 9e 3f 14 80 a9 3e 47 6c 83 3f 2a f1 f1 3e
       1.237751 0.33105528 1.0267419 0.47254306
0002b0 12 3b 00 c0 ea ca eb be 49 65 b1 bf 08 81 92 bf
       -2.0036054 -0.4605325 -1.3859035 -1.1445627
0002c0 af a7 fb bf ab ef f0 3e 5a f9 1b 3f d0 d1 82 3f
       -1.9660548 0.47057852 0.60927355 1.022028
0002d0 cb 04 5b c0 5a 4e 31 c0 a9 0d 10 bf 12 7c be be
       -3.4221675 -2.7704072 -0.56270844 -0.37204033
0002e0 7d 9f b3 be 39 0f 5d be db 3c 7c 3f 88 c2 62 3f
       -0.35082617 -0.21587838 0.9853036 0.8857808
0002f0 75 05 a2 bf e1 50 88 bf 08 04 c8 3e 9f 42 b0 3e
       -1.2657915 -1.0649682 0.39065576 0.34425828
000300 42 80 f1 bc 46 89 1d c0 63 18 0e c0 f2 c4 c9 bf
       -0.029480103 -2.4615035 -2.2202384 -1.5763228
000310 a8 21 6a 3f 24 1f 87 3f 27 28 03 3d 7c 07 96 bf
       0.91457605 1.0556378 0.032020714 -1.1721034
000320 fd 67 33 3f 28 1c e7 3e 81 ef ae 3e cf 82 58 3d
       0.7008055 0.4513867 0.34167102 0.052859124
000330 43 ec f3 bc 41 a7 10 bf 55 79 ed bc 4d 5f 7d be
       -0.029775744 -0.5650521 -0.02898852 -0.24743386
000340 75 3f 78 be c0 f4 58 3f e8 c2 01 bd 98 9f 83 be
       -0.24242957 0.8474846 -0.031680018 -0.25707698
000350 02 77 c4 bf 56 8f 0e c0 ec 6e b6 bf b9 6c ca bf
       -1.5348818 -2.2274985 -1.4252601 -1.581443
000360 4c c6 d9 3e af 96 e6 bd 70 32 26 bf d4 99 94 bf
       0.425341 -0.11259209 -0.6492071 -1.1609445
000370 52 89 02 bf fd 11 46 3e 42 72 54 be ae 89 77 bf
       -0.50990784 0.193428 -0.20746711 -0.9669446
000380 2c d6 4a be 77 df 99 3e b3 63 1d 3e 02 91 9f bf
       -0.19808263 0.30053303 0.15370063 -1.2466128
000390 3e 98 c1 be 89 ba c5 be 4c 30 d0 bf bc bf 2d bf
       -0.37811464 -0.38618878 -1.6264739 -0.6787069
0003a0 92 30 85 bf ee 40 83 bf 91 d5 50 be 45 1a 61 bd
       -1.0405447 -1.025419 -0.20393969 -0.054956693
0003b0 55 73 fc 3e e5 93 ac be 38 12 57 bf 90 d2 07 3f
       0.4930674 -0.33706585 -0.84012175 0.5305567
0003c0 bd a4 10 3f 37 5f 5d bf 55 bc fe bf c1 b5 ef 3e
       0.5650137 -0.8647341 -1.9901224 0.46818355
0003d0 4f a0 1d 3e 52 18 d1 3c 93 d8 f3 be 31 dd d2 3e
       0.15393184 0.025524292 -0.4762617 0.4118438
0003e0 35 d7 a4 3e 2e 6c d9 bf 77 ab 65 3f 05 f4 d0 bf
       0.3219544 -1.6986139 0.8971476 -1.6324469
0003f0 5e 61 a7 bf a4 0a 6f c0 f6 ab 89 3f 91 1d 11 bf
       -1.3076589 -3.7350245 1.0755603 -0.5668574

conv4.0.bias f4 [20]
000000 06 a0 ae bf 62 76 d1 bf 76 38 88 3f 5b 98 a7 bf
       -1.3642585 -1.6364253 1.064223 -1.309337
000010 54 92 7a bf 9b b9 9f bf d8 8a 3f c0 0e 4d 23 c0
       -0.9787953 -1.2478517 -2.9928493 -2.551578
000020 2a 1d 70 c0 34 50 1e c0 34 64 24 c0 3a 00 54 bf
       -3.75178 -2.4736452 -2.568616 -0.82812846
000030 20 6c 2a 3f 19 ad 53 bf c5 dd 2f bd 44 af 4a 3f
       0.66571236 -0.82686 -0.042936105 0.79173684
000040 39 2e 84 bf 07 4c 2b c0 92 00 8e bf 90 ef b2 bf
       -1.0326606 -2.6765153 -1.1093924 -1.3979359

conv4.2.weight f4 [20]
000000 a6 5e 65 3e 09 96 b9 3e ef 44 d7 3e 76 c3 d8 3e
       0.22399387 0.3624728 0.4204478 0.42336625
000010 d1 95 d8 3e 82 ba 80 3e 5e e2 d1 3e de e2 9e 3e
       0.423018 0.25142294 0.40993017 0.3103246
000020 33 6f 7a 3e 93 52 a2 3e 86 d5 fb 3e be 51 ea 3e
       0.24456482 0.31703624 0.49186343 0.4576549
000030 ee b0 cc 3e 4b 20 fb 3e f6 59 da 3d 2b b5 28 3f
       0.39978737 0.49048075 0.1066169 0.6590144
000040 da b1 86 3e d4 7f 0b 3f 60 32 23 3e 83 eb b0 3e
       0.26307565 0.54491925 0.15937185 0.3455468

conv4.2.bias f4 [20]
000000 b4 64 98 3c 75 18 4e 3c 5e 0c 12 bf 79 a7 50 be
       0.018602706 0.012579073 -0.5705012 -0.20376386
000010 28 29 43 be 10 27 8f 3d 21 ae ca bd 20 76 97 3d
       -0.19058669 0.069898725 -0.09896494 0.073955774
000020 89 82 ab bd de 39 97 3d 92 35 b4 3e 35 4c ef bc
       -0.08374507 0.07384084 0.3519712 -0.029211143
000030 52 44 55 bf 10 88 db 3e db f3 44 be b6 5f 40 bf
       -0.83307374 0.42877245 -0.19233648 -0.75146043
000040 5f 61 c1 3d 13 3b 65 3e 49 10 1a bd 96 b8 1d bd
       0.094424 0.22385816 -0.037613187 -0.038506113

conv4.2.running_mean f4 [20]
000000 7e 61 34 3f d5 59 26 3f 47 18 9d 3f 90 16 b8 3e
       0.7046126 0.6498082 1.2273034 0.35954714
000010 95 78 d2 3d f8 ad 8f 3e 56 57 a6 3e 4f 8a 16 3f
       0.102769054 0.28062415 0.32488507 0.5880479
000020 62 84 16 3e a5 ac 4e 3f 03 e7 13 3f 55 3e c9 3e
       0.14698938 0.80732185 0.5777437 0.39305368
000030 9c 81 93 3f 6f e8 50 3f 1d a9 44 3f 97 44 8a 3f
       1.1523929 0.81604666 0.76820546 1.0802182
000040 8b d1 07 3f c9 77 f7 3e b7 6a 13 3f 8e 6f df 3e
       0.5305411 0.48333576 0.5758471 0.43639797

conv4.2.running_var f4 [20]
000000 e1 df 49 40 2e 21 1e 40 7c c2 6e 3f be a0 07 3f
       3.1542895 2.4707751 0.9326551 0.5297965
000010 cd 9b 70 3e 32 df bd 3e 73 ee 83 3f e3 96 e4 3f
       0.23496933 0.37084347 1.0307144 1.7858547
000020 ae db 8e 3e 2c 72 65 40 78 11 0e 40 d8 c9 a9 3f
       0.27901977 3.5850935 2.2198162 1.3264723
000030 47 e6 56 3f 81 20 67 40 35 31 dc 3e 97 6a 52 3f
       0.83945125 3.611359 0.43006292 0.82193893
000040 98 09 ce 3f a2 e7 00 40 a7 fe a2 3e b6 dd 9b 3f
       1.6096678 2.0141377 0.3183491 1.2177036

conv5.0.weight f4 [20, 20, 4, 1]
000000 54 69 15 3f 05 62 66 3f e7 6f 9b bf 53 3a 38 bf
       0.5836384 0.89993316 -1.2143525 -0.71963996
000010 ee 3c 35 be 10 b0 8e be 4a 70 41 bd a4 15 c5 be
       -0.17699024 -0.278687 -0.047226228 -0.38493073
000020 63 09 d2 3e ad b4 e3 bf 26 c1 56 c0 67 84 ba bc
       0.41022786 -1.7789513 -3.3555388 -0.022768212
000030 4b bd 7b be 98 32 19 be 1c 07 9c bf 5d 04 45 bf
       -0.24583928 -0.14960706 -1.218967 -0.7695978
000040 8a c7 67 bf a2 6a 09 bf 87 88 5d be 20 cd 9c 3f
       -0.9053885 -0.53678334 -0.21634112 1.2250099
000050 7b 13 83 bf 63 f0 f8 be 1f b0 9d bf 6d e9 aa bf
       -1.024032 -0.486209 -1.2319373 -1.3352486
000060 88 88 e2 be fa ac 80 bf 3e ba e9 3f fd 35 82 bf
       -0.4424479 -1.0052788 1.8259962 -1.0172726
000070 1b b9 8b 3e ee 43 8c 3d 56 97 c5 be 7b 7a 15 bf
       0.27289662 0.06848894 -0.38592023 -0.58390015
000080 94 ff f3 bf 61 36 60 bc c9 d0 96 bf ec f2 85 3f
       -1.9062371 -0.01368484 -1.1782466 1.0464759
000090 46 47 44 bf bb db e3 be 9e fb af bf 49 d6 31 c0
       -0.76671255 -0.4450358 -1.3748662 -2.778704
0000a0 b4 86 c7 3d 70 29 a3 3e 1c 0e f9 bf 65 b2 3e 3d
       0.097424895 0.31867552 -1.9457431 0.04655685
0000b0 59 fe 8a bf 5e 06 4e 3f 77 13 3b 3d b1 b4 6d bf
       -1.0858871 0.80478466 0.04567286 -0.9285384
0000c0 f8 eb 6c bf 55 ad 9f bf d5 dd a2 bf 44 cc bc 3f
       -0.9254756 -1.2474772 -1.2723948 1.4749837
0000d0 5e dc c9 3d 88 eb 69 3e 22 e0 bf be f7 64 24 bf
       0.09856485 0.22843754 -0.37475687 -0.6421656
0000e0 9f 82 65 3d c8 a1 83 3e f0 60 93 bf 78 51 52 bf
       0.056032773 0.25709367 -1.1513958 -0.8215556
0000f0 f2 bf 32 c0 f5 cc 1f c0 99 94 3e be 00 f7 3b 3f
       -2.7929654 -2.4968846 -0.18611373 0.7342377
000100 e5 12 3d bf 9f 86 6f 3e 0e b4 c1 bf 15 b5 b4 3f
       -0.73856956 0.23391198 -1.5133073 1.4117762
000110 69 31 76 3f 3d b5 cf be df 96 72 bf 76 6a 0e bf
       0.96169144 -0.4056796 -0.9476146 -0.55631196
000120 4e 3d 61 3e d7 0b ee bd f5 1a b5 bf 94 07 00 3f
       0.21996042 -0.11623352 -1.4148852 0.50011563
000130 57 8d 43 be c6 f4 2f 3f 6d 0b bb 3e f5 46 4b be
       -0.19096886 0.6873287 0.36532155 -0.19851287
000140 99 ce bd be 93 73 db 3e ff 4f 46 bd 65 80 10 bf
       -0.37071684 0.42861614 -0.048416134 -0.56445915
000150 57 d4 fe be d1 b7 6c 3a 53 c6 0c bf 47 d4 ac be
       -0.49771377 0.00090300763 -0.5499012 -0.33755705
000160 33 fa 24 bd c4 5f 96 bf 19 c8 e2 3e 0e 75 9e bf
       -0.04027767 -1.1747975 0.44293287 -1.2379472
000170 a8 87 df 3f c2 1d 04 3e dd 10 c1 3f b4 13 9f 3f
       1.7463274 0.12901977 1.5083271 1.2427888
000180 a8 5d ad 3f c8 ab 49 3f 5d 63 d4 bf 45 f6 00 3f
       1.3544207 0.7877774 -1.6592823 0.5037578
000190 f4 84 16 3e 90 02 1f 3e c7 81 4b be 56 60 32 bf
       0.14699155 0.15528321 -0.19873725 -0.69678247
0001a0 59 db 69 3e 52 9c df bf ed 54 d9 bd 55 56 07 3f
       0.2283758 -1.746958 -0.106119014 0.5286611
0001b0 f4 4e 78 bf f0 01 25 3f 2b a7 89 bf a2 19 42 bf
       -0.9699547 0.6445608 -1.0754141 -0.7582036
0001c0 93 0f bd bf b8 e5 a0 be 30 ce d7 3d 4c ac 37 bf
       -1.4770378 -0.31425261 0.10537374 -0.7174728
0001d0 b0 fb c5 bf 99 dc 32 bf 99 53 f7 bc 99 6e 48 bf
       -1.5467434 -0.69867855 -0.03019123 -0.7829376
0001e0 fb 2e 58 bf 00 1c 3d be 89 2e d1 bf 66 d7 25 bc
       -0.84446687 -0.18467712 -1.6342326 -0.010122156
0001f0 e8 31 33 bd 97 34 91 bd c7 ff d3 bf 8a f0 a2 bc
       -0.043748766 -0.07090109 -1.6562432 -0.019890089
000200 7c 2e 01 c0 60 f2 b2 be 6d ea 4c 3f 3e a7 c1 3d
       -2.0184622 -0.34950542 0.80045205 0.09455727
000210 29 fa 50 be c3 b8 b1 be 1b 76 c5 be 05 45 cf be
       -0.20407929 -0.34711275 -0.3856667 -0.40482345
000220 7c aa 4a 3e c8 c9 4b bf e5 f5 82 3f a5 70 a5 3d
       0.19791597 -0.7960477 1.0231291 0.08078126
000230 e9 e9 dc bf 6e 8d 65 bf 14 18 8d 3f d2 31 b8 be
       -1.7258884 -0.8966893 1.1022973 -0.3597551
000240 01 a8 46 3f 76 7c 8a be 15 69 70 bf 85 a6 a1 3f
       0.77600104 -0.2704808 -0.9391034 1.2628943
000250 50 1d 3d c0 1a 00 f2 be 56 a0 9f bf 31 0a 1e bf
       -2.954914 -0.47265702 -1.2470806 -0.617343
000260 b1 1f 6c 3f dd de 5b be 2d 60 09 3f 8b df 5a 3f
       0.9223586 -0.21471734 0.5366238 0.8549735
000270 4c f2 db be 98 97 c1 be a0 ad 68 3d 9b c3 26 bf
       -0.42958295 -0.3781097 0.056806207 -0.6514222
000280 9b 0e 91 3e 73 6d 39 be c0 33 a2 be 30 b1 4c 3e
       0.28331456 -0.18108158 -0.31680107 0.19989467
000290 09 1e 9b 3e 9e 74 fd bd 21 66 4d bf a4 4f 68 bc
       0.30296353 -0.123757586 -0.8023396 -0.014179144
0002a0 b9 92 69 bf fc 1f 3a 3e b4 5e a3 3e 5e 08 db bf
       -0.91239506 0.18176264 0.3190819 -1.7111928
0002b0 3d b7 53 bf 54 52 15 bf 1e 8c ae 3e 7c 6b 14 be
       -0.82701474 -0.5832875 0.34091276 -0.14494127
0002c0 60 c9 b0 bf 04 c2 cd bf fb 24 11 c0 32 fc 5d bf
       -1.3811455 -1.6074834 -2.267882 -0.86712945
0002d0 16 1a 0f 3f 7a 7d 89 bf a9 17 4e bf 34 9c d7 bf
       0.5589918 -1.0741417 -0.8050485 -1.6844544
0002e0 cd 50 b8 3f 27 37 aa 3f af a9 73 bf 51 24 2d 3f
       1.4399658 1.3298081 -0.9518079 0.6763354
0002f0 47 4e bb 3e 82 17 b6 b9 f7 8d 7d bf a0 c8 ce 3e
       0.36583158 -0.0003473126 -0.99044746 0.4038744
000300 ea ec e7 3e 64 5b 82 3f d5 4e 70 3f 64 d5 74 3f
       0.4529794 1.018414 0.9387029 0.9563811
000310 a6 ef 8a bf ad 78 29 be b2 0d 66 3f d3 9a 0a 3f
       -1.0854385 -0.1654994 0.8986465 0.54142493
000320 eb 20 57 bf 6e 91 7c bf 66 f2 17 be ec 45 00 bf
       -0.84034604 -0.9865941 -0.14838561 -0.5010669
000330 97 69 15 bd 1a ce 26 bc 03 a4 b6 be ec 72 69 bf
       -0.03647765 -0.010180974 -0.35672006 -0.9119098
000340 75 7f 85 bf ae 7d 07 40 7c ef a8 3c 8a f4 1f c0
       -1.0429522 2.1170459 0.020622008 -2.4993005
000350 40 b2 03 bf 2a 29 08 3f 11 e1 13 3d 22 ac 64 bf
       -0.5144386 0.5318781 0.036103312 -0.89325154
000360 05 42 39 bf 20 d7 0e 3f 67 30 73 3e ca f1 69 bf
       -0.7236636 0.55797005 0.23748933 -0.91384566
000370 6d 51 a8 bf 78 ce 70 3f b7 1c 0a bf d7 47 d2 bf
       -1.3149849 0.94065046 -0.53950065 -1.6428174
000380 2d ef 79 3d aa 1d 6e be e9 4c fa bf d3 82 8b 3e
       0.06101911 -0.23253503 -1.9554721 0.27248248
000390 95 5e d7 bf ac 16 35 bf 2e d7 1a 3f 4a 42 26 bd
       -1.6825739 -0.7073772 0.6048459 -0.040590562
0003a0 23 b1 d6 be 32 e6 d1 3e 9a 1d 99 be d1 16 db 3e
       -0.4193202 0.40995938 -0.29905397 0.42790845
0003b0 9b 84 57 bf 4c 4c 6b bf 20 76 57 3f ef 75 91 3f
       -0.84186715 -0.91913295 0.8416462 1.1364115
0003c0 cd b9 1d bf ca 84 2d 3f ac 8d ba bf 81 e8 2f bf
       -0.61611634 0.67780745 -1.4574485 -0.6871415
0003d0 96 b8 68 be e9 0f bd bf 68 86 dd bf 2f bd 30 c0
       -0.22726664 -1.477048 -1.7306643 -2.7615469
0003e0 7d e6 c0 be b7 36 14 bf ca 28 91 bf 66 00 47 bc
       -0.3767585 -0.5789599 -1.1340573 -0.012146091
0003f0 ee c7 2e bf af 3a 56 bf 64 6f a6 bf e8 64 62 3f
       -0.6827382 -0.83683294 -1.3002744 0.8843522

conv5.0.bias f4 [20]
000000 c5 12 32 3f 83 5f 84 be 0e b7 75 bf 8a 48 26 3d
       0.6955989 -0.2585412 -0.95982444 0.040596522
000010 3c 94 9e bf 9a c2 99 be d3 bb e1 be b7 23 2e bf
       -1.2388988 -0.30031282 -0.4408861 -0.68023247
000020 32 74 5c bf b6 12 ed bd b3 e1 00 bf 07 34 81 bf
       -0.861148 -0.115758345 -0.5034439 -1.0094002
000030 9c 10 c2 3e 0d 7e b5 bf f1 a5 29 be 49 71 54 bf
       0.37903297 -1.4179093 -0.16567208 -0.8298536
000040 49 e1 d4 be d0 b8 17 3e 73 bf 3e bf 2f df 26 bf
       -0.4157813 0.14816594 -0.7451088 -0.651843

conv5.2.weight f4 [20]
000000 8a 23 a6 3e aa 80 86 3e 4e 72 78 3e 01 15 62 3e
       0.3244899 0.26270038 0.24262354 0.22078325
000010 7b 85 06 3e 14 bd 0c 3e 9a 9c 0b bd b7 21 c3 3e
       0.13136856 0.13744003 -0.034084894 0.3811166
000020 43 05 22 3e b7 8f d1 3e 49 5b 8a 3e a1 64 5c 3e
       0.1582232 0.40929958 0.2702277 0.21522762
000030 3f 25 87 3e 51 1e 39 3d 44 01 92 3e d5 ea 84 3e
       0.26395604 0.045194928 0.2851659 0.25960413
000040 f8 28 67 3e e0 5d 98 3e 50 cc 86 3e 66 08 87 3e
       0.22574222 0.2975912 0.26327753 0.26373595

conv5.2.bias f4 [20]
000000 3b 33 7b be 6b 32 9a be 1e 40 a4 be 7e ae 41 3e
       -0.24531262 -0.3011659 -0.32080168 0.1891422
000010 83 26 65 be 2d 7d 83 bd c9 2c 61 3d 0c 45 15 3e
       -0.22377972 -0.0642036 0.05497435 0.1457712
000020 cc b0 de bc 7b 73 75 3e e4 2f 86 bc 6e 45 07 be
       -0.027183913 0.23969834 -0.016380258 -0.13210079
000030 fd 84 1e be 46 ba 37 bd 4e 96 b2 bd 07 c4 a2 3b
       -0.15480419 -0.04485538 -0.087200746 0.004967216
000040 7d 50 e9 bd 94 64 a9 be a2 ba e6 bc d7 31 e0 be
       -0.11392305 -0.33084548 -0.028165165 -0.43788025

conv5.2.running_mean f4 [20]
000000 4e 56 96 3f f9 25 cf 3e b2 e3 b7 3f 80 bc 87 3f
       1.1745088 0.40458658 1.4366362 1.0604401
000010 d7 c3 9e 3f d5 15 d9 3f 4c a1 8c 3e 34 bd 5b 3e
       1.2403516 1.6959788 0.2746681 0.21458894
000020 29 cd ca 3d 9f 40 f4 3e 10 89 f5 3e bd 45 a5 3e
       0.099024124 0.47705552 0.47956133 0.3227977
000030 9b 66 cc 3f 2e 4a 5c 3e 7d ac 0a 40 21 f3 86 3f
       1.5968813 0.21512672 2.1667778 1.0542947
000040 f3 4c b8 3f 71 33 73 3f 4b f9 fb 3d aa 85 b6 3f
       1.4398483 0.9500037 0.12303408 1.4259541

conv5.2.running_var f4 [20]
000000 92 8e 87 40 f6 bc 39 3f 86 33 87 40 0a cf 3a 40
       4.2361536 0.72553957 4.2250395 2.9188867
000010 bb d0 6c 40 9c 65 87 40 f5 72 da 3e eb 94 db 3e
       3.70024 4.2311535 0.4266583 0.42887053
000020 14 06 10 3e b3 63 4b 3f a7 86 81 3f 9d 29 13 3f
       0.14064819 0.79449004 1.0119218 0.5748537
000030 c1 a9 9a 40 d3 7e 65 3e 2c 30 a9 40 fa 02 3a 40
       4.833222 0.22411661 5.2871304 2.9064317
000040 1f d1 89 40 56 76 37 40 67 ac 3f 3e 17 d7 6f 40
       4.3067775 2.8665977 0.1871811 3.747503

fc1.1.weight f4 [10, 740]
000000 3c d6 13 bf 73 ae df be d7 46 55 3e bf 1f 9c bf
       -0.5774877 -0.43687782 0.20827805 -1.2197188
000010 bf 10 64 3e b3 47 ae be a3 39 23 be 4d 99 94 3f
       0.22272013 -0.34039077 -0.15939955 1.1609284
000020 89 98 12 bf bb 81 34 3f ed ed 8b bd a2 3b 36 3e
       -0.57264 0.70510453 -0.0683249 0.17796186
000030 45 95 27 3f 02 ec 89 bf d3 21 b0 3f 44 21 18 3e
       0.6546214 -1.0775149 1.3760322 0.1485644
000040 c3 10 a3 bf 6a f5 f6 3d 5a 8a 9d 3f 39 a6 05 3c
       -1.273949 0.12058528 1.2307847 0.008157306
000050 48 c6 1e bf 68 5c d5 bd 09 78 de 3f 6e 2e 83 bf
       -0.62021303 -0.10418016 1.7380382 -1.0248544
000060 d0 b3 d6 bc 29 e3 4c bf 49 c3 0e be f5 7a 2e c0
       -0.026208788 -0.8003412 -0.13941683 -2.7262547
000070 24 18 63 3f 90 a1 9c bf 62 77 66 3f b8 33 79 bc
       0.8870871 -1.2236805 0.90025914 -0.015210085
000080 89 3a e2 3e 30 2f 86 3d c4 82 22 bf 8e 80 8c 3f
       0.44185284 0.06551969 -0.6348078 1.0976732
000090 50 b4 4a bf 72 db 64 3e 5e 0b c5 3e fa 26 93 bf
       -0.79181385 0.22349337 0.38485235 -1.149627
0000a0 48 ac c4 3f 8b 09 80 be c3 5b 9e be 4a 11 8a 3f
       1.5365076 -0.2500728 -0.30929384 1.0786526
0000b0 21 97 06 3f b8 9a fc be 75 47 92 3e 82 c3 ef 3f
       0.52574354 -0.4933679 0.28570142 1.8731539
0000c0 63 71 68 3f 37 97 01 40 45 89 d5 3e e7 d2 6c 3f
       0.90798014 2.0248544 0.4170629 0.9250931
0000d0 65 3c ad 3f 35 81 d4 3e 65 d6 eb 3d e3 c5 a7 bf
       1.3534056 0.41504827 0.11515502 -1.3107265
0000e0 1f 17 56 3e 70 ad 77 3f 22 56 24 3f 01 ee f2 be
       0.20907257 0.9674902 0.6419393 -0.47447208
0000f0 49 23 26 40 34 03 37 40 7b b5 e3 bf 37 65 8e 3e
       2.5959036 2.8595705 -1.7789758 0.27811596
000100 9f 24 9d bf ea 44 ef 3f 36 7c ab 3f 2e 79 3f be
       -1.2276801 1.8692906 1.3397281 -0.1869857
000110 68 83 33 3e 08 b2 28 40 a4 b4 89 be 1d 69 67 3f
       0.17530596 2.6358662 -0.2689563 0.90394765
000120 98 74 33 40 c8 d1 c7 3f 67 86 bd 3f d2 d4 be 3f
       2.8039913 1.5610895 1.4806641 1.4908698
000130 43 24 d5 3f a8 ce 0f 40 d8 4b bc 3f 05 12 7c bf
       1.6651691 2.2469883 1.4710646 -0.98464996
000140 aa 50 96 3f 41 3f 82 3f 0e f1 db 3f f0 41 29 40
       1.1743367 1.0175554 1.7182939 2.6446495
000150 bb 5c a1 3f 06 5c a3 3f ea 8e 13 3f ee 2b 4a be
       1.2606424 1.2762458 0.57639945 -0.1974332
000160 71 6c e1 3f b2 c5 8a 3d e8 fd 60 3f 43 4b 05 40
       1.7611219 0.06775989 0.8788743 2.0827186
000170 8f a9 f5 3f be 80 35 3f f2 b8 08 40 47 2d c8 3f
       1.919237 0.7089957 2.1362882 1.5638818
000180 43 91 12 40 78 84 d9 3e 99 ac 5e 3f c1 ca 18 40
       2.290116 0.42483878 0.86982113 2.387375
000190 0e 44 bb bd 9f f2 b5 3f 60 2d 91 3f 80 8d dd 3f
       -0.0914384 1.4214667 1.1341972 1.7308807
0001a0 09 af 7f 3f 8e ad 0e 40 cc ce 03 3f 1a 8a 24 3f
       0.9987646 2.229343 0.5148742 0.64273226
0001b0 33 a2 d6 3f d6 63 c7 3e f4 c0 08 40 c8 68 8a bf
       1.6768249 0.38943356 2.136777 -1.0813227
0001c0 62 dd 7a be 56 01 84 bf a4 8a ef bf e8 1e 59 bf
       -0.24498513 -1.0312908 -1.8714185 -0.84812784
0001d0 62 38 55 bf b2 1c 9a be ba 44 2a c0 94 10 27 bf
       -0.8328916 -0.30100018 -2.6604447 -0.6525967
0001e0 30 9a 55 3e c3 b4 df bf f7 8f 35 3e b2 f6 6f bf
       0.20859599 -1.7477039 0.177307 -0.937358
0001f0 c5 1b 81 bd 03 fa dd bf 59 2e 72 be 2b 0f 16 bf
       -0.06304125 -1.7341923 -0.23650493 -0.58616894
000200 b5 6b 00 c0 24 8d ef be 2f 8e ad be e1 b6 b4 bf
       -2.006574 -0.4678737 -0.3389754 -1.411831
000210 bb e9 c4 bf 2f 0b 26 3c a2 64 bc bf 38 7f e8 be
       -1.5383829 0.010134502 -1.4718211 -0.4540956
000220 33 2a c2 be 79 32 a1 bf 09 cd 5a 3e 34 a0 92 bf
       -0.3792282 -1.2593528 0.21367277 -1.145514
000230 1e 3f 89 bf b9 95 ca be 4c f0 06 bf 63 6a f0 be
       -1.0722387 -0.39567354 -0.52710414 -0.46956167
000240 73 66 76 bf 4e 1d a9 bf b8 89 8d bf b1 bf 1c bf
       -0.96250075 -1.3212068 -1.1057653 -0.6123
000250 70 d5 c0 3e ec 91 c4 3f 29 33 ba 3f f2 8a a6 3d
       0.3766284 1.5357032 1.4546863 0.081319705
000260 74 eb df 3e 2f f6 d6 3e ed b7 1c 3e 81 9e 22 3f
       0.43734324 0.41984698 0.15304537 0.6352311
000270 ac 48 36 3f ba b7 8b 3e ee d5 6d bf 3c 9c 88 3f
       0.7120464 0.2728861 -0.92904556 1.0672679
000280 17 74 f5 3e 4b f1 24 40 69 37 b4 bf b4 84 e6 3f
       0.47940132 2.5772274 -1.407941 1.8009248
000290 79 fa 51 3f f5 d8 c1 3e 30 a0 30 be c5 64 aa 3f
       0.82022816 0.37860838 -0.17248607 1.3312002
0002a0 ec 97 89 be bb e1 62 3f d3 f8 b8 b9 86 80 d5 3f
       -0.2687372 0.8862569 -0.00035280603 1.6679847
0002b0 dd 17 b1 3e da cb 0a bf eb 9f 00 40 e3 7e f9 3e
       0.3458852 -0.542173 2.0097606 0.4872962
0002c0 82 31 5a 3f 16 ba 8a bf 66 d2 0c 3f 89 16 f0 bd
       0.8523179 -1.0838039 0.5500854 -0.11723048
0002d0 ca 52 7b bf 01 60 f7 bf 4f fc fc 3d 2c b0 26 be
       -0.981732 -1.9326173 0.123528115 -0.16278142
0002e0 96 3e 61 3e cd ea 56 bd 50 7a 72 bf e2 f8 e6 3d
       0.21996531 -0.052470017 -0.94717884 0.112779394
0002f0 3f 38 95 3f 05 e3 e0 3e e1 55 74 be a5 2a e7 bd
       1.165779 0.43923202 -0.23860885 -0.11287431
000300 a3 85 2b 3f 8a 0b ed 3f ca e7 b1 3c 4d 46 b9 3e
       0.6700079 1.8519146 0.021716971 0.36186448
000310 82 36 34 3f 7d d8 b8 3e 6b 45 02 c0 5c 02 1a 3f
       0.7039567 0.36102667 -2.035487 0.6015985
000320 0c 2e 5a 3d 2c b7 d9 3e 0c bf ea 3f f2 fc 72 3d
       0.05326657 0.42522562 1.8339553 0.05932326
000330 e6 83 a9 3f e4 85 c3 3f b4 72 27 3f ca 62 ad 3f
       1.3243377 1.5275235 0.654094 1.3545773
000340 7d 47 93 3f b3 97 7e 3e e1 a0 cd 3f 6a 60 97 be
       1.1506191 0.24862556 1.6064721 -0.29565746
000350 a0 41 af bf 61 c4 ae bf 1e ce 4d 3e af 7e 2d bf
       -1.3691902 -1.365368 0.20098159 -0.6777143
000360 49 55 34 be 13 ff 58 bf 7e 46 2a bf 44 e7 0a bf
       -0.17610659 -0.8476421 -0.6651381 -0.54259133
000370 a6 4d 0d 3f 7c 85 71 3f bf 21 c6 be be c6 fb be
       0.5519661 0.94344306 -0.3869762 -0.49175066
000380 2d 6e 52 bf 5b 8f 20 bf 6b b9 23 bf 4e df a7 bd
       -0.82199365 -0.62718743 -0.639548 -0.08196889
000390 f5 6b d4 bd 39 65 5c 3f cf cc db bf 41 81 98 3e
       -0.10372154 0.86091954 -1.7171878 0.29786113
0003a0 53 d1 c1 3e 10 9a 33 bf 98 3d a0 bf 8d 4c 89 3e
       0.37855014 -0.70156956 -1.2518797 0.26816216
0003b0 4d dd eb be 73 6f 92 3e fb 0b 42 3e c7 4b 41 bf
       -0.46067277 0.28600654 0.18949883 -0.7550625
0003c0 27 37 75 bd b3 b8 2a 3f 6d a1 e9 3e 10 35 02 bf
       -0.05986705 0.6668808 0.4563097 -0.50862217
0003d0 e5 5c 32 3e d8 ce 1c 3f f9 72 8b 3f 5e fa 15 be
       0.17418249 0.6125312 1.0894462 -0.14646289
0003e0 1a 7e c0 be 33 f9 74 3f 21 25 8a 3d e7 03 14 be
       -0.37596208 0.9569275 0.06745363 -0.14454614
0003f0 ef b8 e1 be 07 ea 70 bf b4 6c 2e bd 9c 25 3e 3d
       -0.44086406 -0.941071 -0.042584136 0.046422586

fc1.1.bias f4 [10]
000000 0a 00 77 c0 0a be e4 bf 8b 29 cb be cc c3 1f bf
       -3.8593774 -1.7870495 -0.39680132 -0.6240814
000010 4a 19 ce bf ae 2c f0 bf 3c c5 44 bf 69 6e 24 bf
       -1.6101468 -1.8763635 -0.76863456 -0.6423097
000020 6d 54 a6 bf ef 6d 4d bf
       -1.2994515 -0.8024587

fc2.0.weight f4 [2, 10]
000000 7c e4 32 be 23 97 5c 3c 34 a2 89 bd 9b f6 0e 3d
       -0.17469972 0.013463768 -0.06720391 0.03490315
000010 b9 fe 24 3e e8 72 a5 3d 45 bc 0b 3b a9 ef a0 bc
       0.16112794 0.08078557 0.0021321934 -0.019645529
000020 89 7b 99 3d e9 77 37 bb 28 74 99 3e 77 d0 62 3e
       0.074942656 -0.0027995056 0.29971433 0.22149836
000030 80 83 35 3d d8 cb be bd 7b 8e b8 3d aa 64 83 3e
       0.04431486 -0.09316224 0.09011551 0.25662738
000040 4b 5c f3 bd e2 19 7c be 7c 62 48 bd a4 cc dc 3d
       -0.11882838 -0.24619249 -0.048922047 0.107812196

fc2.0.bias f4 [2]
000000 a8 e1 a8 3e 52 99 e4 be
       0.32984662 -0.44648224

exp_avg f4 [3, 1, 6, 1]
000000 a5 72 3e bc 31 cc 19 bc 79 76 a5 bb 01 05 09 3b
       -0.011624013 -0.009387062 -0.0050495234 0.0020907524
000010 b0 03 4f bc 4b 01 d6 bb b1 1f 85 bb 71 30 28 3c
       -0.0126351565 -0.006530916 -0.004062616 0.010265456
000020 78 82 44 3a f0 05 8f 3b fd be a5 3b 83 dd 31 bc
       0.0007496248 0.0043647215 0.005058168 -0.010856035
000030 04 00 00 00 04 00 00 00 04 00 00 80 04 00 00 80
       6e-45 6e-45 -6e-45 -6e-45
000040 04 00 00 80 04 00 00 80
       -6e-45 -6e-45

exp_avg_sq f4 [3, 1, 6, 1]
000000 03 a3 c4 3b 7e ff 5a 3b 50 9a 23 3b b3 56 c8 3b
       0.006000878 0.0033416445 0.0024963804 0.006113851
000010 02 09 1a 3c 28 45 cf 3b c3 a7 0d 3b 76 cb 36 3b
       0.009401562 0.0063253827 0.0021614886 0.0027892268
000020 a0 9d fb 3b 13 a2 9d 3b d0 ec f4 3a 74 87 e2 3a
       0.0076787025 0.0048105805 0.0018686298 0.00172828
000030 9c 18 47 34 d3 aa ad 34 3e 88 18 35 9e fd 5d 35
       1.8542272e-07 3.2348052e-07 5.682267e-07 8.269798e-07
000040 ea 24 86 35 e8 c7 2c 35
       9.994521e-07 6.4365895e-07

exp_avg f4 [3]
000000 94 ad 88 3d f1 6b 50 bc 04 00 00 00
       0.066737324 -0.012721048 6e-45

exp_avg_sq f4 [3]
000000 f8 18 a3 3e 74 72 0b 3f 74 cc b3 35
       0.31854987 0.54471517 1.3396043e-06

exp_avg f4 [3]
000000 8e d7 f4 bb 72 11 ea 3d 22 47 b2 b0
       -0.007471985 0.11429109 -1.2971422e-09

exp_avg_sq f4 [3]
000000 97 38 27 3e 8b 6c f2 3d 28 a9 2e 33
       0.16330181 0.11837109 4.066638e-08

exp_avg f4 [3]
000000 a2 f5 e9 3c 5c 41 82 3c ed 30 d0 3b
       0.02855951 0.015900306 0.0063534887

exp_avg_sq f4 [3]
000000 f9 98 a8 3c 95 f3 d0 3c 96 96 b9 3b
       0.020580756 0.025506774 0.005663703

exp_avg f4 [5, 3, 5, 1]
000000 16 21 bd bb 65 47 ce ba 8b 75 9b 3a 66 51 c3 3b
       -0.0057717664 -0.001573783 0.0011860592 0.005960631
000010 82 fd b8 b9 b7 95 4e 3b 0c 83 cb 3b 18 97 5b bb
       -0.00035284093 0.0031522342 0.0062106904 -0.0033506807
000020 aa f0 f1 b9 78 c8 e9 bb 73 6c a7 39 73 6c a7 39
       -0.0004614641 -0.0071344934 0.00031933523 0.00031933523
000030 71 6c a7 39 71 6c a7 39 73 6c a7 39 48 b0 90 3c
       0.00031933517 0.00031933517 0.00031933523 0.017662182
000040 01 26 28 3c 86 e5 84 3a dc 87 e9 3b 4f ea 35 bb
       0.010262967 0.0010139204 0.0071267914 -0.0027758067
000050 a4 7e 40 3c 89 df 31 b7 85 fb 31 bc 00 56 93 3c
       0.0117489435 -1.0602068e-05 -0.01086319 0.017985344
000060 e4 5f 17 3c ab 1b 5a 39 ab 1b 5a 39 a9 1b 5a 39
       0.009239171 0.00020800407 0.00020800407 0.00020800404
000070 aa 1b 5a 39 ab 1b 5a 39 20 9a be 39 80 30 29 ba
       0.00020800406 0.00020800407 0.00036354456 -0.00064540654
000080 fc d2 e1 3b 85 b8 a2 3a b0 9f 69 ba 71 8c 2e bc
       0.0068916064 0.001241461 -0.000891204 -0.010653601
000090 91 03 26 bb 03 d5 6e 3b 03 77 fd b9 23 34 cf 3b
       -0.0025331716 0.0036442883 -0.0004834459 0.006323354
0000a0 1c 12 90 b9 1c 12 90 b9 1c 12 90 b9 1c 12 90 b9
       -0.00027479313 -0.00027479313 -0.00027479313 -0.00027479313
0000b0 1c 12 90 b9 52 95 8e bc 1c 4c 4f bc 54 3c 36 3b
       -0.00027479313 -0.017405186 -0.012652423 0.0027806954
0000c0 ab 58 a4 3b 81 4e 5c 3b 5c d3 39 bb 52 74 09 3c
       0.005015453 0.0033616128 -0.002835474 0.008389549
0000d0 e9 a4 e5 3b 2a 19 f3 bb 3f 1a 03 bc 4d 92 11 3a
       0.007008184 -0.0074187713 -0.008001863 0.00055531116
0000e0 4b 92 11 3a 4b 92 11 3a 4b 92 11 3a 4d 92 11 3a
       0.00055531104 0.00055531104 0.00055531104 0.00055531116
0000f0 a4 d1 09 3b 60 b0 bd bb 24 c4 1d bc 0d 27 ca 3b
       0.0021029497 -0.005788848 -0.009629283 0.006169206
000100 46 40 15 3c ed a7 52 bc 44 40 3b bb 6f a8 5c 3b
       0.009109562 -0.012857419 -0.002857224 0.003366973
000110 28 8e 1b 3b fc 0b 36 3b 5b e7 60 b9 5c e7 60 b9
       0.0023735855 0.002777814 -0.00021448491 -0.00021448493
000120 5b e7 60 b9 5b e7 60 b9 5b e7 60 b9
       -0.00021448491 -0.00021448491 -0.00021448491

exp_avg_sq f4 [5, 3, 5, 1]
000000 ca a1 b3 3a e2 52 73 3a be 81 0d 3a 97 6d e7 39
       0.0013704833 0.0009282065 0.0005398056 0.00044141404
000010 a2 0d 00 3a b4 33 a4 3a 75 78 1b 3b c5 f6 12 3b
       0.0004884844 0.0012527616 0.002372292 0.0022424918
000020 d6 48 1a 3b 7d d7 01 3b 4e 0c c0 37 9a da bf 37
       0.0023541949 0.001981228 2.2893913e-05 2.2870769e-05
000030 2c 46 c0 37 73 0e c0 37 41 99 c0 37 c3 ad dd 3a
       2.292086e-05 2.2894912e-05 2.2959548e-05 0.0016912747
000040 e1 66 be 3a c0 95 00 3b c9 d8 16 3b 9e a3 cd 3a
       0.001452651 0.0019620508 0.0023017398 0.001568902
000050 83 05 39 3b e7 30 75 3b d6 d0 28 3b ec 69 36 3b
       0.0028232045 0.0037413181 0.0025759242 0.002783413
000060 fd bf 9c 3b bf c0 4d 36 d7 a2 4b 36 44 b7 4c 36
       0.004783629 3.0659573e-06 3.0344142e-06 3.0505043e-06
000070 a9 71 4b 36 70 23 4b 36 cf 97 4c 3b e9 71 5c 3b
       3.0315516e-06 3.0269985e-06 0.0031218415 0.0033637232
000080 fd d3 eb 3a e4 96 a2 3b 88 60 1f 3b 01 0a 2a 3b
       0.0017992255 0.004961835 0.0024319012 0.0025945904
000090 5b cc 15 3b 55 7a 04 3b 75 bb 5d 3b d9 26 12 3c
       0.00228574 0.0020214517 0.0033833657 0.008920395
0000a0 f8 a0 bc 37 57 aa bc 37 81 a1 bc 37 ed 33 bd 37
       2.2486303e-05 2.2490667e-05 2.2486553e-05 2.2554736e-05
0000b0 7f 04 bd 37 6d ad 19 3b e3 91 18 3b ef e3 e2 3a
       2.253265e-05 0.0023449317 0.0023280315 0.0017310361
0000c0 39 72 4c 3b 71 9e ea 3a f9 37 88 3b 57 c8 8b 3b
       0.0031196012 0.0017900002 0.004157063 0.0042658257
0000d0 9e 7f aa 3b b8 a6 72 3b c2 dd a6 3b 0f b6 93 38
       0.0052032014 0.0037025642 0.0050923536 7.043417e-05
0000e0 88 10 92 38 04 ab 91 38 2b 68 91 38 ab 6a 91 38
       6.964902e-05 6.945993e-05 6.9335416e-05 6.934007e-05
0000f0 1c 17 7b 3a a1 85 f2 3a 5f 78 f3 3a 91 f4 89 3a
       0.00095783337 0.0018502959 0.0018575302 0.0010525157
000100 e4 8c 14 3b 69 75 16 3b bc ca a0 3a f1 ad 7d 3a
       0.0022666985 0.0022958166 0.0012267451 0.00096771034
000110 2c 3f 5e 3a 1b bf ca 3a 0f 90 2e 37 cd fe 2c 37
       0.0008478041 0.0015468331 1.0404749e-05 1.0311324e-05
000120 77 ec 2c 37 8d 4b 2d 37 85 c1 2d 37
       1.0307055e-05 1.0329194e-05 1.0356661e-05

exp_avg f4 [5]
000000 ed 7a f7 3b 2f 11 cb 3b 95 66 e8 bb 05 0a 69 3c
       0.0075524957 0.006197117 -0.007092307 0.01422358
000010 60 df b1 bb
       -0.0054282397

exp_avg_sq f4 [5]
000000 49 85 8b 3b a9 cb 59 3a 6c ce a6 3b b3 b8 b5 3c
       0.004257832 0.0008308241 0.0050905254 0.022182798
000010 36 cc 8b 3b
       0.004266287

exp_avg f4 [5]
000000 57 a9 ff bb 52 c7 8b 3c df f4 b2 bc 8a c2 a7 3c
       -0.0078021693 0.017062817 -0.02184528 0.020478506
000010 42 1c 6e bd
       -0.058132418

exp_avg_sq f4 [5]
000000 b6 63 1d 3c 39 8a 88 3c 1f 0d e8 3d ba 72 0f 3d
       0.0096062925 0.016667472 0.11330628 0.03502152
000010 51 10 68 3d
       0.056656186

exp_avg f4 [5]
000000 d2 52 45 3c d5 a5 9c 3b cf 2c b0 ba df 63 92 3c
       0.012043672 0.004780511 -0.0013441088 0.017869888
000010 57 d6 e2 bb
       -0.006922524

exp_avg_sq f4 [5]
000000 55 6a 04 3d 8d b3 8f 3b 1a 63 79 3a e9 e1 70 3d
       0.03232797 0.004385418 0.00095133635 0.058809195
000010 f1 0c 97 3b
       0.004609697

exp_avg f4 [10, 5, 4, 1]
000000 d3 32 38 ba 51 b1 37 b9 fe 6f 6a b9 fa a6 1d ba
       -0.00070266164 -0.00017518295 -0.000223577 -0.0006013956
000010 8a 09 b3 ba 7c a5 4a 3b c4 13 ac 3b 78 e3 f9 3a
       -0.0013659459 0.003092139 0.0052513797 0.0019064983
000020 2a 76 f6 3a e9 1d aa 3a 06 46 d7 3a 36 e0 be 3a
       0.0018803526 0.0012978885 0.0016424067 0.001456267
000030 02 f9 12 3a ef c9 3c 3a c3 04 07 3a fc 27 9b 38
       0.0005606563 0.00072017213 0.0005150551 7.3984236e-05
000040 ec cc e0 b8 5c a1 28 ba 0a 35 e4 39 49 24 53 39
       -0.00010719322 -0.0006432736 0.00043527066 0.00020136045
000050 96 5c 8d 3a d2 64 2a ba 0b 24 50 ba c0 3e a8 b9
       0.0010785039 -0.0006500009 -0.0007939941 -0.0003209021
000060 20 92 2a bb e0 24 c3 3a bc 68 ac 3a 3f 07 92 3b
       -0.0026027039 0.0014888309 0.0013153772 0.00445643
000070 58 e6 04 3b 81 70 df bb e9 5c 84 3b 67 9e 56 b9
       0.0020278897 -0.0068188314 0.004039396 -0.0002046764
000080 13 8c 29 bc 48 d5 8d 3b 32 e7 8e 3b 6e 80 69 ba
       -0.010348338 0.0043284036 0.0043610567 -0.0008907382
000090 00 5a 06 3a 7d 82 30 bb fb 4f 31 3b 97 0f da 3a
       0.00051251054 -0.0026933246 0.0027055729 0.0016636726
0000a0 93 62 07 3a 31 e6 28 3a ab 3f 3e ba 89 5c 1f 3a
       0.000516453 0.00064429926 -0.0007257412 0.00060791575
0000b0 4f 0f 40 ba 31 e4 c5 b9 4a c3 a8 38 88 73 17 3a
       -0.00073265 -0.00037744784 8.04724e-05 0.00057774084
0000c0 25 7d fc b9 19 36 c9 ba 28 d0 4f 3a 7f cd cd b9
       -0.00048158425 -0.0015351205 0.0007927441 -0.00039253753
0000d0 b5 a1 5d 39 f6 c5 84 b9 52 dd 44 3b 52 00 1b ba
       0.00021136443 -0.00025324494 0.0030039144 -0.00059128285
0000e0 69 5a 6e bb bf f9 b8 3a bf 44 da 37 c0 14 31 3a
       -0.0036369807 0.0014112516 2.6019638e-05 0.0006755106
0000f0 06 e8 1b 3a 14 ce 5e 3a 63 5a dd 3b e2 a4 c4 37
       0.0005947355 0.0008499336 0.0067551597 2.34418e-05
000100 2b 03 25 ba 39 03 f8 ba b4 56 d3 b9 8b f0 07 3c
       -0.00062947226 -0.0018921859 -0.00040309655 0.008297096
000110 14 d0 1b 3a b7 5b 3d bb 9d 04 90 3b 07 ed 17 b9
       0.0005943787 -0.0028893778 0.004395081 -0.00014488782
000120 67 d9 2c 3c cd bc 4f b8 44 52 86 3a 2c 7f 33 39
       0.01054988 -4.952848e-05 0.0010247906 0.00017118145
000130 c5 bc 4c 3a 34 ce 6f 39 b6 85 77 3b db e8 a0 39
       0.0007810111 0.00022869633 0.0037768907 0.0003069107
000140 13 8f 19 bb ab 60 81 b8 b6 0c b8 ba 12 4b 33 b9
       -0.0023431226 -6.169205e-05 -0.0014041874 -0.00017098736
000150 a8 ef 17 39 a0 90 13 3a 68 d3 08 bb 37 d2 20 39
       0.00014489761 0.0005629156 -0.002087796 0.000153371
000160 81 ab f6 ba cb 06 78 3a 0b 38 95 3a bd de 94 bb
       -0.0018819423 0.00094614614 0.00113845 -0.004543154
000170 9b 2a 8b bb 13 58 cb ba 3e 77 4c ba 30 1e f3 39
       -0.0042470223 -0.0015513919 -0.0007799751 0.00046371063
000180 af 12 db ba e1 4a 69 3a 0e a5 71 bb 98 b3 4c 3a
       -0.0016713942 0.00088994025 -0.0036872062 0.0007808744
000190 56 81 41 ba 96 07 1e 3a 5b 5d 3c ba 6c 3c da 39
       -0.0007381638 0.0006028352 -0.0007185542 0.00041625218
0001a0 ee 13 20 3a 9f e6 21 3b 08 83 a7 3a a2 c1 8e 38
       0.00061064854 0.0024704111 0.0012780139 6.8071546e-05
0001b0 ce ee 2f bb 92 51 b2 3a 5b b2 e1 3a ba 74 18 ba
       -0.002684522 0.0013604632 0.0017219292 -0.00058157335
0001c0 22 c2 16 bb bb 43 3f 3a b3 ed 99 ba 06 07 4d ba
       -0.0023003896 0.00072961644 -0.0011743814 -0.0007821176
0001d0 bb 5b 9a ba e5 ce 6f 3a 05 13 00 b9 ec 6a 4b ba
       -0.0011776605 0.0009147956 -0.00012214117 -0.0007759768
0001e0 be cc 90 ba 57 6c 11 3b 20 09 bc ba f6 34 cb b8
       -0.0011047346 0.002218982 -0.0014345981 -9.689659e-05
0001f0 76 eb 32 bb 60 f4 bc 39 fa 81 d5 3a 15 e4 c2 ba
       -0.002730099 0.00036040228 0.0016289346 -0.0014868999
000200 c1 c1 63 3b d3 fb 1b bb 98 5e 7e 3a ba 57 2f 3b
       0.0034752937 -0.0023801222 0.00097034266 0.002675517
000210 e9 3c d0 3a af 60 87 ba 0c 08 9e 39 1d bb 30 39
       0.0015887293 -0.0010328497 0.00030142104 0.00016854373
000220 86 7a a3 ba 80 3f 3c ba 42 44 5b 3a 95 36 16 3a
       -0.0012472428 -0.0007181093 0.0008364358 0.0005730179
000230 da 7c b8 3a f0 5a 99 b9 bd e9 d6 3a 61 3d 9d 39
       0.0014075295 -0.00029250188 0.0016396564 0.00029991104
000240 4d 73 e7 bb 48 9a 59 3a 37 7b ba 3a 92 49 88 ba
       -0.0070633055 0.0008300883 0.0014227395 -0.0010397902
000250 2a ef 2b 3b 54 a0 d1 bb 2f e8 f0 3a 40 ef d2 39
       0.0026235082 -0.0063972864 0.0018379743 0.00040232576
000260 5f 24 03 bb 34 c5 7a 3a a9 26 3a ba 2a 11 af ba
       -0.0020010693 0.0009566129 -0.0007101098 -0.0013356556
000270 f5 9c 47 ba d3 f3 3b bb 50 d2 16 3b 05 73 85 ba
       -0.0007614636 -0.0028679266 0.002301354 -0.0010181373
000280 d5 64 6c ba f8 3d c9 b8 66 00 3a 3a cc 01 26 3a
       -0.00090177107 -9.5959695e-05 0.0007095396 0.0006332665
000290 03 90 29 bb 00 8a ab 39 b3 18 c4 39 e1 39 73 ba
       -0.0025873191 0.0003271848 0.00037402436 -0.0009278339
0002a0 01 e0 38 b9 bd fc f5 ba 7e 0c 77 3b 2e 07 5d ba
       -0.00017631055 -0.0018767338 0.0037696655 -0.0008431551
0002b0 18 06 1f b8 29 3a 90 3a 6c 98 08 3a ce 98 00 ba
       -3.791423e-05 0.0011003661 0.0005210701 -0.0004905582
0002c0 e4 83 20 ba a8 69 a8 b9 c8 40 c4 3a 79 b2 2e ba
       -0.0006123169 -0.00032122177 0.001497292 -0.0006664168
0002d0 ad 2c 8f ba 72 2c b8 ba 17 d9 f8 b9 80 3a 65 bb
       -0.0010923349 -0.0014051332 -0.0004746399 -0.0034977496
0002e0 4f a2 19 3a 23 f0 4f 39 64 b6 49 bb d1 e2 f8 ba
       0.00058606727 0.00019830516 -0.003077888 -0.0018988495
0002f0 f1 50 46 3b a7 84 c3 bb e6 30 44 3b e9 14 06 bc
       0.0030260647 -0.005966741 0.0029936372 -0.008183696
000300 f9 d5 22 ba e2 f2 0c bc f5 27 e2 bb 3d 4a b5 3a
       -0.0006211694 -0.00860283 -0.006901736 0.0013831329
000310 bc bb 77 39 4d b6 1e bb 97 02 a1 39 fd 3f d4 bb
       0.00023625692 -0.0024217546 0.00030710243 -0.0064773546
