training/tuned_model/model_1.onnx (onnx, 77039 bytes, 34 tensors)

conv1.0.weight f4 [3, 1, 6, 1]
0.19778728 0.24945419 -0.021325728 -0.38903588 -0.62284076 -0.3270203 0.33028618 -0.15551318
0.0898702 -0.71309215 0.009913035 -0.36624497 0.07745553 0.2915211 0.36349916 0.34465668
-0.81797403 0.04844138
00000000: c088 4a3e eb70 7f3e 4bb3 aebc b62f c7be
00000010: 7e72 1fbf 346f a7be 451b a93e d93e 1fbe
00000020: de0d b83d 358d 36bf 486a 223c 7684 bbbe
00000030: 01a1 9e3d 4142 953e 901c ba3e d776 b03e
00000040: bf66 51bf 786a 463d

conv1.0.bias f4 [3]
-0.22605824 0.20807238 0.23664875
00000000: d07b 67be ed10 553e 0d54 723e

conv1.2.weight f4 [3]
0.9948771 0.8857065 0.8476824
00000000: 44b0 7e3f a9bd 623f b701 593f

conv1.2.bias f4 [3]
0.15559961 -0.008401105 -0.02844974
00000000: 8155 1f3e caa4 09bc 6e0f e9bc

conv1.2.running_mean f4 [3]
0.011067043 0.1972726 0.23009926
00000000: 8b52 353c d401 4a3e 249f 6b3e

conv1.2.running_var f4 [3]
0.00513481 0.008110865 0.0074573527
00000000: e941 a83b 6fe3 043c cf5c f43b

conv2.0.weight f4 [5, 3, 5, 1]
-0.09746075 -0.0760658 -0.052486975 -0.4898908 -0.09473524 -0.28592965 -0.07441379 -0.4422328
0.04089658 0.24012005 0.3905623 0.013990335 0.15876341 -0.58825195 -0.060097292 0.28262752
0.4817438 0.035293918 -0.46017253 -0.011607321 0.026833821 0.13968639 0.52218944 0.14037791
-0.22571768 -0.27085736 -0.06910626 -0.26959202 0.4022872 0.10030644 0.4201643 0.19921252
-0.16358571 -0.053770952 -0.2099169 0.0435052 0.43055198 -0.3399694 -0.28260323 0.26979813
0.082871035 0.13438565 -0.024479283 0.097697996 0.28066713 0.094718255 -0.24187233 -0.387087
0.13593845 -0.34143165 -0.08146158 0.12924096 -0.26910672 -0.1489271 -0.034875154 0.11141605
-0.35912377 -0.30638352 -0.19656202 -0.117289126 -0.11514874 -0.22775364 0.11142495 -0.22266762
-0.35432458 0.06881901 -0.2973843 -0.3925181 0.08691385 0.22600856 -0.22772129 -0.3366402
-0.016460733 0.09812423 0.3191522
00000000: 8099 c7bd 63c8 9bbd 95fc 56bd f8d2 fabe
00000010: 8d04 c2bd 5f65 92be 4266 98bd 566c e2be
00000020: 2c83 273d 08e2 753e c8f7 c73e b837 653c
00000030: e092 223e ae97 16bf 9428 76bd 8eb4 903e
00000040: 20a7 f63e 5b90 103d bc9b ebbe a22c 3ebc
00000050: 9ad2 db3c f309 0f3e 35ae 053f 3abf 0f3e
00000060: 8922 67be d1ad 8abe 9587 8dbd f707 8abe
00000070: 96f8 cd3e 766d cd3d c61f d73e 5efe 4b3e
00000080: 0383 27be ee3e 5cbd 75f4 56be 8232 323d
00000090: 4f71 dc3e 7810 aebe 5fb1 90be fb22 8a3e
000000a0: 4ab8 a93d 649c 093e c788 c8bc e315 c83d
000000b0: 9ab3 8f3e a5fb c13d 61ad 77be 4430 c6be
000000c0: 7333 0b3e 21d0 aebe 54d5 a6bd be57 043e
000000d0: 5bc8 89be 5880 18be 40d9 0ebd 192e e43d
000000e0: 12df b7be 4dde 9cbe 8e47 49be 4835 f0bd
000000f0: 1ad3 ebbd 4038 69be c432 e43d fb02 64be
00000100: 086a b5be fbf0 8c3d c142 98be 22f8 c8be
00000110: e3ff b13d ca6e 673e c52f 69be 1b5c acbe
00000120: a9d8 86bc 5bf5 c83d eb67 a33e

conv2.0.bias f4 [5]
-0.010848943 -0.1279037 -0.08033324 0.39457032 0.22127545
00000000: c4bf 31bc 30f9 02be c185 a4bd 1f05 ca3e
00000010: 0896 623e

conv2.2.weight f4 [5]
0.6785505 0.8794499 0.77061063 0.83639526 0.91272247
00000000: 7cb5 2d3f a123 613f bd46 453f 001e 563f
00000010: 2ea8 693f

conv2.2.bias f4 [5]
0.15464497 0.23020579 0.10624064 -0.16307105 -0.042349726
00000000: 405b 1e3e 11bb 6b3e b194 d93d 19fc 26be
00000010: e876 2dbd

conv2.2.running_mean f4 [5]
0.13806997 0.13000305 0.22112046 0.311329 0.32220292
00000000: 3762 0d3e 851f 053e 676d 623e 8466 9f3e
00000010: c8f7 a43e

conv2.2.running_var f4 [5]
0.0653896 0.11861052 0.3919859 0.09982468 0.10288722
00000000: fcea 853d 13ea f23d 60b2 c83e e270 cc3d
00000010: 89b6 d23d

conv3.0.weight f4 [10, 5, 4, 1]
-0.14215621 -0.23061572 -0.13854715 -0.020487316 0.021554755 -0.311237 -0.3939523 -0.03699383
-0.11308566 -0.66709465 -0.80499697 0.3753369 0.1342586 -0.0449529 -0.26661882 -0.15044598
0.08800178 0.19813922 -0.12466031 -0.3167822 0.4243095 -0.07620293 -0.067201726 -0.041390445
0.23463413 0.18467142 -0.12675236 0.16835351 0.21117812 -0.0629317 -0.48236886 -0.05937495
0.4842437 0.26226562 -0.26506716 -0.5069031 0.17052934 0.047455005 -0.23913853 0.17812335
-0.2290368 -0.071160235 -0.2976348 -0.11543659 -0.13009956 -0.38863346 -0.20832889 -0.23726413
0.14252716 0.25234056 -0.6736175 0.028654141 0.029393785 0.04403233 -0.24354206 0.15223224
0.35794547 -0.21854736 -0.063345276 -0.018997246 -0.052590497 -0.069632046 -0.34142035 -0.034932118
-0.34684238 -0.4216346 -0.023824379 0.19974278 -0.11411073 0.28807548 0.037816606 0.24884027
0.0593694 0.0320221 -0.24786815 0.33790568 -0.24090435 0.054192975 0.32234842 0.061152562
-0.14138061 0.36544245 0.21646354 0.25268832 0.19336434 -0.26589882 0.49455446 0.53077865
0.044224415 0.02210603 0.40441552 0.23665087 -0.03890942 -0.018641979 0.2630276 -0.15025792
-0.016900722 -0.033931997 -0.162606 -0.07207539 0.0023184437 -0.3132641 -0.13780774 -0.17858614
-0.46829456 0.021385418 -0.16598263 -0.071992956 0.18330193 -0.1236035 0.109929 -0.073552586
-0.011787279 -0.47794452 0.42182395 -0.28151748 0.12540402 0.25779256 0.15954034 0.20266034
-0.18011495 0.01863624 -0.21358177 -0.1521227 0.10815759 -0.15373215 -0.24008705 -0.10558591
0.34371248 -0.0035339727 0.31885615 -0.023675082 -0.042241998 0.1975578 -0.06023064 -0.16839923
-0.32392424 0.17910495 0.377058 -0.21177436 -0.12375665 -0.31721464 -0.0021079977 -0.21226437
-0.18006963 -0.33417314 -0.072483934 0.09641404 -0.11123812 0.1126601 -0.038083114 -0.3676453
-0.22733188 0.18492097 -0.29151234 0.020859806 -0.11212234 0.43263093 0.06533848 0.14046471
0.088562414 -0.25773183 -0.097298406 0.11657155 -0.2656872 0.20336187 -0.14020826 0.032697678
-0.43619683 0.027429283 0.03631532 0.18870349 -0.142962 -0.2739145 0.24159847 0.07734244
-0.40596443 -0.18262118 0.258955 0.3637281 -0.11553223 -0.12671846 -0.21986274 -0.26657027
-0.41838288 -0.118946895 0.2516459 -0.047069777 -0.055928115 -0.029385041 -0.09496687 -0.047774814
0.15652415 -0.20854698 -0.10813547 0.24986157 0.2809854 0.2149876 -0.23198836 0.21157347
00000000: 6691 11be 8726 6cbe 4edf 0dbe 04d5 a7bc
00000010: 9993 b03c 755a 9fbe 1eb4 c9be d886 17bd
00000020: 7499 e7bd b7c6 2abf 4814 4ebf 282c c03e
00000030: 167b 093e 8820 38bd 4382 88be 830e 1abe
00000040: 473a b43d 02e5 4a3e e84d ffbd 4731 a2be
00000050: 183f d93e 4810 9cbd 0fa1 89bd 0789 29bd
00000060: ee43 703e 811a 3d3e 5fcb 01be dd64 2c3e
00000070: 143f 583e 56e2 80bd 0df9 f6be 2633 73bd
00000080: caee f73e ae47 863e e2b6 87be 67c4 01bf
00000090: 3e9f 2e3e 2e60 423d bbe0 74be f865 363e
000000a0: 9f88 6abe 75bc 91bd 9763 98be 056a ecbd
000000b0: d238 05be f7fa c6be 2b54 55be 5ef5 72be
000000c0: a4f2 113e c832 813e 3272 2cbf 17bc ea3c
000000d0: 3ccb f03c 3f5b 343d 1763 79be c5e2 1b3e
000000e0: a144 b73e e1ca 5fbe 2bbb 81bd 1da0 9bbc
000000f0: 2269 57bd 3f9b 8ebd a6ce aebe fb14 0fbd
00000100: 5395 b1be 7ee0 d7be 582b c3bc 5f89 4c3e
00000110: e3b2 e9bd a17e 933e 96e5 1a3d fccf 7e3e
00000120: 542d 733d 9b29 033d 26d1 7dbe f901 ad3e
00000130: a1af 76be 74f9 5d3d da0a a53e 1c7b 7a3d
00000140: 14c6 10be 461b bb3e 9ea8 5d3e 5d60 813e
00000150: 4d01 463e e423 88be 3e36 fd3e 1ce1 073f
00000160: a924 353d b417 b53c 8d0f cf3e 9b54 723e
00000170: 7c5f 1fbd 10b7 98bc 8eab 863e 36dd 19be
00000180: 6273 8abc 47fc 0abd 3082 26be 439c 93bd
00000190: 08f1 173b 2764 a0be 791d 0dbe 49df 36be
000001a0: 4ec4 efbe 7930 af3c 5af7 29be 0b71 93bd
000001b0: 80b3 3b3e d523 fdbd 7522 e13d bda2 96bd
000001c0: 6e1f 41bc 25b5 f4be 4ff9 d73e 0f23 90be
000001d0: e969 003e 63fd 833e 8b5e 233e 3186 4f3e
000001e0: 0e70 38be 07ab 983c 2eb5 5abe 0ec6 1bbe
000001f0: ba81 dd3d f66b 1dbe 61d9 75be 6d3d d8bd
00000200: 15fb af3e 399a 67bb 1d41 a33e 3ff2 c1bc
00000210: f205 2dbd 984c 4a3e 67b4 76bd d970 2cbe
00000220: 66d9 a5be 4a67 373e bf0d c13e 61db 58be
00000230: 2074 fdbd f569 a2be 5526 0abb d55b 59be
00000240: 2c64 38be be18 abbe 7572 94bd b974 c53d
00000250: d0d0 e3bd 57ba e63d 0afd 1bbd 013c bcbe
00000260: b0c9 68be ec5b 3d3e 1b41 95be 2fe2 aa3c
00000270: 66a0 e5bd cd81 dd3e 2ed0 853d fbd5 0f3e
00000280: 3660 b53d 6df5 83be 6344 c7bd 11bd ee3d
00000290: 2708 88be 183e 503e c192 0fbe 00ee 053d
000002a0: 3155 dfbe 60b3 e03c 5fbf 143d 7d3b 413e
000002b0: a164 12be 853e 8cbe 9765 773e b765 9e3d
000002c0: 92da cfbe 0c01 3bbe c095 843e 923a ba3e
000002d0: 299c ecbd 7cc2 01be b323 61be e67b 88be
000002e0: 4836 d6be 6e9a f3bd bbd7 803e 3dcc 40bd
000002f0: e114 65bd e6b8 f0bc fe7d c2bd 86af 43bd
00000300: de47 203e 578d 55be 2176 ddbd b6db 7f3e
00000310: 51dd 8f3e b625 5c3e 5b8e 6dbe b7a6 583e

conv3.0.bias f4 [10]
0.12996751 -0.08824991 -0.4043278 -0.0028669287 0.0068702265 -0.089830354 0.052635793 -0.44587722
-0.08612893 -0.24796377
00000000: 3416 053e 5ebc b4bd 0e04 cfbe 15e3 3bbb
00000010: a31f e13b faf8 b7bd a198 573d 054a e4be
00000020: 5d64 b0bd 37ea 7dbe

conv3.2.weight f4 [10]
0.78555375 0.66101354 0.88937205 0.6563909 0.73062086 0.8222455 0.7778516 0.8071345
0.76446766 0.7687235
00000000: 0d1a 493f 2f38 293f e3ad 633f 3c09 283f
00000010: f809 3b3f ae7e 523f 4821 473f 5ea0 4e3f
00000020: 27b4 433f 10cb 443f

conv3.2.bias f4 [10]
0.072459385 0.2415665 0.077387534 0.06156418 0.25930443 -0.09759821 -0.40388194 0.16388652
0.2054346 0.007839595
00000000: 9665 943d 355d 773e 5b7d 9e3d b92a 7c3d
00000010: 8dc3 843e 92e1 c7bd 9dc9 cebe ded1 273e
00000020: 735d 523e a571 003c

conv3.2.running_mean f4 [10]
0.3082266 0.17403287 0.028330822 0.19597675 0.33166686 0.087438904 0.2670079 0.044002447
0.21208684 0.10148808
00000000: e0cf 9d3e ac35 323e 0a16 e83c 21ae 483e
00000010: 3dd0 a93e 2b13 b33d 42b5 883e e93b 343d
00000020: 4b2d 593e fcd8 cf3d

conv3.2.running_var f4 [10]
0.13967897 0.14188173 0.016572664 0.13428074 0.3086486 0.10229114 0.15191881 0.02878207
0.103869826 0.0745286
00000000: 0108 0f3e 7249 113e 65c3 873c e480 093e
00000010: 3007 9e3e 047e d13d 9b90 1b3e 60c8 eb3c
00000020: b4b9 d43d 73a2 983d

conv4.0.weight f4 [20, 10, 4, 1]
0.11217483 -0.067448534 0.3032556 -0.1946182 -0.070425615 -0.12803483 -0.010503102 -0.18286468
-0.038859796 -0.20019676 -0.23750354 0.04371587 0.110916205 -0.53138226 0.47303528 0.3726103
-0.11024374 -0.18446425 0.117709965 -0.28879085 0.0497538 0.044912502 -0.18606526 0.28271702
0.20423345 -0.21203944 -0.2666472 0.5070358 0.17657703 -0.2725626 -0.3186891 -0.1350964
-0.3508093 0.1651876 -0.044034153 0.26237327 0.1278369 -0.29460698 0.20669097 -0.26284167
-0.15595986 0.15456863 0.2779739 -0.04058055 0.22202727 -0.1907263 0.16793106 -0.2613325
-0.17552614 -0.16096446 -0.106269866 0.11148206 0.13886788 0.14284775 0.19788374 0.07375561
-0.14417334 0.19402039 -0.08277133 -0.3892995 -0.07955321 0.27272803 -0.29487377 0.04681097
0.4398295 -0.25551403 0.23572938 0.06697267 -0.5602924 0.040942214 0.27448073 -0.024537306
-0.052977774 0.26673734 -0.14490135 -0.19632599 0.022969645 0.3599095 0.20017003 -0.18630575
-0.17130417 0.17801662 -0.0042231157 -0.14412393 -0.4557667 -0.2068539 -0.17109674 0.23451844
-0.016090333 0.15156333 0.0062828986 0.2708866 -0.56556034 0.026731368 0.6023732 0.1882237
-0.3753972 -0.33742845 -0.022696681 -0.14747496 0.029228237 -0.14118922 -0.37263027 -0.4197108
-0.19924217 -0.10401782 0.25417313 -0.023524383 -0.2688215 0.09111954 0.07289986 0.39227515
0.2040152 0.15338409 0.086744174 -0.19957972 -0.08678254 0.13691206 0.15513997 0.1867458
-0.25717226 0.1860973 -0.18764786 0.052404825 0.058283776 0.23895158 -0.19486019 -0.056716535
-0.14971013 0.26042566 0.24339597 0.2601165 -0.16725865 -0.079418205 0.02820302 -0.08546855
-0.022470854 0.27750152 -0.031474248 -0.1837858 0.17812757 -0.43085453 0.25960106 0.013016853
0.023418201 -0.07660896 0.15866026 0.32736975 0.15017349 0.18881996 -0.27273235 -0.49921843
-0.65711915 -0.11477208 0.57908094 -0.021546569 -0.03358609 0.088036366 -0.08734474 0.17655475
0.32218468 -0.003491883 -0.036288656 -0.38856122 -0.3880469 -0.41312537 0.056762226 0.020225592
-0.28788492 -0.17564072 0.15705852 0.3272634 -0.23680769 -0.07310758 0.13802901 0.2193978
-0.29159722 -0.12758864 -0.124351755 0.06430282 -0.27278587 -0.16337587 0.108794294 0.31693518
-0.31659585 -0.029378947 0.14301947 0.47626352 -0.29405168 -0.22207154 -0.05115787 0.25661057
-0.16065133 0.1537351 -0.15732783 0.09398353 -0.26039508 0.110637404 0.23375498 -0.27645332
0.37752727 0.06430853 0.26017335 0.41411456 0.024182867 0.12503913 0.08482457 0.033936236
-0.24830712 -0.3207003 -0.08370039 0.042715453 0.36664197 0.28284094 -0.049214814 0.18874332
0.18364124 0.09354511 0.0076865624 0.1772644 0.29585546 0.057270277 -0.028803552 -0.109098814
0.3217513 0.40460694 0.28197995 0.25888675 -0.004518811 -0.07086666 -0.096470185 -0.10668281
-0.06021543 0.10041936 -0.15603757 -0.08896136 0.21151383 -0.0012303267 0.23541991 -0.026816742
-0.07308354 0.44933534 0.20161705 -0.21505556 -0.44155076 0.09245252 -0.12914878 -0.13356169
-0.026408356 -0.06267365 0.3714739 -0.29007626 0.07871499 -0.3146563 -0.33899748 0.0872518
00000000: ebbb e53d 7522 8abd 5144 9b3e fe49 47be
00000010: 4e3b 90bd 901b 03be 3415 2cbc e140 3bbe
00000020: 732b 1fbd 6100 4dbe 2134 73be 690f 333d
00000030: 0928 e33d ab08 08bf ae31 f23e c7c6 be3e
00000040: 78c7 e1bd 32e4 3cbe ec11 f13d 65dc 93be
00000050: a4ca 4b3d 2cf6 373d e487 3ebe 49c0 903e
00000060: 9322 513e de20 59be fb85 88be 19cd 013f
00000070: 9cd0 343e 538d 8bbe 382b a3be b656 0abe
00000080: 479d b3be f026 293e 285d 34bd ca55 863e
00000090: ade7 023e bad6 96be cca6 533e 2f93 86be
000000a0: f1b3 1fbe 3d47 1e3e 9852 8e3e ca37 26bd
000000b0: 1e5b 633e c14d 43be 1ff6 2b3e 60cd 85be
000000c0: 20bd 33be ded3 24be 04a4 d9bd b550 e43d
000000d0: 6233 0e3e ae46 123e 09a2 4a3e 2e0d 973d
000000e0: 2da2 13be 48ad 463e 0484 a9bd 4452 c7be
000000f0: cbec a2bd 02a3 8b3e b2f9 96be dcbc 3f3d
00000100: 5531 e13e bcd2 82be 0b63 713e f828 893d
00000110: 536f 0fbf 06b3 273d bd88 8c3e 7602 c9bc
00000120: 39ff 58bd cc91 883e 0561 14be ae09 49be
00000130: d62a bc3c 0f46 b83e 5ff9 4c3e efc6 3ebe
00000140: 5c6a 2fbe fd49 363e 1062 8abb 3995 13be
00000150: 415a e9be 82d1 53be fc33 2fbe 9a25 703e
00000160: e0cf 83bc 6b33 1b3e c6e0 cd3b a6b1 8a3e
00000170: 90c8 10bf befb da3c 2135 1a3f b7bd 403e
00000180: 1034 c0be 6cc3 acbe 64ee b9bc ad03 17be
00000190: 0e70 ef3c e893 10be 65c9 bebe 55e4 d6be
000001a0: 2406 4cbe 4b07 d5bd fb22 823e 35b6 c0bc
000001b0: f9a2 89be e29c ba3d 864c 953d 4ad8 c83e
000001c0: 5ce9 503e b810 1d3e eea6 b13d a05e 4cbe
000001d0: 0bbb b1bd ad32 0c3e 03dd 1e3e 4a3a 3f3e
000001e0: 15ac 83be 4a90 3e3e c326 40be 71a6 563d
000001f0: f8ba 6e3d b9af 743e 6e89 47be 994f 68bd
00000200: 9d4d 19be 8356 853e cb3c 793e fd2d 853e
00000210: da45 2bbe 03a6 a2bd 050a e73c 230a afbd
00000220: cc14 b8bc ae14 8e3e 24eb 00bd 5832 3cbe
00000230: 1367 363e f798 dcbe 6eea 843e a344 553c
00000240: 87d7 bf3c 29e5 9cbd d677 223e 029d a73e
00000250: 14c7 193e 055a 413e 93a3 8bbe 8f99 ffbe
00000260: f638 28bf a00d ebbd a63e 143f 6e82 b0bc
00000270: 9191 09bd 694c b43d cde1 b2bd c5ca 343e
00000280: 64f5 a43e 13d8 64bb 6aa3 14bd 7ff1 c6be
00000290: 15ae c6be 2b85 d3be 827f 683d 24b0 a53c
000002a0: a765 93be 29db 33be f3d3 203e 128f a73e
000002b0: b77d 72be 6db9 95bd 7a57 0d3e d1a9 603e
000002c0: 3b4c 95be 99a6 02be 22ac febd 32b1 833d
000002d0: 97aa 8bbe 014c 27be 8bcf de3d 5445 a23e
000002e0: da18 a2be 1eac f0bc b273 123e d0d8 f33e
000002f0: f18d 96be b966 63be ea8a 51bd 7662 833e
00000300: c881 24be bc6c 1d3e 8c1a 21be 707a c03d
00000310: 8152 85be dd95 e23d 775d 6f3e 4a8b 8dbe
00000320: 414b c13e 31b4 833d 7135 853e d306 d43e
00000330: 261b c63c 420a 003e 81b8 ad3d b900 0b3d
00000340: 3944 7ebe d432 a4be 1c6b abbd 66f6 2e3d
00000350: 7fb8 bb3e 87d0 903e 7995 49bd ee45 413e
00000360: 730c 3c3e 9494 bf3d 8fdf fb3b cd84 353e
00000370: 5e7a 973e 3d94 6a3d 6df5 ebbc 336f dfbd
00000380: 96bc a43e a428 cf3e ad5f 903e ce8c 843e
00000390: 8912 94bb 8a22 91bd 2992 c5bd 847c dabd
000003a0: 74a4 76bd aaa8 cd3d 50c8 1fbe 6031 b6bd
000003b0: 1597 583e ea42 a1ba eb11 713e c9ae dbbc
000003c0: d3ac 95bd 480f e63e b374 4e3e 8637 5cbe
000003d0: f112 e2be bf57 bd3d 943f 04be 65c4 08be
000003e0: 5656 d8bc 0b5b 80bd d431 be3e e084 94be
000003f0: 5335 a13d a11a a1be 1491 adbe 12b1 b23d

conv4.0.bias f4 [20]
-0.22855881 -0.3257305 -0.19839595 -0.33379978 -0.35828054 -0.5408685 0.09098647 -0.32568696
-0.7497957 -0.13605918 0.08848365 -0.50508606 -0.6460049 -0.31019956 -0.19841775 0.17834897
-0.089275986 -0.25039527 -0.33980638 -0.2902886
00000000: 520b 6abe 26c6 a6be 4f28 4bbe cee7 aabe
00000010: 8c70 b7be 5c76 0abf 1d57 ba3d 71c0 a6be
00000020: 9cf2 3fbf 1953 0bbe ea36 b53d 524d 01bf
00000030: 9460 25bf 7ad2 9ebe 062e 4bbe 1da1 363e
00000040: 54d6 b6bd cf33 80be 1afb adbe b5a0 94be

conv4.2.weight f4 [20]
0.72748697 0.92445785 0.71953976 0.59523606 0.8774702 0.9414116 0.72590685 0.8360044
0.6894386 0.76663417 0.8088491 0.8441861 0.8479028 0.98057383 0.98423433 0.80310506
0.67724514 0.6289755 0.9689374 0.6709959
00000000: 963c 3a3f 45a9 6c3f c233 383f 6461 183f
00000010: e3a1 603f 5a00 713f 08d5 393f 6204 563f
00000020: 0c7f 303f 2342 443f bc10 4f3f 951c 583f
00000030: 2810 593f e306 7b3f c8f6 7b3f 4b98 4d3f
00000040: f05f 2d3f 8a04 213f 480c 783f 63c6 2b3f

conv4.2.bias f4 [20]
0.13417171 0.07858741 0.11727352 0.014381696 0.09194562 -0.08791375 0.15746698 0.058535274
-0.05924271 0.0692658 -0.06542576 0.06030944 -0.09910163 0.19429296 0.13399597 -0.08862407
-0.41718856 0.03234337 0.19537929 -0.22845353
00000000: 4f64 093e 70f2 a03d 192d f03d 34a1 6b3c
00000010: fc4d bc3d 200c b4bd 063f 213e afc2 6f3d
00000020: 7ca8 72bd 3adb 8d3d f1fd 85bd 0807 773d
00000030: ccf5 cabd bcf4 463e 3d36 093e 8980 b5bd
00000040: bd99 d5be 7b7a 043d 8211 483e b9ef 69be

conv4.2.running_mean f4 [20]
0.22225714 0.29639128 0.20322064 0.18139133 0.076023154 0.33130267 0.32718405 0.17269327
0.19916248 0.147126 0.32224843 0.069062345 0.20001869 0.32135034 0.3440945 0.4235936
0.40113866 0.23319818 0.15505111 0.1157344
00000000: 6097 633e 99c0 973e 1219 503e a6be 393e
00000010: 07b2 9b3d 81a0 a93e ab84 a73e 81d6 303e
00000020: 40f1 4b3e 33a8 163e bffd a43e 8f70 8d3d
00000030: b3d1 4c3e 0888 a43e 282d b03e 43e1 d83e
00000040: 0c62 cd3e 81cb 6e3e b8c5 1e3e 2806 ed3d

conv4.2.running_var f4 [20]
0.2746344 0.49173877 0.2371123 0.20171429 0.06750304 0.38819438 0.24426903 0.18068197
0.25668746 0.10779601 0.19648501 0.054991513 0.21779321 0.42455518 0.42277887 0.15980849
0.21767545 0.13389471 0.18419872 0.08180326
00000000: e19c 8c3e 2fc5 fb3e 91cd 723e 318e 4e3e
00000010: 093f 8a3d 6ac1 c63e a921 7a3e b204 393e
00000020: 8a6c 833e 28c4 dc3d 5e33 493e c83e 613d
00000030: 2f05 5f3e 4c5f d93e 7976 d83e d6a4 233e
00000040: 50e6 5e3e b21b 093e 979e 3c3e 7888 a73d

conv5.0.weight f4 [20, 20, 4, 1]
0.10325313 0.1426082 -0.16601743 -0.23576744 0.00047560877 0.15990674 0.0041224007 0.08070734
-0.13767724 -0.2691204 -0.11537911 -0.10864425 0.014081814 -0.30412528 -0.23611209 -0.104366384
0.11489849 -0.06441424 -0.3803141 -0.4307187 0.13572417 0.117721565 0.26160678 0.15787639
0.15427336 0.05359888 0.10004205 -0.24948856 0.12514135 0.23644559 -0.22379823 -0.16692016
0.114677586 0.08042124 -0.41388887 0.23969717 -0.02249767 -0.12932627 0.13762967 -0.30774617
0.16468346 0.19036469 -0.30809513 0.15427278 0.0021076833 0.1965167 0.36182556 -0.019388666
0.232331 -0.0045005023 -0.21613912 -0.052715186 0.22821522 0.48163763 0.10365095 -0.059917815
-0.1623211 -0.0068582217 0.029818097 0.21367799 -0.1468678 -0.09622865 -0.09750922 0.16477379
0.12917781 0.09321086 0.05476464 0.13727853 0.11044756 -0.019334795 -0.10396409 -0.16029584
-0.002405869 0.3245748 -0.030998291 0.10770106 -0.43687174 0.33611473 0.21635492 0.21679617
0.195542 -0.1957285 -0.11933077 -0.4247269 0.13097353 -0.048611924 -0.12529463 -0.23883207
-0.0514939 -0.12487969 0.33955604 -0.27718028 0.030311443 0.16831425 0.08532653 0.30890182
0.17065711 -0.06751137 0.08819096 -0.39663306 0.18394881 0.19968565 0.21312585 0.085636176
0.2607001 -0.12846212 -0.0053954385 -0.20610926 -0.09920801 -0.14369395 -0.017474307 -0.20083737
0.23375952 -0.14752764 0.39694518 0.339396 -0.016803456 0.008965694 0.26634118 -0.4133893
0.008956073 0.019518146 -0.11973972 0.10642304 -0.01763582 0.18308365 -0.3799077 0.13815752
0.03025306 0.24631456 0.18170764 -0.42047548 -0.06429528 0.07940804 -0.10660864 0.08855592
0.36138824 0.2961585 -0.27627492 0.18582727 0.007829767 -0.123380505 0.057034977 0.25797254
0.19974606 0.008402383 -0.13322163 0.15066898 -0.12070093 0.20540027 -0.3386785 0.04004673
0.037755407 0.019589758 0.08702664 -0.48159084 0.05892555 0.1866792 0.2067596 0.16842258
-0.23259494 0.28349867 -0.12606156 -0.1423423 -0.41289553 0.002887626 -0.26474756 -0.31439245
-0.026872102 0.107232966 -0.043485876 -0.598358 -0.17768613 -0.17366573 -0.3741218 -0.5410838
0.0597497 -0.03760965 0.40703797 -0.078935966 -0.5766215 -0.17126301 -0.10902022 -0.48786244
0.006071858 0.039700158 0.20217095 0.15353438 -0.23920624 0.004512184 -0.06651655 -0.13701779
-0.29322097 -0.30969432 -0.2438596 -0.339287 0.30638015 0.08266658 -0.112248994 -0.65641713
0.30160317 -0.2982653 -0.075848944 0.07369028 -0.06549178 0.012550134 0.20312499 0.11945775
-0.37011206 -0.8988352 -0.13596787 -0.33483404 0.037084688 0.32332563 0.14199632 -0.35259733
-0.067400716 0.09592125 -0.17607233 -0.3465254 0.02172556 -0.50017923 -0.27708104 0.11775615
-0.32295454 -0.26762775 -0.38195387 0.0145631945 -0.48779342 -0.12957394 0.07035615 0.13771595
-0.055322926 0.1589798 -0.12566768 -0.13662405 0.15777272 0.01116148 -0.078251265 -0.12213981
-0.13373232 -0.28931618 0.26506838 -0.51056945 0.07628936 0.077749416 -0.010173457 -0.055774704
-0.4993926 0.09500959 -0.0009305466 -0.20444901 -0.040451493 0.007636793 0.0017281389 0.055273227
00000000: 6176 d33d e207 123e 7900 2abe 056d 71be
00000010: 215b f939 98be 233e 3415 873b e449 a53d
00000020: 43fb 0cbe 26ca 89be e24b ecbd e080 debd
00000030: 69b7 663c 4fb6 9bbe 5ec7 71be 0bbe d5bd
00000040: e64f eb3d 9deb 83bd 88b8 c2be 2987 dcbe
00000050: 47fb 0a3e 0118 f13d 53f1 853e 59aa 213e
00000060: d6f9 1d3e 808a 5b3d d9e2 cc3d ee79 7fbe
00000070: 0e25 003e cb1e 723e 5d2b 65be 1eed 2abe
00000080: 15dc ea3d e4b3 a43d 3ee9 d3be 2d73 753e
00000090: 094d b8bc 1b6e 04be cbee 0c3e e890 9dbe
000000a0: c8a2 283e f6ee 423e a5be 9dbe aff9 1d3e
000000b0: 0f21 0a3b ac3b 493e 3341 b93e fbd4 9ebc
000000c0: 2de8 6d3e f378 93bb 9353 5dbe e1eb 57bd
000000d0: 40b1 693e 3599 f63e f346 d43d 626c 75bd
000000e0: 8137 26be efba e0bb 1545 f43c 67ce 5a3e
000000f0: 8364 16be 8713 c5bd eab2 c7bd 76ba 283e
00000100: 3047 043e 56e5 be3d e350 603d be92 0c3e
00000110: 5532 e23d 0164 9ebc 20eb d4bd 9824 24be
00000120: c9ab 1dbb ab2e a63e 21f0 fdbc 6092 dc3d
00000130: a7ad dfbe 3b17 ac3e 258c 5d3e d1ff 5d3e
00000140: 293c 483e 0d6d 48be b163 f4bd ce75 d9be
00000150: ed1d 063e 4c1d 47bd 3c4d 00be 6590 74be
00000160: 45eb 52bd ecc0 ffbd 4ada ad3e 93ea 8dbe
00000170: b44f f83c 925a 2c3e adbf ae3d 6128 9e3e
00000180: bdc0 2e3e 6743 8abd 769d b43d 7d13 cbbe
00000190: 145d 3c3e 657a 4c3e aa3d 5a3e 0562 af3d
000001a0: 7c7a 853e 938b 03be 38cc b0bb 4e0e 53be
000001b0: 922d cbbd 8224 13be 4726 8fbc 50a8 4dbe
000001c0: a85e 6f3e 7c11 17be 663c cb3e 50c5 ad3e
000001d0: 67a7 89bc d9e4 123c df5d 883e c3a7 d3be
000001e0: 7ebc 123c 85e4 9f3c 193a f5bd 53f4 d93d
000001f0: ff78 90bc 487a 3b3e 4383 c2be 2a79 0d3e
00000200: 44d5 f73c e239 7c3e 9111 3a3e 9048 d7be
00000210: 3ead 83bd afa0 a23d a155 dabd ce5c b53d
00000220: e107 b93e 16a2 973e e873 8dbe 8149 3e3e
00000230: 6c48 003c ebae fcbd 829d 693d fa14 843e
00000240: 3b8a 4c3e 26aa 093c 406b 08be f848 1a3e
00000250: 0d32 f7bd 7354 523e 4567 adbe 0a08 243d
00000260: 6aa5 1a3d b37a a03c 063b b23d 1393 f6be
00000270: eb5b 713d d528 3f3e cab8 533e f876 2c3e
00000280: 5e2d 6ebe bd26 913e 4816 01be 2ec2 11be
00000290: 0b67 d3be 533e 3d3b fe8c 87be 0cf8 a0be
000002a0: e222 dcbc f59c db3d 3f1e 32bd fd2d 19bf
000002b0: 5af3 35be 6ed5 31be e48c bfbe 7884 0abf
000002c0: 1abc 743d 940c 1abd 4867 d03e 2ea9 a1bd
000002d0: 779d 13bf 925f 2fbe fe45 dfbd 1bc9 f9be
000002e0: 70f6 c63b a29c 223d e705 4f3e 1e38 1d3e
000002f0: 7bf2 74be f1da 933b d439 88bd 644e 0cbe
00000300: 0f21 96be 4190 9ebe 55b6 79be 07b7 adbe
00000310: dcdd 9c3e 194d a93d cde2 e5bd f40a 28bf
00000320: bb6b 9a3e 3bb6 98be b156 9bbd eeea 963d
00000330: 8e20 86bd 149f 4d3c ffff 4f3e 44a6 f43d
00000340: 547f bdbe 101a 66bf 293b 0bbe 5e6f abbe
00000350: 1de6 173d f08a a53e 7c67 113e a387 b4be
00000360: 6309 8abd 5c72 c43d 4e4c 34be c76b b1be
00000370: cdf9 b13c bf0b 00bf 91dd 8dbe 232a f13d
00000380: 4c5a a5be 8106 89be 758f c3be 779a 6e3c
00000390: 0fc0 f9be 08af 04be e316 903d 6905 0d3e
000003a0: 4b9a 62bd 9acb 223e 07af 00be 2de7 0bbe
000003b0: 2c8f 213e a4de 363c 3342 a0bd 7024 fabd
000003c0: 20f1 08be 4021 94be 0bb7 873e aeb4 02bf
000003d0: 993d 9c3d 163b 9f3d 92ae 26bc 0474 64bd
000003e0: 63b0 ffbe 6394 c23d edef 73ba 155b 51be
000003f0: 77b0 25bd 103e fa3b b882 e23a 2e66 623d

conv5.0.bias f4 [20]
-0.5350526 -0.70079064 -0.016488286 -0.23101705 -0.46308 -0.54271513 -0.15523852 -0.23442253
-0.25155625 -0.49154326 -0.7123891 -0.27734143 -0.34408534 -0.11529109 -0.36477476 -0.61539006
0.26617044 -0.6971856 -0.4487205 -0.09125162
00000000: 35f9 08bf 0467 33bf 7112 87bc bc8f 6cbe
00000010: d218 edbe 61ef 0abf d9f6 1ebe 760c 70be
00000020: fbcb 80be 8fab fbbe 225f 36bf b2ff 8dbe
00000030: f42b b0be bc1d ecbd c2c3 babe 348a 1dbf
00000040: 7e47 883e c17a 32bf b2be e5be 21e2 babd

conv5.2.weight f4 [20]
0.4637063 0.66636044 1.0222863 0.78405094 0.5263274 0.5535757 0.93630385 0.78514916
0.70353025 0.6156071 0.47396284 0.7481863 0.5913737 0.6179723 0.7780204 0.637326
0.8990671 0.72610885 0.58475655 1.484817
00000000: ea6a ed3e 9996 2a3f 47da 823f 90b7 483f
00000010: 64bd 063f 23b7 0d3f 9cb1 6f3f 89ff 483f
00000020: 8f1a 343f 6d98 1d3f 42ab f23e 2389 3f3f
00000030: 4464 173f 6f33 1e3f 582c 473f cc27 233f
00000040: 4329 663f 45e2 393f 9bb2 153f 7c0e be3f

conv5.2.bias f4 [20]
-0.52336085 -0.55018425 0.054208457 -0.033700474 -0.050393596 -0.4576964 -0.31411386 -0.042210203
0.008649841 -0.19839253 -0.5502652 -0.019822424 -0.14230762 -0.050458953 -0.115006275 -0.3459412
-0.12718774 -0.21239652 -0.18686019 -0.103387624
00000000: fafa 05bf e0d8 0cbf b009 5e3d 8209 0abd
00000010: 8469 4ebd 2f57 eabe 88d3 a0be 9be4 2cbd
00000020: 10b8 0d3c 6927 4bbe 2ede 0cbf a362 a2bc
00000030: 17b9 11be 0cae 4ebd 6988 ebbd 341f b1be
00000040: 813d 02be 797e 59be 4758 3fbe e4bc d3bd

conv5.2.running_mean f4 [20]
0.49248633 0.48986855 0.32415795 0.4060081 0.30320376 0.5000015 0.3557015 0.49580124
0.22082992 0.25127918 0.44331974 0.3585518 0.47324178 0.45317382 0.22310577 0.28936484
0.35132733 0.33299106 0.29963082 0.15906858
00000000: 2b27 fc3e 0dd0 fa3e 08f8 a53e 4be0 cf3e
00000010: 863d 9b3e 1900 003f 821e b63e a9d9 fd3e
00000020: 3d21 623e aaa7 803e cefa e23e 1a94 b73e
00000030: bf4c f23e 6606 e83e d775 643e a127 943e
00000040: 2de1 b33e ce7d aa3e 3669 993e e0e2 223e

conv5.2.running_var f4 [20]
0.6679232 0.74196523 0.19289684 0.57026386 0.34192798 0.5653581 0.21699794 0.64121133
0.1786675 0.3656223 0.5142603 0.33261356 0.51049733 0.44010618 0.28121573 0.28676793
0.20918335 0.44229817 0.28062013 0.079426356
00000000: 04fd 2a3f 6ff1 3d3f c086 453e d0fc 113f
00000010: 2f11 af3e 4fbb 103f b534 5e3e 6d26 243f
00000020: 9df4 363e d932 bb3e 90a6 033f 534c aa3e
00000030: f4af 023f 9955 e13e 82fb 8f3e 3fd3 923e
00000040: 2934 563e e874 e23e 71ad 8f3e 49aa a23d

fc1.1.weight f4 [10, 740]
-0.14733301 -0.22750933 -0.636441 -0.24555638 -0.25781825 -0.18298332 -0.2587752 -0.40242928
-0.5267056 -0.027823437 -0.2528523 -0.050682902 0.0059093903 -0.5721715 -0.22287814 -0.19156565
-0.15993173 -0.05006851 -0.1489026 -0.1323041 -0.33834365 -0.126579 0.16362217 -0.1847518
-0.48321563 -0.24005303 -0.14406265 -0.1681676 -0.15787171 -0.25232983 0.038301785 -0.31298834
-0.21668552 0.09874135 0.04715889 0.25521183 0.18174353 -0.34470955 -0.2942291 -0.45849425
-0.34282702 -0.22266 -0.53563994 -0.25446543 -0.22258195 -0.14436103 -0.432592 -0.3009845
-0.11182903 -0.29714707 -0.42213845 -0.04258984 -0.2381213 -0.50637877 0.010876012 -0.18365346
-0.40163377 -0.37488326 -0.22406502 -0.33584714 0.09170663 -0.37405407 -0.43424737 0.27219796
-0.04923073 0.012182364 -0.20033224 -0.35989714 -0.09378305 0.077660374 -0.24057406 -0.37740645
-0.06005049 -0.29805887 0.20197493 0.28427097 0.25795802 0.33691102 0.339072 0.35292858
-0.10972541 0.1992617 0.13692425 0.29138654 0.13569735 0.20275027 0.33191928 0.14630908
0.16821048 0.18947574 0.3447203 -0.13481992 0.13607952 -0.09486303 0.16084136 -0.0033874898
0.20808291 0.18214472 0.056597166 -0.013273573 0.009999748 0.08712496 0.012433229 0.2509078
0.1461972 -0.19478332 -0.0013504087 -0.027462251 -0.22395258 -0.12783128 -0.12145952 0.691299
-0.042240027 -0.18947394 0.08669998 0.34697235 -0.13040785 0.18300158 0.2834282 0.22396983
-0.12270655 0.6351672 0.017663255 -0.27119267 0.23279072 0.20119463 0.03406263 -0.12292148
0.2899896 0.0923118 0.08413582 -0.2119216 -0.055617977 -0.28210267 0.16268805 -0.01019493
-0.18213321 0.052768186 0.20987654 0.30457807 -0.010027286 -0.033331614 0.33088282 -0.24079531
0.35833597 -0.043164693 0.30010557 0.14785174 0.28413534 -0.10403019 -0.29475388 0.103772804
0.1480781 0.02987 0.34937102 -0.124171935 0.14735912 -0.09229416 -0.15000975 0.16972011
0.03026602 -0.16724475 0.17679393 0.25154433 0.23333593 -0.020061145 -0.08594497 -0.0039302935
0.009155892 -0.038990475 0.18770121 -0.2274098 -0.020455884 0.29493985 -0.16389962 -0.6019781
0.017755708 0.16083239 0.3007106 0.12211808 -0.06694917 0.16916984 -0.059170883 -0.328091
-0.33290425 -0.3980648 -0.51750785 -0.16885678 0.33784086 -0.15696631 0.08389667 -0.48250523
-0.51122177 -0.45596805 -0.3970518 0.017448988 -0.12683946 -0.03838971 -0.11478656 -0.13694654
-0.3479914 -0.26647177 -0.60589427 -0.3742104 -0.67907196 0.18880917 -0.0686678 -0.37267476
-0.465157 -0.10034686 0.12749745 -0.4531384 -0.31922564 -0.39272845 -0.28267482 -0.11826233
-0.19293734 -0.08027519 -0.13272266 -0.052594334 0.16068694 -0.2794267 -0.14893168 -0.29445258
-0.26919565 -0.58237803 -0.24636737 -0.1459419 -0.100773886 -0.4204758 -0.5012549 0.10395207
-0.4130643 -0.33177957 -0.17119443 -0.47996113 -0.1453394 -0.10673875 -0.1304534 -0.2614061
0.19196078 -0.18996316 -0.30738494 0.1938567 -0.19443665 -0.46851635 -0.09159033 -0.29749915
-0.69551 -0.00660989 -0.54198104 -0.5518987 0.15257134 -0.48987126 -0.39140972 -0.20311865
00000000: 77de 16be 35f8 68be cced 22bf 2273 7bbe
00000010: c100 84be fb5f 3bbe 2f7e 84be 360b cebe
00000020: 2ed6 06bf faed e3bc db75 81be e098 4fbd
00000030: 8fa3 c13b d579 12bf 2b3a 64be c929 44be
00000040: 25c5 23be a314 4dbd ec79 18be ba7a 07be
00000050: 613b adbe ed9d 01be 928c 273e 932f 3dbe
00000060: 0a68 f7be 76d0 75be 2985 13be 2134 2cbe
00000070: 1fa9 21be 6031 81be 55e2 1c3d 0240 a0be
00000080: cfe2 5dbe e838 ca3d ae29 413d 20ab 823e
00000090: fa1a 3a3e c57d b0be 32a5 96be c2bf eabe
000000a0: 0687 afbe fc00 64be b31f 09bf 4b49 82be
000000b0: 86ec 63be 61d3 13be b37c ddbe a41a 9abe
000000c0: 9e06 e5bd a923 98be 8822 d8be af72 2ebd
000000d0: 12d6 73be 0aa2 01bf 4d31 323c a70f 3cbe
000000e0: f1a2 cdbe b3f0 bfbe 4d71 65be 28f4 abbe
000000f0: b0d0 bb3d 0484 bfbe ac55 debe 885d 8b3e
00000100: 29a6 49bd 8a98 473c e523 4dbe 7044 b8be
00000110: 5411 c0bd 670c 9f3d 0c59 76be 6b3b c1be
00000120: 81f7 75bd 2c9b 98be 84d2 4e3e f78b 913e
00000130: 1313 843e 9a7f ac3e d89a ad3e 0eb3 b43e
00000140: b7b7 e0bd 420b 4c3e df35 0c3e 9e30 953e
00000150: 3ff4 0a3e c49d 4f3e 53f1 a93e 0cd2 153e
00000160: 5e3f 2c3e ee05 423e 2e7f b03e 3c0e 0abe
00000170: 6e58 0b3e 8c47 c2bd 99b3 243e a600 5ebb
00000180: b013 553e 2584 3a3e 6ed2 673d 6679 59bc
00000190: fcd5 233c 926e b23d beb4 4b3c fd76 803e
000001a0: b8b4 153e 4775 47be 3200 b1ba 84f8 e0bc
000001b0: d353 65be 34e6 02be c5bf f8bd f9f8 303f
000001c0: e103 2dbd 7505 42be c28f b13d 5ca6 b13e
000001d0: a389 05be c464 3b3e 801d 913e 5958 653e
000001e0: 924d fbbd 519a 223f 88b2 903c c4d9 8abe
000001f0: b160 6e3e f705 4e3e 4285 0b3d 42be fbbd
00000200: 8479 943e f80d bd3d 674f ac3d fa01 59be
00000210: adcf 63bd c36f 90be b297 263e a308 27bc
00000220: 2181 3abe 7423 583d e0e9 563e a8f1 9b3e
00000230: 7c49 24bc bb86 08bd 7969 a93e 0c93 76be
00000240: d077 b73e 76cd 30bd 70a7 993e 7266 173e
00000250: 307a 913e c80d d5bd fbe9 96be d686 d43d
00000260: c9a1 173e eeb1 f43c c2e0 b23e db4d febd
00000270: 4fe5 163e b804 bdbd 289c 19be 1ccb 2d3e
00000280: 72f0 f73c 3542 2bbe 7809 353e 6bca 803e
00000290: 9def 6e3e 4557 a4bc eb03 b0bd b1c9 80bb
000002a0: 9802 163c 7ab4 1fbd bf34 403e 1dde 68be
000002b0: 1993 a7bc 5b02 973e 4dd5 27be 3d1b 1abf
000002c0: 6b74 913c 3fb1 243e bdf6 993e 0b19 fa3d
000002d0: a51c 89bd dc3a 2d3e 2b5d 72bd 8bfb a7be
000002e0: 6d72 aabe 26cf cbbe 657b 04bf cbe8 2cbe
000002f0: 7af9 ac3e c7bb 20be 04d2 ab3d ed0a f7be
00000300: 6edf 02bf a574 e9be 604a cbbe 2ef1 8e3c
00000310: 34e2 01be 873e 1dbd 3715 ebbd b73b 0cbe
00000320: ee2b b2be fd6e 88be e31b 1bbf 8198 bfbe
00000330: a9d7 2dbf 3157 413e b4a1 8cbd 3acf bebe
00000340: 0f29 eebe a882 cdbd b18e 023e c201 e8be
00000350: 8b71 a3be b413 c9be c1ba 90be 8533 f2bd
00000360: 5e91 45be 5267 a4bd 73e8 07be 286d 57bd
00000370: 1e8b 243e 0411 8fbe 8c81 18be 7dc2 96be
00000380: 03d4 89be ba16 15bf ba47 7cbe cb71 15be
00000390: 8a62 cebd 9b48 d7be 3e52 00bf d3e4 d43d
000003a0: 2a7d d3be 03df a9be 984d 2fbe 77bd f5be
000003b0: dad3 14be d999 dabd 9395 05be 05d7 85be
000003c0: 5e91 443e b485 42be 8f61 9dbe 5f82 463e
000003d0: 671a 47be 60e1 efbe b693 bbbd cf51 98be
000003e0: f20c 32bf c797 d8bb 45bf 0abf 3c49 0dbf
000003f0: a93b 1c3e 68d0 fabe db66 c8be 56fe 4fbe

fc1.1.bias f4 [10]
0.19207707 -0.28824705 -0.15222645 0.04802332 -0.28544912 -0.06664877 0.102206476 -0.11878141
-0.00040794275 0.30667236
00000000: daaf 443e 1e95 93be 40e1 1bbe 1ab4 443d
00000010: 6326 92be 267f 88bd a151 d13d ab43 f3bd
00000020: 26e1 d5b9 2904 9d3e

fc2.0.weight f4 [2, 10]
0.10035637 -0.1663328 -0.087632105 -0.06587335 -0.041198518 -0.13367397 0.036185373 -0.014076235
-0.2967435 -0.10218492 0.2827092 -0.3103769 -0.2830651 -0.25720933 0.10295521 -0.3009555
-0.121323556 0.1766468 -0.08402102 0.09528013
00000000: a487 cd3d 2553 2abe 7678 b3bd 9be8 86bd
00000010: c7bf 28bd d4e1 08be 1d37 143d 02a0 66bc
00000020: c4ee 97be 5446 d1bd 43bf 903e b9e9 9ebe
00000030: e9ed 90be f1b0 83be 2eda d23d d716 9abe
00000040: 7c78 f8bd e6e2 343e 3613 acbd 3b22 c33d

fc2.0.bias f4 [2]
0.6207806 -0.79834676
00000000: 7aeb 1e3f 7460 4cbf
